logs/ckpt/epoch=9-step=270-v1.ckpt (torch, 204767 bytes, 45 tensors)

feature_extractor.Conv1D_1.conv_1.weight f4 [14, 14, 5]
0	0x3f8851fb	1.0650018
1	0x3f6707cc	0.9024627
2	0x3f8d2be8	1.1029024
3	0x3f4f7f7e	0.8105391
4	0x3f6b969e	0.920267
5	0x3fad0bc7	1.3519219
6	0x3f936b98	1.151721
7	0x3fab8cae	1.3402307
8	0x3f5e6970	0.86879635
9	0x3f707e33	0.93942565
10	0x3f69b1f8	0.91287184
11	0x3f59bf8e	0.85057914
12	0x3f31ee79	0.69504505
13	0x3f4473f4	0.7673943
14	0x3f3eee6c	0.7458255
15	0xbf976a06	-1.1829231
16	0xbf8ce101	-1.1006166
17	0xbf69b5ae	-0.91292846
18	0xbf561aa0	-0.83634377
19	0xbf4caa03	-0.7994692
20	0xbe437775	-0.19088538
21	0xbe635b43	-0.22202782
22	0xbe1aacf7	-0.15105043
23	0xbd4cc89b	-0.049996
24	0xbdee4cf9	-0.11635775
25	0xbdeb2f42	-0.11483623
26	0xbe36734b	-0.17817418
27	0xbe51f21b	-0.20502512
28	0xbc8e5fcc	-0.017379664
29	0xbdb067fa	-0.08613582
30	0x3fb779f4	1.4334092
31	0x3f99e4cf	1.2022952
32	0x3fa2b441	1.2711259
33	0x3f986f08	1.1908884
34	0x3f84f3dc	1.038692
35	0xbf8eb987	-1.1150368
36	0xbfaa4942	-1.3303607
37	0xbf959961	-1.1687433
38	0xbf6cc915	-0.92494327
39	0xbf523f6a	-0.8212801
40	0xbe7fb1c5	-0.24970157
41	0xbe031809	-0.12802137
42	0xbd85f476	-0.06540768
43	0xbdc8ca23	-0.098041795
44	0xbe0efcf1	-0.13963677
45	0xbe5df708	-0.21676266
46	0xbded4a22	-0.11586405
47	0xbd9dcccf	-0.0770508
48	0xbe5ae416	-0.2137607
49	0xbd1a0d2e	-0.037610225
50	0x3f36b056	0.7136282
51	0x3f6f7135	0.93532115
52	0x3f830b96	1.0237911
53	0x3f4c4709	0.7979589
54	0x3f7f019b	0.99611825
55	0x3f7359a8	0.9505868
56	0x3f45a981	0.7721177
57	0x3f39e007	0.72607464
58	0x3f433963	0.7625944
59	0x3f2fe1ff	0.6870422
60	0xbf12ac20	-0.5729389
61	0xbf5a6fde	-0.85326946
62	0xbf047e49	-0.51755196
63	0xbf269dae	-0.6508435
64	0xbf43a872	-0.764289
65	0xbf3c07dc	-0.7344949
66	0xbf585717	-0.8450789
67	0xbf38f56f	-0.722495
68	0xbf4b7402	-0.7947389
69	0xbf5761da	-0.84133685
70	0x3f74a937	0.955707
71	0x3f4783ec	0.7793567
72	0x3f67d20a	0.9055487
73	0x3f78f6fe	0.9725188
74	0x3f6c99d6	0.92422235
75	0x3faf336c	1.3687568
76	0x3f9da980	1.2317352
77	0x3fa832fa	1.3140557
78	0x3f7ce189	0.9878164
79	0x3f8395af	1.0280055
80	0x3f571e62	0.84030735
81	0x3f3fd633	0.7493622
82	0x3f3e1747	0.7425427
83	0x3f577244	0.8415873
84	0x3f5fa2d0	0.8735781
85	0xbf8eccca	-1.1156247
86	0xbf88ac80	-1.0677643
87	0xbf908171	-1.1289502
88	0xbf74c289	-0.9560934
89	0xbf6251a7	-0.8840584
90	0xbe0d6b1c	-0.1381039
91	0xbdd29df9	-0.10284037
92	0xbe606634	-0.21913987
93	0xbe4309ad	-0.1904666
94	0xbb86652d	-0.0041014166
95	0xbdd2d77d	-0.102950074
96	0xbe54b848	-0.20773423
97	0xbdc6a46d	-0.096993305
98	0xbe78eaf1	-0.24308373
99	0xbdcb7519	-0.09934444
100	0x3fa5eb60	1.2962456
101	0x3f9aa9d7	1.2083081
102	0x3f99316c	1.1968207
103	0x3f8bf52e	1.0934198
104	0x3f8addf5	1.0848986
105	0xbf869ec6	-1.0517204
106	0xbf97c938	-1.1858282
107	0xbf9e26e3	-1.2355617
108	0xbf8ef976	-1.116988
109	0xbf8b6a47	-1.0891808
110	0xbdc778d1	-0.09739841
111	0xbddb69fc	-0.10713574
112	0xbde6443e	-0.11243485
113	0xbe4bfa8a	-0.19919792
114	0xbca61e57	-0.020278139
115	0xbe1e3f26	-0.15453777
116	0xbe618829	-0.22024597
117	0xbd9cb6a4	-0.076520234
118	0xbe4c8360	-0.1997199
119	0xbe5f8227	-0.21826993
120	0x3f4e5161	0.80592924
121	0x3f62bdec	0.8857105
122	0x3f7ce2cb	0.9878356
123	0x3f706207	0.9389958
124	0x3f82fcf2	1.0233443
125	0x3f3827e4	0.7193587
126	0x3f20465b	0.62607354
127	0x3f3a367f	0.72739404
128	0x3f66333e	0.8992194
129	0x3f51e184	0.81984735
130	0xbf303f1e	-0.6884631
131	0xbf5940a3	-0.8486425
132	0xbf2e0a87	-0.67984813
133	0xbf3cd73f	-0.7376594
134	0xbf108d59	-0.5646568
135	0xbf50071f	-0.81260866
136	0xbf636438	-0.88824797
137	0xbf4a19a3	-0.7894537
138	0xbf6a109b	-0.9143159
139	0xbf4ad4e1	-0.7923108
140	0x3f8954f7	1.0729054
141	0x3f443947	0.766499
142	0x3f7bd911	0.9837809
143	0x3f81c84a	1.0139248
144	0x3f6cc755	0.92491657
145	0x3fb82ba6	1.438832
146	0x3f9fc473	1.2481827
147	0x3fa08dc4	1.2543263
148	0x3f7fc8f8	0.9991603
149	0x3f7244dc	0.9463632
150	0x3f5a35ae	0.8523816
151	0x3f6f50bb	0.9348256
152	0x3f44a4a1	0.76813704
153	0x3f44f9c7	0.7694363
154	0x3f522540	0.8208809
155	0xbf9e6ad1	-1.2376348
156	0xbf83b837	-1.0290593
157	0xbf8de7b4	-1.1086335
158	0xbf87c26c	-1.0606208
159	0xbf6235a1	-0.8836308
160	0xbe564e5f	-0.20928334
161	0xbe5d3444	-0.21601969
162	0xbdc057e9	-0.093917675
163	0xbe17b68a	-0.14815727
164	0x3c22bf65	0.009933327
165	0xbd3cd1c3	-0.046098482
166	0xbe6d47b5	-0.23171885
167	0xbe642ee0	-0.22283506
168	0xbe1cc573	-0.15309696
169	0xbe02a77d	-0.12759204
170	0x3fa1e3ad	1.2647606
171	0x3f9d50c2	1.229027
172	0x3f918120	1.1367531
173	0x3f890975	1.0706011
174	0x3f953ab4	1.165854
175	0xbf88e13f	-1.069374
176	0xbf9bf990	-1.2185535
177	0xbf8a5f15	-1.0810267
178	0xbf871be7	-1.055539
179	0xbf6ce08a	-0.9253012
180	0xbe3389a8	-0.1753298
181	0xbe075498	-0.13215864
182	0xbca49137	-0.020088775
183	0xbd64339f	-0.055713292
184	0xbe43b2e2	-0.19111207
185	0xbcf8307a	-0.030296553
186	0xbe378eb0	-0.17925525
187	0xbe1608b7	-0.14651762
188	0xbde829c3	-0.113360904
189	0xbe85d559	-0.26139334
190	0x3f806163	1.002972
191	0x3f5bb2e1	0.8581982
192	0x3f703682	0.9383317
193	0x3f5278ea	0.8221575
194	0x3f824c64	1.0179563
195	0x3f387dcc	0.7206695
196	0x3f50b84e	0.81531227
197	0x3f4ced03	0.8004915
198	0x3f3593e2	0.70928776
199	0x3f59e63d	0.8511694
200	0xbf3b1cc2	-0.73090756
201	0xbf42ad9c	-0.76046157
202	0xbf40f01b	-0.7536637
203	0xbf21f8b7	-0.63270134
204	0xbf4d50f4	-0.8020165
205	0xbf4dc8f9	-0.80384785
206	0xbf3d541d	-0.7395647
207	0xbf5b191f	-0.85585207
208	0xbf5ae0c3	-0.8549921
209	0xbf38d21c	-0.721956
210	0xbd8d652e	-0.06904064
211	0xbd71cb9c	-0.059032068
212	0xbe321daf	-0.17394136
213	0xbe7e3422	-0.24824575
214	0xbd9ce34d	-0.07660542
215	0xbd142924	-0.036172047
216	0xbc951264	-0.018197246
217	0xbdb4c885	-0.088273086
218	0xbdab6371	-0.08368576
219	0xbbb4d20b	-0.005518203
220	0xbde29769	-0.110640354
221	0xbdd836b9	-0.105573125
222	0xbe902f55	-0.2816111
223	0xbd512da0	-0.051068902
224	0xbe1bbb48	-0.15208161
225	0x3da86431	0.08222235
226	0x3e5cfa7f	0.21579932
227	0x3e50c534	0.20387727
228	0x3e6e63f7	0.23280321
229	0x3dfbfd24	0.12304142
230	0xbde1ba11	-0.110218175
231	0xbe764aa6	-0.24051914
232	0xbea41932	-0.32050472
233	0xbea15361	-0.31508926
234	0xbe1f3498	-0.15547407
235	0xbe8d1760	-0.27556896
236	0xbe3ae34f	-0.18250774
237	0xbe522187	-0.20520602
238	0xbe25afb6	-0.1618031
239	0xbe0fbfdf	-0.14038037
240	0xbe083c87	-0.1330434
241	0xbe3b7ea1	-0.18310024
242	0xbe36fce1	-0.17869903
243	0xbe850954	-0.2598368
244	0xbe2a979e	-0.166594
245	0x3e59f043	0.21283059
246	0x3d89645c	0.06708595
247	0x3e4b3f37	0.19848333
248	0x3d908c5e	0.07058023
249	0x3db65c99	0.0890438
250	0xbe1812d3	-0.14850931
251	0xbe5847d5	-0.21121152
252	0xbe175a91	-0.14780642
253	0xbea15519	-0.31510237
254	0xbe9f383c	-0.3109759
255	0xbdb72325	-0.0894225

feature_extractor.Conv1D_1.conv_1.bias f4 [14]
0	0x3e4803d3	0.19532709
1	0x3dc903fd	0.09815214
2	0x3e269282	0.16266826
3	0x3e498f2c	0.19683522
4	0x3e0c33d3	0.13691644
5	0x3e800bf1	0.2500911
6	0x3dd26fe1	0.102752455
7	0x3e422a7c	0.18961519
8	0x3e651732	0.2237213
9	0x3da95e2d	0.08269916
10	0x3e0f4a67	0.13993226
11	0x3e1f29b3	0.1554325
12	0x3e1ef14e	0.15521738
13	0x3e7b6e08	0.24553692

feature_extractor.Conv1D_2.conv_1.weight f4 [28, 14, 3]
0	0xbe1adea2	-0.1512399
1	0xbd697f93	-0.05700643
2	0xbe2e0e8f	-0.16997741
3	0xbe1c3ad5	-0.15256818
4	0xbe06bd11	-0.1315806
5	0xbef6e79c	-0.4822358
6	0xbe31b010	-0.17352319
7	0xbdcd4c01	-0.10024262
8	0xbe879748	-0.26482606
9	0x3d1e1d5c	0.038602218
10	0x3e237218	0.15961492
11	0x3e08c4ef	0.13356374
12	0x3e80ab2d	0.25130597
13	0x3d4a5a50	0.049402535
14	0x3df9e0d8	0.12201089
15	0x3e94dcfe	0.29074854
16	0x3e1e3ce4	0.15452915
17	0x3e01599a	0.12631837
18	0xbe69d1c9	-0.22833933
19	0xbece03c1	-0.4023724
20	0xbebcb2f5	-0.36855283
21	0xbe92dbb3	-0.28683242
22	0xbe2e8a3a	-0.17044917
23	0xbeb2362d	-0.34806958
24	0xbe93c696	-0.28862447
25	0xbe670853	-0.22561769
26	0xbf114cae	-0.5675763
27	0x3cb5842c	0.022157751
28	0x3d70a35c	0.05874954
29	0x3e556e77	0.2084292
30	0xbe66ee5b	-0.22551863
31	0xbddddcfa	-0.108331636
32	0xbed9f408	-0.42568994
33	0xbe26600c	-0.16247576
34	0xbe87ec76	-0.26547593
35	0xbe421fba	-0.18957415
36	0xbea69caf	-0.32541415
37	0xbd9add10	-0.075616956
38	0xbf0db3de	-0.5535258
39	0x3e22713a	0.15863505
40	0x3da16d0d	0.07882128
41	0x3e11bdfb	0.14232628
42	0x3e3727c3	0.17886262
43	0xbe76bd00	-0.24095535
44	0x3cdfe310	0.027329952
45	0xbebb3ac2	-0.36568266
46	0xbd5ad6d4	-0.053427532
47	0xbdeaa64e	-0.11457501
48	0xbe4c1954	-0.19931537
49	0xbde72faa	-0.11288388
50	0xbec5d9c8	-0.38642716
51	0xbdabe345	-0.083929576
52	0x3dff575c	0.12467834
53	0x3d764310	0.06012255
54	0x3dbf3009	0.09335334
55	0x3d8812dc	0.06644222
56	0x3d0077ae	0.031364135
57	0x3de01fb9	0.109435506
58	0x3e6ef7df	0.23336743
59	0x3e3c44b1	0.18385579
60	0xbe8dddab	-0.27708182
61	0xbd9125e1	-0.07087303
62	0xbe4abbd3	-0.19798212
63	0xbea2b7d7	-0.31780884
64	0xbcfb3d04	-0.030668743
65	0xbe83c421	-0.25735572
66	0xbe88b301	-0.2669907
67	0xbeaace3b	-0.33360466
68	0xbe8affbc	-0.27148235
69	0x3d70ea3c	0.058817133
70	0x3d3e72b0	0.046496093
71	0x3de85746	0.11344771
72	0xbea60246	-0.3242361
73	0xbe9f7633	-0.31144866
74	0xbe2f15b9	-0.1709813
75	0xbec68e1c	-0.38780296
76	0xbe2b45ed	-0.16725893
77	0xbea4c509	-0.32181576
78	0xbe006fd9	-0.12542666
79	0xbe2a5611	-0.16634394
80	0xbe5d602e	-0.21618721
81	0x3e51a131	0.20471646
82	0x3e2a849c	0.16652149
83	0xbc46b021	-0.012126953
84	0xbef6794d	-0.4813942
85	0xbf01e366	-0.5073761
86	0xbf2a7bf3	-0.6659538
87	0xbf741eb2	-0.9535934
88	0xbf33a363	-0.70171183
89	0xbf237ef7	-0.6386561
90	0xbf23c0cb	-0.63966054
91	0xbf517981	-0.81826025
92	0xbf6e5467	-0.9309754
93	0x3d9c5fc3	0.076354526
94	0x3ea315c9	0.31852558
95	0x3e7a3f04	0.24438101
96	0x3e7509ec	0.23929566
97	0x3e877358	0.26455188
98	0x3d8dccca	0.06923826
99	0x3dc35f9d	0.09539721
100	0x3e0452bf	0.1292219
101	0x3d8259e8	0.063648045
102	0xbf2235b5	-0.633632
103	0xbf582d9a	-0.8444458
104	0xbf2a03d7	-0.6641211
105	0xbf412175	-0.75441676
106	0xbf33c224	-0.7021811
107	0xbf1dcf3d	-0.61644346
108	0xbf5c4746	-0.86046255
109	0xbf1e9150	-0.6194048
110	0xbf3f386e	-0.7469548
111	0x3df9301c	0.12167379
112	0x3e803f91	0.25048497
113	0x3e00fb8a	0.12595955
114	0xbf629ad4	-0.885175
115	0xbf4c8165	-0.7988494
116	0xbf5f4f47	-0.8723034
117	0xbf4f4f62	-0.80980504
118	0xbf157724	-0.5838492
119	0xbf3ace90	-0.7297144
120	0xbf66fc7e	-0.9022902
121	0xbf18cdfc	-0.5968931
122	0xbf604764	-0.87608933
123	0x3e5383b9	0.20655717
124	0x3e5ad095	0.2136863
125	0x3e9d6930	0.30744314
126	0xbc8ceb6b	-0.0172021
127	0xbe6e1cda	-0.23253193
128	0xbdee16db	-0.11625453
129	0xbe08cb1e	-0.13358733
130	0xbecfdc9f	-0.40598008
131	0xbeb6cf53	-0.3570505
132	0xbda36dd8	-0.079799354
133	0xbe883351	-0.2660165
134	0xbe078789	-0.13235296
135	0x3e41f324	0.18940407
136	0x3bf6e0b1	0.0075341095
137	0x3cfc87ac	0.030826412
138	0x3e636411	0.22206141
139	0xbb24aadb	-0.0025126252
140	0x3dfe6d20	0.12423158
141	0x3e107443	0.1410685
142	0x3e32e343	0.17469506
143	0x3e1b6a54	0.1517728
144	0xbe357371	-0.17719819
145	0xbde9b5c4	-0.11411622
146	0xbed08745	-0.40728202
147	0xbdf43577	-0.1192426
148	0xbb3a03c8	-0.0028383601
149	0xbe4c1799	-0.19930877
150	0xbe803593	-0.25040874
151	0xbe4158b5	-0.18881495
152	0xbe969def	-0.2941737
153	0x3d8fdb1a	0.07024212
154	0x3c59728d	0.01327194
155	0xbd30e56c	-0.043187544
156	0xbe17ebc8	-0.14836037
157	0xbe7b564c	-0.24544638
158	0xbeb00704	-0.34380352
159	0xbe881777	-0.26580402
160	0xbe8c5746	-0.27410334
161	0xbe968f36	-0.29406136
162	0xbea9fbe3	-0.33199987
163	0xbe8aae2e	-0.27086014
164	0xbe9f8727	-0.311578
165	0x3d2c0b10	0.042002738
166	0x3db85b95	0.09001843
167	0x3cda0664	0.026614375
168	0xbe3f3493	-0.18672399
169	0xbd1cb718	-0.03826055
170	0xbd217d5b	-0.03942619
171	0xbdcee289	-0.10101802
172	0xbdb28b38	-0.0871796
173	0xbd4b1fe9	-0.04959098
174	0xbe52e6c5	-0.20595844
175	0xbe1ccb1a	-0.15311852
176	0xbe597ba9	-0.21238579
177	0x3ea67ae5	0.32515636
178	0x3e2d7ace	0.16941378
179	0x3e9a1e2e	0.3010115
180	0x3e8a215f	0.26978585
181	0x3eab1f8e	0.33422512
182	0x3d5a9eac	0.053373978
183	0x3db96829	0.0905307
184	0x3e46bbca	0.19407573
185	0x3e273d2a	0.16331926
186	0xbe81b628	-0.25334287
187	0x3cda5d2a	0.026655752
188	0xbe340296	-0.17579111
189	0xbe8eca11	-0.2788854
190	0x3d699869	0.057030115
191	0xbd777afa	-0.060420014
192	0xbc874995	-0.016514579
193	0xbd925ea8	-0.071469605
194	0xbd7d7c17	-0.06188592
195	0x3da78c21	0.08181024
196	0x3e9b0a95	0.3028151
197	0x3d9b53d1	0.07584346
198	0xbe601baa	-0.21885553
199	0x3cefddfc	0.029280655
200	0xbe5db96d	-0.21652766
201	0xbd2cb747	-0.042166974
202	0x3dbe7c68	0.09301072
203	0xbe2075fe	-0.1567001
204	0xbe85c28e	-0.26124996
205	0xbdf84046	-0.12121634
206	0xbe874b86	-0.26424807
207	0x3ea8956e	0.32926506
208	0x3e0f7025	0.14007623
209	0x3e387763	0.18014292
210	0xbe7b097f	-0.24515341
211	0xbd8ee6a6	-0.069775864
212	0xbe3e8288	-0.18604481
213	0xbed4eb52	-0.41585785
214	0xbeae40cc	-0.3403381
215	0xbf07499d	-0.528467
216	0xbe933571	-0.2875171
217	0xbecdbf68	-0.40185094
218	0xbe2082bb	-0.1567487
219	0xbe048328	-0.12940657
220	0xbd9da092	-0.07696642
221	0xbd78d6f3	-0.060751867
222	0xbca6d6b1	-0.020366045
223	0xbd45909b	-0.04823361
224	0xbccba6b0	-0.024859756
225	0x3de2e921	0.11079622
226	0x3dbeac6f	0.09310233
227	0xbddd1fd2	-0.10797085
228	0xbec077b2	-0.3759132
229	0xbe1acd97	-0.15117489
230	0xbec6d3e0	-0.38833523
231	0xbe80f221	-0.2518473
232	0xbebf86bf	-0.3740749
233	0xbe565fa8	-0.20934927
234	0xbe97467f	-0.29545972
235	0xbea7409e	-0.32666487
236	0xbe70b2b1	-0.23505665
237	0x3d567639	0.05235884
238	0xbd14e934	-0.036355212
239	0xbd326f34	-0.043563083
240	0xbe391000	-0.1807251
241	0xbe436fd2	-0.19085625
242	0xbe8965c1	-0.26835445
243	0xbe8b15da	-0.2716511
244	0xbe938658	-0.28813434
245	0xbedb6624	-0.42851365
246	0xbe95bf8c	-0.292477
247	0xbe186e4c	-0.14885825
248	0xbe8992b2	-0.26869732
249	0xbddfd86f	-0.10929953
250	0xbd7186ff	-0.058966633
251	0x3e145b39	0.14487924
252	0x3e6ca026	0.23107967
253	0x3e0d14de	0.13777491
254	0x3d2ce5e7	0.04221144
255	0xbda159ee	-0.07878481

feature_extractor.Conv1D_2.conv_1.bias f4 [28]
0	0x3ead1694	0.33806288
1	0x3e2c7722	0.1684232
2	0x3e280e70	0.16411757
3	0x3db10b31	0.08644713
4	0x3da46fd1	0.0802914
5	0x3e2f626c	0.17127389
6	0x3dd15f89	0.102233
7	0xbccc5880	-0.024944544
8	0x3e9cff8c	0.30663717
9	0xbe411182	-0.18854335
10	0x3d8c8b06	0.06862454
11	0x3c426268	0.011864282
12	0x3e294e02	0.16533664
13	0x3cdff96c	0.027340613
14	0x3deeb9aa	0.11656506
15	0xbc348e31	-0.011020229
16	0x3e500a37	0.20316397
17	0x3d7db4a0	0.061939836
18	0x3d307f8c	0.04309039
19	0xbd4dac08	-0.05021289
20	0x3e1895f5	0.14900954
21	0x3e0df43f	0.13862704
22	0x3e63d039	0.222474
23	0xbe1a840e	-0.15089437
24	0x3d9e827d	0.077397324
25	0xbe23e9cb	-0.16007154
26	0x3e908360	0.2822523
27	0xbd69dc27	-0.05709472

temporal_extractor.LSTM.lstm.weight_ih_l0 f4 [200, 5]
0	0xbec56ebd	-0.3856105
1	0xbf0b8131	-0.54494005
2	0xbf18ffbb	-0.59765214
3	0xbef9b3aa	-0.48769885
4	0xbe83c0a7	-0.2573292
5	0x3ee16a90	0.44026613
6	0x3ef30c2f	0.47470233
7	0x3e66ee4f	0.22551845
8	0x3c3c0051	0.011474685
9	0xbd0fe059	-0.035126064
10	0x3f33e8b6	0.70276964
11	0x3e9860d9	0.2976139
12	0xbc7742ae	-0.015091581
13	0xbddc60f7	-0.10760682
14	0x3e1cf6e4	0.15328556
15	0x3f07624a	0.5288435
16	0x3f02d8f0	0.5111227
17	0x3ebcbfb1	0.36865
18	0x3e63acc1	0.22233869
19	0x3b294804	0.0025830278
20	0x3eae4df8	0.3404386
21	0x3eba7e70	0.3642459
22	0x3eea43fc	0.45754993
23	0x3d62e3bc	0.055392966
24	0x3e30fc9f	0.17283867
25	0xbe186616	-0.14882693
26	0xbbacf2fd	-0.00527799
27	0xbe1fef22	-0.15618566
28	0xbe8810dc	-0.26575363
29	0x3e738836	0.23782429
30	0x3ea05701	0.3131638
31	0x3ece3a8b	0.4027904
32	0x3e97c6d2	0.29643875
33	0x3e463941	0.19357778
34	0x3e6d194b	0.2315418
35	0xbd6f389c	-0.058403596
36	0x3deddaaf	0.11613976
37	0x3e0be462	0.1366134
38	0x3e868272	0.26271397
39	0x3ea4b568	0.32169652
40	0xbe2d21c7	-0.16907416
41	0xbdb5ea04	-0.088825256
42	0x39ef904c	0.00045693142
43	0x3eb9b834	0.36273348
44	0x3efc44bb	0.49271187
45	0xbed69d73	-0.41917
46	0xbe39bb50	-0.1813786
47	0xbd9bd542	-0.07609035
48	0x3e760104	0.24023825
49	0x3f045254	0.5168812
50	0xbe45fcc9	-0.19334711
51	0xbcf996b2	-0.030467365
52	0xbd6da630	-0.058019817
53	0xbe30bdff	-0.17259978
54	0x3e9d4d99	0.30723265
55	0x3ed91578	0.42399192
56	0x3ea13354	0.31484473
57	0x3ebef6a5	0.3729755
58	0x3e80ffdf	0.25195214
59	0x3e543dbe	0.20726678
60	0xbe82f4db	-0.25577435
61	0xbe00fea5	-0.12597139
62	0x3e294880	0.16531563
63	0x3e662f34	0.22478944
64	0x3ee32afb	0.4436873
65	0x3e2e028c	0.16993159
66	0x3f8a90a8	1.0825396
67	0x3f192b89	0.59832054
68	0x3e91ad4c	0.28452528
69	0x3e805a98	0.25069118
70	0xbe83e5cd	-0.25761262
71	0x3db55d73	0.08855715
72	0x3e1c175f	0.1524329
73	0x3cd77edd	0.02630561
74	0x3eb05314	0.34438384
75	0x3efa9833	0.48944244
76	0x3f13e473	0.5777046
77	0x3ecd2060	0.40063763
78	0x3e068611	0.1313708
79	0xbda15751	-0.078779824
80	0x3eaf5778	0.3424642
81	0x3df39237	0.11893123
82	0x3e242bf0	0.16032386
83	0x3e021c13	0.12706022
84	0x3e20aafa	0.15690222
85	0xbe8a1de5	-0.26975933
86	0xbe460e60	-0.19341421
87	0x3c809c07	0.0156994
88	0x3d3906ae	0.045172386
89	0x3f04bbd5	0.5184911
90	0x3ec95f03	0.393303
91	0x3d16e138	0.03683588
92	0xbdadbe0e	-0.08483516
93	0xbea0f5e4	-0.314376
94	0xbe76446e	-0.24049541
95	0x3ed9d419	0.4254463
96	0x3ea40202	0.32032782
97	0xbcbdef16	-0.023185294
98	0x3c991cbc	0.01869046
99	0xbd327f1e	-0.04357826
100	0xbd5134a7	-0.051075604
101	0x3df312ef	0.11868846
102	0x3d8c44bf	0.0684905
103	0x3ebd9223	0.37025556
104	0x3e6b34ee	0.2296941
105	0x3edc94ce	0.4308228
106	0x3e88ae33	0.26695403
107	0xbded8e92	-0.11599459
108	0xbe06fbeb	-0.13182037
109	0xbe68bf62	-0.22729257
110	0xbe58a4e3	-0.2115665
111	0x3e563dcf	0.20922016
112	0x3e68a044	0.22717386
113	0x3f226137	0.6342959
114	0x3f44c23e	0.7685889
115	0x3e4252b9	0.18976869
116	0x3e917010	0.2840581
117	0x3f1b040d	0.60553056
118	0x3f01069b	0.50400704
119	0x3ea13d96	0.314923
120	0x3ea211ac	0.31654108
121	0x3f080179	0.5312725
122	0x3e809c54	0.2511927
123	0x3d906e73	0.070523165
124	0x3bab0012	0.0052185142
125	0x3f214331	0.6299315
126	0x3ee4443f	0.44583318
127	0x3ec5641d	0.38552943
128	0xbe16c0f4	-0.14722043
129	0xbd02a4c4	-0.031895414
130	0x3e83c5d9	0.25736883
131	0x3eef8f22	0.4678889
132	0x3ea52483	0.3225442
133	0x3e15446f	0.14576887
134	0x3e84b246	0.25917262
135	0x3f4fa498	0.81110525
136	0x3eeb6077	0.45972034
137	0x3d507583	0.050893318
138	0xbdfcba7f	-0.12340259
139	0x3dc398ae	0.09550606
140	0x3d60dd04	0.054898277
141	0x3e0de120	0.1385541
142	0x3ec2165c	0.37907684
143	0x3e937032	0.28796536
144	0x3e801346	0.25014704
145	0x3e8d0ecf	0.2755036
146	0x3e5ece62	0.21758416
147	0x3de84dfb	0.113429986
148	0x3e9cbb0d	0.30611458
149	0x3e652b99	0.22379912
150	0x3f430ba5	0.76189643
151	0x3e86fc51	0.26364377
152	0xbd997ee3	-0.07494905
153	0xbdf36c88	-0.11885935
154	0xbdba17ce	-0.09086572
155	0x3ee1b286	0.44081515
156	0x3ee8c023	0.4545909
157	0x3eb8a236	0.36061257
158	0x3da44309	0.080205984
159	0x3d99996c	0.07499966
160	0x3e64cc47	0.2234355
161	0x3e282e34	0.16423875
162	0x3ea1ffab	0.31640372
163	0x3e78e452	0.24305847
164	0x3e5bf934	0.21481782
165	0x3e0c392c	0.13693684
166	0x3ecd955b	0.40153012
167	0x3e40ec6e	0.18840191
168	0x3e50f90a	0.20407501
169	0x3eaaf695	0.33391252
170	0x3f271938	0.65272856
171	0x3f059ece	0.5219544
172	0x3e29a13d	0.16565414
173	0x3e379e84	0.17931563
174	0x3e8d82c4	0.2763883
175	0x3f050a24	0.519686
176	0x3e949857	0.29022476
177	0x3e10b3bc	0.14131063
178	0xbe2663bb	-0.16248982
179	0xbde6140f	-0.112342946
180	0x3ec14084	0.37744534
181	0x3f1cd014	0.61255
182	0x3f170773	0.5899574
183	0x3d9bcb3c	0.07607123
184	0xbda08804	-0.07838443
185	0x3dd9063e	0.10596894
186	0x3e0555c4	0.13020998
187	0x3e528a34	0.20560533
188	0x3e1ff65b	0.15621321
189	0x3e97351c	0.29532707
190	0xbd850abe	-0.064961895
191	0xbd8183cd	-0.06323967
192	0xbe8e87a5	-0.27837864
193	0xbec80f51	-0.39074185
194	0xbf0fbedc	-0.56150603
195	0xbea36e85	-0.31920257
196	0xbd230c93	-0.039806914
197	0xbd85ee0c	-0.065395445
198	0x3e7686d8	0.24074876
199	0x3e24e26f	0.16102003
200	0x3ef71823	0.48260602
201	0x3ed614f7	0.4181287
202	0x3e5aefd3	0.21380548
203	0xbdaf57b0	-0.08561647
204	0x3dc26097	0.09491079
205	0x3eafd566	0.34342498
206	0x3e867516	0.26261204
207	0xbd0f31e1	-0.034959678
208	0x3d917dbf	0.07104062
209	0xbe2d2860	-0.16909933
210	0x3ec6bfc5	0.38818184
211	0x3e6c2477	0.23060785
212	0x3ec065c3	0.37577638
213	0x3ecb6f36	0.39733285
214	0x3ebe83aa	0.37209827
215	0xbe3ea0d7	-0.18616043
216	0xbe41d7c8	-0.1892997
217	0xbeb109f9	-0.3457792
218	0xbf06e561	-0.52693754
219	0xbe996eeb	-0.29967436
220	0x3e19dfd4	0.1502679
221	0x3eb893b5	0.36050192
222	0x3f293e7d	0.66110975
223	0x3f1529f4	0.5826714
224	0x3ed80a6b	0.42195448
225	0x3eb1458f	0.34623381
226	0xbdca5bfe	-0.09880827
227	0x3e126423	0.14296012
228	0x3edf1cc0	0.43576622
229	0x3f36a527	0.7134575
230	0xbf3e7648	-0.7439923
231	0xbedd155f	-0.43180367
232	0xbebe4224	-0.37159836
233	0x3e2a09c1	0.16605283
234	0x3eaa2e35	0.33238378
235	0x3f0cc3ab	0.54986066
236	0x3f04e9ab	0.5191905
237	0x3de7bb8a	0.11315067
238	0x3dfc9b0c	0.1233426
239	0x3e8d1742	0.27556807
240	0x3ec7b35c	0.39004028
241	0x3ebbb9ac	0.36665094
242	0x3e491a55	0.19638951
243	0x3e953d62	0.29148394
244	0x3e7891c8	0.24274361
245	0x3dd106ed	0.10206399
246	0xbd02fc99	-0.031979177
247	0xbe43cbcb	-0.1912071
248	0xbe6283c4	-0.22120577
249	0xbee4181d	-0.44549647
250	0x3e0ac940	0.13553333
251	0xbe78fdbd	-0.24315543
252	0xbeaacb81	-0.33358386
253	0xbeee5f23	-0.4655696
254	0xbe8e2462	-0.27762133
255	0x3eae1afa	0.34004956

temporal_extractor.LSTM.lstm.weight_hh_l0 f4 [200, 50]
0	0xbe522073	-0.20520191
1	0x3f0bd269	0.54617935
2	0xbeb74977	-0.35798237
3	0x3e9d1635	0.30681005
4	0xbeb4b7a8	-0.3529637
5	0xbd8cbc1d	-0.06871817
6	0xbf055319	-0.5207992
7	0x3e7467fc	0.23867792
8	0xbea1a3cb	-0.31570277
9	0xbdd90244	-0.10596135
10	0xbdf97ff9	-0.12182612
11	0x3b71cb1e	0.003689475
12	0x3db6fb15	0.08934609
13	0xbdcdb85c	-0.100449294
14	0xbd54c585	-0.05194618
15	0xbe9ed8a1	-0.3102465
16	0x3dde0558	0.10840863
17	0xbec41a74	-0.38301432
18	0x3e242e79	0.16033353
19	0x3dc1973b	0.09452673
20	0x3e25f10a	0.1620523
21	0x3c9997b4	0.018749095
22	0x3ecf7720	0.40520573
23	0x3d1a39d4	0.037652805
24	0x3d80dcdf	0.06292128
25	0xbbf86814	-0.0075807665
26	0xbdecb2d2	-0.11557545
27	0x3e182be3	0.14860491
28	0x3d75fd9b	0.06005631
29	0x3d15dc47	0.036587026
30	0x3d0b5000	0.03401184
31	0xbddcf0fc	-0.107881516
32	0x3eb3f193	0.35145244
33	0x3e161037	0.14654623
34	0x3e444f72	0.19170931
35	0xbe14a0e2	-0.14514497
36	0x3ca3b685	0.019984493
37	0x3d8f703e	0.070038304
38	0xbd21c853	-0.039497685
39	0x3e976f8e	0.29577297
40	0xbd619051	-0.05506927
41	0xbe85e97d	-0.261547
42	0x3d0d2d28	0.034466892
43	0xbebecc0a	-0.37265044
44	0xbebc3f18	-0.36766887
45	0xbea300e8	-0.3183663
46	0x3d153e4f	0.036436375
47	0xbdddc7f0	-0.10829151
48	0x3ee168ae	0.44025177
49	0x3c941259	0.018075155
50	0xbf09e4a8	-0.53864527
51	0x3ea62da8	0.32456708
52	0xbe88d960	-0.26728344
53	0x3f0e817f	0.55666345
54	0xbea3386f	-0.31878993
55	0x3efdc7f2	0.4956661
56	0xbf030877	-0.5118479
57	0x3ef644cd	0.48099366
58	0xbebd4715	-0.36968294
59	0xbf3c4c15	-0.7355359
60	0xbee561c0	-0.4480114
61	0x3c34a471	0.011025534
62	0xbec836fc	-0.3910445
63	0xbf11f00c	-0.5700691
64	0x3ef8f915	0.48627535
65	0xbe77ae8b	-0.24187677
66	0x3efcec1e	0.49398893
67	0xbf1e09fa	-0.61733973
68	0x3c3bf6c7	0.0114724105
69	0x3e22cc92	0.1589835
70	0xbd54ce1f	-0.051954385
71	0xbe1fa778	-0.15591228
72	0x3edbad88	0.4290583
73	0xbbefec6a	-0.007321884
74	0x3eddea3c	0.4334277
75	0x3d322395	0.043490965
76	0xbe1002c3	-0.14063554
77	0x3f0ca3d6	0.54937494
78	0x3e7fadaa	0.24968591
79	0x3ed1f09e	0.4100389
80	0xbd6bfdf9	-0.057615254
81	0xbef29667	-0.47380373
82	0x3ec7a3e2	0.3899222
83	0x3f1dab31	0.6158934
84	0x3ecba055	0.3977076
85	0xbe04684f	-0.12930416
86	0xbe1305bf	-0.1435766
87	0x3f134b8e	0.5753716
88	0xbef8bf56	-0.48583478
89	0x3e929d0f	0.2863545
90	0xbe91a404	-0.28445446
91	0x3dd76804	0.10517886
92	0x3edb6996	0.42853993
93	0xbe1a1ba9	-0.15049614
94	0xbe849b39	-0.25899675
95	0xbf0176fa	-0.5057217
96	0xbe26794d	-0.1625721
97	0xbec4e269	-0.38453987
98	0x3f113d50	0.5673418
99	0xbf1ba9f6	-0.60806215
100	0x3d8a4cea	0.067529514
101	0x3dad225f	0.084538214
102	0xbe269609	-0.16268171
103	0x3ea90108	0.330086
104	0xbee51746	-0.4474432
105	0x3e136b49	0.14396395
106	0xbda152c0	-0.078771114
107	0x3ed2260a	0.41044647
108	0xbe446352	-0.19178513
109	0xbeca0e93	-0.39464244
110	0xbda78b51	-0.08180869
111	0xbeb98933	-0.36237487
112	0xbcc79efb	-0.0243678
113	0xbeb2d02a	-0.34924442
114	0x3e2080be	0.15674111
115	0xbecd1d91	-0.4006162
116	0x3e8a6582	0.2703057
117	0xbea51118	-0.32239604
118	0xbc45a261	-0.01206264
119	0x3e974631	0.2954574
120	0x3d3de644	0.046362177
121	0xbe9fc53e	-0.3120517
122	0x3f1dcc2a	0.61639655
123	0xbeedea30	-0.46467733
124	0x3e868c60	0.26278973
125	0x3d6e22cd	0.058138657
126	0xbe5dc00d	-0.21655293
127	0x3e279020	0.16363573
128	0x3d157194	0.03648527
129	0x3e7fd6c9	0.24984278
130	0xbe5aa20c	-0.21350878
131	0xbcaa7807	-0.020809187
132	0x3ee6c9c2	0.45075804
133	0x3f07d88b	0.53064793
134	0x3ef6f59b	0.48234257
135	0xbede1ff4	-0.43383753
136	0xbc632164	-0.013862941
137	0x3e258cda	0.16167012
138	0x3ed6aa68	0.41926885
139	0x3e920eb4	0.28526843
140	0x3e0d23ec	0.13783234
141	0xbc167932	-0.009184169
142	0x3e9041cc	0.281752
143	0x3e873d8c	0.26414144
144	0xbeb146e5	-0.346244
145	0xbeb274bc	-0.34854686
146	0x3df8fbd7	0.1215741
147	0xbe46e2f7	-0.19422518
148	0x3e6d3b44	0.2316714
149	0xbe92bb41	-0.28658488
150	0xbe3e8e55	-0.18608983
151	0x3e6bfe78	0.23046291
152	0xbc8875f1	-0.016657801
153	0x3e602a96	0.21891245
154	0xbe41f637	-0.1894158
155	0x3e335d7d	0.17516132
156	0xbe5e9428	-0.21736205
157	0x3edc3d86	0.4301569
158	0xbd55af0e	-0.0521689
159	0xbe65208d	-0.22375698
160	0x3d976b86	0.07393555
161	0x3be95d4f	0.007121719
162	0xbcf8235a	-0.030290294
163	0xbe521f2f	-0.20519708
164	0x3e1b9788	0.15194523
165	0xbe266713	-0.16250257
166	0xbcd7e937	-0.026356323
167	0xbe6156ea	-0.22005811
168	0xbc2ff028	-0.01073841
169	0x3d93af22	0.07211138
170	0xbdc25837	-0.09489482
171	0xbe2b5d4e	-0.16734812
172	0x3e3638d4	0.17795116
173	0x3dc4a7b3	0.096022986
174	0xbdeb2e95	-0.11483494
175	0xbd3d89a2	-0.046273835
176	0xbe0e2d95	-0.13884576
177	0x3d879490	0.06620133
178	0x3e925a5f	0.28584573
179	0x3e61a5db	0.22035925
180	0x3dff3f9e	0.12463306
181	0xbdc62cc1	-0.09676505
182	0x3e07b65b	0.13253157
183	0x3d7986f3	0.060919713
184	0x3d3923c9	0.045200143
185	0x3d547b38	0.051875323
186	0xbd8011a7	-0.06253367
187	0x3e1dcd95	0.15410455
188	0xbd191217	-0.037370767
189	0x3e34f709	0.17672361
190	0xbebed178	-0.37269187
191	0xbd912f22	-0.07089068
192	0x3e12f0ee	0.1434972
193	0xbd0298fa	-0.03188417
194	0xbe84a825	-0.25909534
195	0xbe0aaa31	-0.13541485
196	0x3e377220	0.17914629
197	0xbd256de9	-0.04038802
198	0x3e676260	0.22596121
199	0x3bf06363	0.0073360666
200	0xbdbde75d	-0.09272645
201	0x3cc8d399	0.02451496
202	0xbdbee593	-0.093211316
203	0x3e57b9e4	0.21067005
204	0xbd5fcdfc	-0.0546398
205	0x3de2e8ef	0.11079585
206	0xbdda3a14	-0.10655609
207	0xbd673c01	-0.05645371
208	0xbe749652	-0.23885468
209	0xbd779c0b	-0.06045155
210	0xbe7701d2	-0.24121788
211	0x3ee45c02	0.44601446
212	0xbd6003b7	-0.054691043
213	0xbe08ef23	-0.13372473
214	0x3b36f0e0	0.0027914569
215	0xbd422db9	-0.047406886
216	0x3e7f4e3a	0.24932185
217	0xbdbc033f	-0.09180307
218	0xbe8ac91c	-0.2710656
219	0x3e300653	0.17189912
220	0xbdf8efc3	-0.12155106
221	0xbe29245f	-0.1651778
222	0x3e246e72	0.16057757
223	0x3da6a92a	0.08137734
224	0x3e4ce63f	0.20009707
225	0x3e57db70	0.21079803
226	0xbe353bab	-0.17698543
227	0x3e358c01	0.17729189
228	0x3e3f2a43	0.18668465
229	0x3e3900cd	0.18066712
230	0xbaca4f87	-0.0015435078
231	0xbbd7a55a	-0.0065809907
232	0x3cc87a92	0.024472509
233	0xb8b5f0f2	-8.675632e-05
234	0xbe0f168d	-0.13973446
235	0xbe675560	-0.22591162
236	0xbbd409d4	-0.006470898
237	0x3d2f33e4	0.042774096
238	0x3dd00926	0.10157995
239	0x3e2ea630	0.17055583
240	0xbde676a6	-0.11253099
241	0x3c21e1df	0.009880512
242	0xbd500d74	-0.05079408
243	0x3d58c334	0.052920535
244	0xbd875781	-0.06608487
245	0x390114e4	0.00012310181
246	0x3e92db55	0.28682962
247	0xbe06301c	-0.1310429
248	0x3c2a83ca	0.0104073975
249	0xbe5ba08b	-0.21447961
250	0xbf7c48d5	-0.9854863
251	0x3bd1eb65	0.006406235
252	0xbe4ea7ed	-0.20181246
253	0x3e03b33b	0.1286134
254	0xbde0be93	-0.10973849
255	0x3d62ad23	0.055340897

temporal_extractor.LSTM.lstm.bias_ih_l0 f4 [200]
0	0x3d4ebbeb	0.05047218
1	0x3e4564e5	0.1927677
2	0x3e2fa98d	0.17154522
3	0x3e0082e6	0.12549934
4	0x3e34f201	0.17670442
5	0x3f1e436f	0.61821645
6	0x3d0a2952	0.033730812
7	0xbe35a26a	-0.17737737
8	0x3cf56eab	0.029959997
9	0xbeaeb1ed	-0.34120122
10	0x3f3193e2	0.69366276
11	0xbd5caee0	-0.05387771
12	0xbe930c5e	-0.28720373
13	0xbe50ace5	-0.20378454
14	0xbc9b3752	-0.018947277
15	0x3de01464	0.10941389
16	0x3ec8e3b0	0.39236212
17	0xbd929cc8	-0.0715881
18	0x3f7967eb	0.9742419
19	0x3f1ebe35	0.6200898
20	0xbdbf11cd	-0.09329567
21	0x3f5c1097	0.85962814
22	0xbd2b0e9e	-0.041761987
23	0x3cefba53	0.029263651
24	0x3e1f95fe	0.15584561
25	0x3f2e7e2a	0.6816126
26	0xbc35605e	-0.011070339
27	0x3e792f36	0.24334416
28	0xbdc32088	-0.09527689
29	0xbc967dd0	-0.018370539
30	0x3f082404	0.53179955
31	0xbbc008c9	-0.0058604223
32	0x3dc50176	0.09619419
33	0x3d7a8f09	0.061171565
34	0x3ebfd80a	0.37469512
35	0x3f339f4b	0.70164937
36	0x3ed76ff9	0.42077616
37	0xbcda0043	-0.026611453
38	0x3b9c0b55	0.004762093
39	0xbebc03b1	-0.36721566
40	0x3e8f6f27	0.2801449
41	0x3f79ac1f	0.9752826
42	0x3cd450f7	0.025917513
43	0xbe195a36	-0.14975819
44	0xbe395a28	-0.18100798
45	0x3e78f6bf	0.24312876
46	0xbdaf5503	-0.085611366
47	0x3e9df1b2	0.3084846
48	0x3d97269d	0.07380412
49	0xbfaedd27	-1.366124
50	0x3d8c6c66	0.06856613
51	0x3def6a33	0.11690178
52	0x3e1145a6	0.14186725
53	0x3e81c622	0.25346476
54	0x3f2f9cbb	0.68598527
55	0x3de11d9e	0.10991977
56	0x3e516653	0.2044919
57	0xbed8ad5d	-0.42319766
58	0xbde0d84c	-0.10978755
59	0xbf3eb844	-0.7449992
60	0x3e7bdba9	0.24595512
61	0xbd9501af	-0.07275712
62	0xbee14055	-0.43994394
63	0x3ea943b5	0.3305947
64	0x3ce5c968	0.02805014
65	0x3f10167a	0.56284297
66	0x3ebb3897	0.36566612
67	0xbed45064	-0.41467583
68	0xbe315614	-0.17317992
69	0x3f026179	0.5092998
70	0x3ee02eb2	0.43785626
71	0x3f0567b1	0.52111346
72	0x3df12684	0.117749244
73	0xbcd3e8dc	-0.025867872
74	0x3eef4c53	0.46737918
75	0x3f073268	0.5281129
76	0xbdea8089	-0.114502974
77	0x3e9b7152	0.30359894
78	0xbcec90db	-0.028877666
79	0xbdd44e25	-0.103664674
80	0x3ec10eff	0.37706754
81	0x3e3e2cb6	0.18571743
82	0xbd84db74	-0.0648717
83	0xbe64758a	-0.22310463
84	0x3e7c4f99	0.24639739
85	0x3e49e45f	0.19716023
86	0x3e4ffb7c	0.20310777
87	0x3dca04eb	0.09864219
88	0xbf6f1607	-0.93392986
89	0xbf061241	-0.52371603
90	0x3ee9ae19	0.45640638
91	0x3efd24a8	0.4944203
92	0x3e9e3c5e	0.30905432
93	0xbf0cc8d1	-0.5499392
94	0xbee8236c	-0.45339525
95	0x3ec09721	0.37615302
96	0xbd36519b	-0.04451142
97	0x3ea8973e	0.3292789
98	0xbea3b175	-0.31971326
99	0xbf0edeaa	-0.5580851
100	0xbe17729e	-0.14789817
101	0x3f311c7a	0.69184077
102	0xbf28cfe7	-0.65942234
103	0x3eb08edb	0.3448399
104	0xbeac00f8	-0.3359449
105	0x3e8cca2d	0.27497998
106	0xbdb1affb	-0.08676144
107	0xbeb33334	-0.35000002
108	0xbeea0c6a	-0.45712596
109	0xbec348bf	-0.38141438
110	0xbf8e2cc9	-1.1107417
111	0xbe9b1a5d	-0.3029355
112	0xbe423961	-0.18967201
113	0x3c5349ae	0.012895985
114	0x3f0b0f7e	0.54320514
115	0xbe8980e4	-0.26856148
116	0x3eeec503	0.46634683
117	0xbeca2e59	-0.39488485
118	0xbf8a535c	-1.0806689
119	0x3f92df2d	1.1474358
120	0xbee9cf90	-0.4566617
121	0xbf175616	-0.5911573
122	0x3f01f59b	0.5076539
123	0xbd127730	-0.035758197
124	0x3e9f2210	0.31080675
125	0x3e811902	0.25214392
126	0xbee0b6c0	-0.43889427
127	0x3d5f1464	0.054462805
128	0x3e2af155	0.16693623
129	0x3e1affd1	0.15136649
130	0xbf25673d	-0.64610654
131	0xbef85293	-0.485005
132	0x3ef5eb0e	0.48030895
133	0x3e18037a	0.14845076
134	0x3ed0e2e8	0.40798116
135	0xbeb8067c	-0.35942447
136	0xbe99dada	-0.30049783
137	0x3e875a3d	0.26436034
138	0x3db88d34	0.09011307
139	0xbe0b1a73	-0.13584308
140	0xbe9b92db	-0.3038548
141	0x3f6bba8d	0.9208153
142	0x3ebf68ca	0.37384635
143	0x3e9412c5	0.2892057
144	0xbe8662be	-0.2624721
145	0xbee41a5a	-0.44551355
146	0xbda80eb0	-0.082059264
147	0xbd24fc91	-0.04027993
148	0x3d4e7f02	0.050414093
149	0xbdfa5ca9	-0.12224705
150	0x3ea497dd	0.32147112
151	0xbe929a6c	-0.2863344
152	0xbe861857	-0.26190445
153	0xbe351752	-0.17684677
154	0xbeaef642	-0.34172255
155	0x3f2dcb06	0.67887914
156	0xbeb5de9a	-0.35521394
157	0xbe98b815	-0.29827943
158	0xbef54a21	-0.47908118
159	0xbe3ffe51	-0.18749358
160	0x3e6ea62d	0.23305579
161	0xbd834a0b	-0.06410607
162	0x3d945cca	0.072442606
163	0xbebc56ac	-0.36784875
164	0x3ed763aa	0.42068225
165	0xbe7d669d	-0.24746175
166	0x3e9c281c	0.3049935
167	0xbef1a203	-0.47193918
168	0x3f31d707	0.6946873
169	0x3f3da568	0.74080515
170	0x3f2316ec	0.6370685
171	0x3f046ba1	0.5172673
172	0xbeb52e24	-0.35386765
173	0x3e13655d	0.14394136
174	0x3f2a9db2	0.66646874
175	0x3f30d6e5	0.69077903
176	0x3e83e8d9	0.25763586
177	0xbed1a789	-0.40948132
178	0xbed9a044	-0.42505085
179	0xbe946d88	-0.28989816
180	0x3f2c5948	0.6732373
181	0xbf0258d1	-0.50916773
182	0x3dacbc6d	0.08434377
183	0xbf576af4	-0.8414757
184	0x3e806d55	0.25083414
185	0x3f1e0432	0.6172515
186	0x3f1175b9	0.56820256
187	0xbf18da07	-0.59707683
188	0xbeab339c	-0.33437812
189	0xbf4f7e3c	-0.81051993
190	0xbc176717	-0.009240887
191	0x3f2e718c	0.6814201
192	0xbdd31afa	-0.1030788
193	0xbdad7ef8	-0.08471483
194	0xbeacb1ad	-0.33729306
195	0xbebe1ef5	-0.37132993
196	0xbf0a63fa	-0.540588
197	0xbe36523c	-0.17804807
198	0xbef67403	-0.48135385
199	0xbf0b8f44	-0.5451548

temporal_extractor.LSTM.lstm.bias_hh_l0 f4 [200]
0	0xbd18b7a3	-0.037284505
1	0x3e714609	0.23561873
2	0x3e3645a5	0.17800005
3	0xbc84dfb9	-0.01621996
4	0x3e68b5e0	0.2272563
5	0x3f11ca5e	0.5694941
6	0xbdb7aa78	-0.08968061
7	0xbcaac003	-0.020843511
8	0x3db71086	0.089386985
9	0xbe0c9b48	-0.1373111
10	0x3f3449d7	0.7042517
11	0x3c6d5774	0.0144861825
12	0xbed64809	-0.41851833
13	0xbe0f60e0	-0.14001799
14	0x3d0478e5	0.032341857
15	0x3dd048fe	0.10170172
16	0x3ea34973	0.31891975
17	0xbe8e3dbb	-0.27781472
18	0x3f8c725b	1.0972399
19	0x3efaad59	0.4896038
20	0x3b3ec0f9	0.002910672
21	0x3f363137	0.71168846
22	0xbdf6737e	-0.12033747
23	0x3d26b89c	0.0407034
24	0x3e1094e3	0.14119296
25	0x3f362697	0.71152633
26	0xbe8c31ee	-0.27381843
27	0x3e93cf32	0.28869015
28	0xbdb0298f	-0.08601677
29	0xbbd14820	-0.006386772
30	0x3f0171d7	0.5056433
31	0xbc0b4716	-0.008500835
32	0xbc690ac8	-0.014223762
33	0xbe1bee25	-0.15227564
34	0x3ed71440	0.42007637
35	0x3f2afc53	0.66791266
36	0x3edacb30	0.42733145
37	0x3b960c9e	0.004579141
38	0xbe0d0b7b	-0.1377391
39	0xbefed774	-0.49773753
40	0x3e2fe3a8	0.17176688
41	0x3f906c1a	1.128299
42	0x3dfe492f	0.124163024
43	0x3c91f601	0.0178175
44	0xbdda5d99	-0.106623836
45	0x3e04066a	0.12893072
46	0x3d33c6e5	0.043890852
47	0x3e768cbf	0.24077128
48	0x3de0e0eb	0.109804
49	0xbfaa18d9	-1.3288833
50	0xbb92da8b	-0.0044816188
51	0x3e754900	0.23953629
52	0x3e5437fa	0.20724478
53	0x3dd20807	0.10255437
54	0x3f253535	0.6453431
55	0x3e2a70bb	0.16644566
56	0x3e094f2d	0.1340911
57	0xbeea259c	-0.4573182
58	0xbdbf4c02	-0.09340669
59	0xbf010f1c	-0.5041368
60	0x3ea3d95b	0.32001767
61	0xbe31f970	-0.17380309
62	0xbef9e5b8	-0.48808074
63	0x3e7bb83a	0.24581996
64	0x3d9b6ac4	0.07588723
65	0x3f398008	0.72460985
66	0x3effbb05	0.49947372
67	0xbebc656f	-0.36796138
68	0xbe14393f	-0.14474963
69	0x3f0ea6d5	0.55723315
70	0x3ed4faf4	0.41597712
71	0x3f1e2cbf	0.6178703
72	0x3c72a462	0.0148097
73	0xbe9390b7	-0.28821346
74	0x3e5c50ae	0.21515152
75	0x3ed4f34c	0.4159187
76	0xbe7d4d1e	-0.24736449
77	0x3e5d2a01	0.21598054
78	0xbd594212	-0.053041525
79	0xbe070e91	-0.1318915
80	0x3ecddcb9	0.4020746
81	0x3e9b23d6	0.30300778
82	0xbd6e63c5	-0.058200616
83	0xbe2bec78	-0.16789424
84	0x3e0d7b58	0.13816583
85	0x3d97fc57	0.07421177
86	0x3dfc7cd6	0.12328498
87	0x3ba9ddd7	0.005183916
88	0xbf679897	-0.9046721
89	0xbf23b017	-0.63940567
90	0x3f08f04f	0.5349168
91	0x3eb353ca	0.35024863
92	0x3e418808	0.18899548
93	0xbf02286c	-0.5084293
94	0xbf029a62	-0.5101682
95	0x3ed3ea06	0.41389483
96	0xbdd31cc0	-0.10308218
97	0x3eb27100	0.34851837
98	0xbe863afd	-0.2621688
99	0xbf23eddf	-0.6403484
100	0xbe2ef701	-0.17086412
101	0x3f3d74ee	0.74006546
102	0xbf08b1b2	-0.5339614
103	0x3f052efe	0.5202483
104	0xbf1b8e67	-0.60764164
105	0x3e42f7aa	0.19039789
106	0xbdd25d7b	-0.10271736
107	0xbe887108	-0.26648736
108	0xbebf7a0c	-0.37397802
109	0xbe91a91b	-0.2844933
110	0xbf8d75c6	-1.1051567
111	0xbe182895	-0.14859231
112	0xbee23a67	-0.44185182
113	0x3e2cca9a	0.16874161
114	0x3ef0dad4	0.47041953
115	0xbe8486a8	-0.25883985
116	0x3f062b55	0.5240987
117	0xbe502f45	-0.20330532
118	0xbf941f7f	-1.1572112
119	0x3f8f0ac6	1.1175163
120	0xbf050278	-0.5195689
121	0xbf35f2f5	-0.7107385
122	0x3eac6b07	0.33675405
123	0xbe77feb8	-0.24218261
124	0x3e8413aa	0.25796252
125	0x3e7849bf	0.24246882
126	0xbea963ba	-0.33083898
127	0x3e27c5c4	0.16384035
128	0x3eaf9258	0.3429134
129	0x3e47ee0e	0.19524404
130	0xbec4e406	-0.38455218
131	0xbebfb6a4	-0.3744403
132	0x3eb4bfc5	0.3530256
133	0x3e6fb4e7	0.23408853
134	0x3ea0a66b	0.31376967
135	0xbec6c122	-0.38819224
136	0xbee2a274	-0.44264567
137	0x3e2f5f04	0.1712609
138	0x3b1aecd9	0.0023639707
139	0xbd82e1c8	-0.063907206
140	0xbed8e1e3	-0.42359838
141	0x3f84053d	1.0314099
142	0x3e41cf19	0.18926658
143	0x3e5e4b77	0.21708475
144	0xbe98f84c	-0.29876935
145	0xbf23a1d2	-0.63918793
146	0x3c91442d	0.017732704
147	0xbc17a49c	-0.0092555545
148	0xbe476278	-0.19471157
149	0xbe40e099	-0.18835677
150	0x3e728607	0.2368394
151	0xbec3f8f0	-0.38275862
152	0xbed49fb1	-0.41528085
153	0xbe9b804d	-0.30371323
154	0xbe8e7727	-0.2782528
155	0x3f26afe1	0.6511212
156	0xbec441c2	-0.3833142
157	0xbee8124e	-0.45326465
158	0xbe938e17	-0.28819343
159	0xbe1469e4	-0.14493519
160	0x3ea0bec4	0.31395543
161	0x3c175bd7	0.009238205
162	0xbd57724f	-0.052599248
163	0xbe6ea4e9	-0.23305096
164	0x3ebd43ce	0.36965793
165	0xbe7f9519	-0.2495922
166	0x3ef324e6	0.4748909
167	0xbe6d2a4c	-0.23160666
168	0x3f19d764	0.60094285
169	0x3f43a3a4	0.7642157
170	0x3f3861c2	0.72024167
171	0x3f237d85	0.638634
172	0xbe4793ba	-0.19489947
173	0x3c2bab89	0.010477909
174	0x3f3fd4ee	0.7493428
175	0x3f3bc03f	0.7334022
176	0x3ea10f86	0.31457156
177	0xbe648e1e	-0.22319838
178	0xbec89f93	-0.39184245
179	0xbeb4c4c0	-0.35306358
180	0x3f58bf55	0.8466695
181	0xbf09ce36	-0.5383028
182	0x3dc8b3de	0.09799932
183	0xbf35407c	-0.7080152
184	0x3e458026	0.19287166
185	0x3f1866bf	0.5953178
186	0x3f0aaedd	0.5417307
187	0xbf0d4726	-0.5518669
188	0xbeb30a0e	-0.3496861
189	0xbf3a8991	-0.7286616
190	0x3daaca71	0.08339394
191	0x3f3635d7	0.71175903
192	0xbda76738	-0.08173984
193	0xbdd3dabb	-0.10344454
194	0xbeb20214	-0.3476721
195	0xbe8bc2ef	-0.2729716
196	0xbf1ecb66	-0.6202911
197	0xbe489511	-0.19588114
198	0xbf0bea26	-0.5465416
199	0xbf213bb1	-0.62981707

regressor.FC_1.linear.weight f4 [25, 50]
0	0x3ec12c0f	0.37728927
1	0x3e37387a	0.17892638
2	0xbeabe551	-0.33573392
3	0x3f0495fa	0.51791346
4	0xbe4dad83	-0.2008572
5	0x3e9867e8	0.29766774
6	0xbeafde3f	-0.34349248
7	0x3ec1ac91	0.3782697
8	0xbdef48aa	-0.116837814
9	0xbeee13ef	-0.46499583
10	0xbe3de5b1	-0.18544652
11	0x3e1d2a6d	0.15348215
12	0xbe384b2f	-0.1799743
13	0xbe8c1ade	-0.27364248
14	0xbda408ee	-0.08009516
15	0xbe9b5f0a	-0.30345947
16	0x3e2f8c68	0.17143404
17	0xbe6d46a2	-0.23171476
18	0xbe2eb34b	-0.17060582
19	0x3e83ab66	0.25716704
20	0x3c394ac1	0.011309327
21	0xbea067f9	-0.31329325
22	0x3edd9cdb	0.43283734
23	0xbe0ae7e4	-0.13565022
24	0xbdca9249	-0.09891183
25	0x3def60fe	0.11688422
26	0xbde76694	-0.11298862
27	0x3e98269d	0.2971696
28	0x3e8a8979	0.27058008
29	0x3ea933b6	0.33047265
30	0xbd8ca6ac	-0.06867728
31	0xbe408b90	-0.18803239
32	0x3e424205	0.18970497
33	0x3e31c431	0.17359997
34	0x3d5c605e	0.05380284
35	0xbe512f7a	-0.20428267
36	0xbe88df57	-0.26732895
37	0x3e0a1268	0.13483584
38	0x3f1cf907	0.61317486
39	0x3eb58149	0.354502
40	0x3d30d662	0.0431732
41	0x3e86b5fe	0.26310724
42	0x3e67db90	0.2264235
43	0x3bcdf04e	0.00628475
44	0xbebd6d1c	-0.36997306
45	0xbed24ad4	-0.41072714
46	0x3e60ccc1	0.21953107
47	0xbe9bdb9f	-0.30440995
48	0x3df1585c	0.11784431
49	0xbf172837	-0.5904574
50	0xbbc45d32	-0.005992555
51	0xbf4ac8b1	-0.7921248
52	0x3f072bf4	0.5280144
53	0xbe0fddc7	-0.14049445
54	0xbeb6052c	-0.3555082
55	0x3eab7bea	0.33492976
56	0x3f05a0cf	0.521985
57	0x3e76d4f1	0.24104668
58	0x3e89c2ef	0.26906535
59	0xbe49ea05	-0.19718178
60	0xbe8fb44a	-0.28067237
61	0xbf1c4dac	-0.6105602
62	0x3ebe70c6	0.37195414
63	0x3e191c11	0.14952113
64	0x3e285b9c	0.16441196
65	0x3f1bdaea	0.6088091
66	0x3dc5ff32	0.09667815
67	0x3e64a708	0.22329342
68	0xbf104a47	-0.5636334
69	0x3f89c7b3	1.0764068
70	0xbea111aa	-0.3145879
71	0x3d951b8b	0.07280644
72	0x3f008d9e	0.5021609
73	0xbdabd69d	-0.083905436
74	0xbec61c6f	-0.38693568
75	0xbde5e639	-0.11225552
76	0x3e8c3bb9	0.27389315
77	0x3f401769	0.7503572
78	0xbf604c96	-0.8761686
79	0xbf485160	-0.7824917
80	0xbd949dfd	-0.072566964
81	0x3d98d443	0.07462361
82	0xbe4a4a9e	-0.19755027
83	0xbea500e1	-0.32227233
84	0xbeb71925	-0.3576137
85	0xbc669625	-0.014073883
86	0x3e0d0260	0.13770437
87	0xbf29de57	-0.6635489
88	0x3ebb18ce	0.36542362
89	0x3ccc4b76	0.024938326
90	0x3e0067b5	0.12539561
91	0x3eee8d3f	0.46592137
92	0xbe3dd8d1	-0.1853974
93	0xbdcdf20c	-0.100559324
94	0xbdc02494	-0.09381977
95	0xbea71669	-0.32634285
96	0x3de0cf4c	0.10977039
97	0x3e9e9b0c	0.30977666
98	0x3ca7fb95	0.020505706
99	0xbf5f2e99	-0.8718048
100	0x3e927c96	0.28610677
101	0x3e0b505e	0.13604876
102	0xbe025cdf	-0.1273074
103	0x3ee15e7f	0.44017407
104	0xbd68fef8	-0.056883782
105	0x3ea977eb	0.33099303
106	0xbea838c1	-0.328558
107	0x3e0c80c4	0.13720995
108	0xbe603f1d	-0.21899076
109	0xbe744447	-0.2385417
110	0xbd91bb64	-0.0711582
111	0x3e4ce825	0.20010431
112	0xbd2c4d80	-0.042066097
113	0xbe3dcb82	-0.18534663
114	0xbdcd4306	-0.10022549
115	0xbe622067	-0.22082673
116	0x3e8ec0e4	0.2788154
117	0xbe00ef6a	-0.12591329
118	0xbe532dd8	-0.20622957
119	0x3e949748	0.29021668
120	0xbcce7f12	-0.025207076
121	0xbce82663	-0.028338617
122	0x3efd3322	0.49453074
123	0xbd22ef3f	-0.039778944
124	0x3d23ac46	0.039959215
125	0x3e7347a1	0.23757793
126	0xbe3b8f2a	-0.18316332
127	0x3e50479f	0.20339821
128	0x3e61ead3	0.22062235
129	0x3e983350	0.29726648
130	0xbe1a7839	-0.15084924
131	0xbdeaa045	-0.1145635
132	0x3e4741f8	0.19458759
133	0x3e0ac33c	0.13551039
134	0x3e3ffb56	0.18748221
135	0xbd91e447	-0.071236186
136	0xbd608a80	-0.054819584
137	0x3cfa6698	0.030566499
138	0x3ee175d7	0.44035217
139	0x3df34a2a	0.1187938
140	0xbd38da67	-0.04513016
141	0x3e03fe8f	0.12890075
142	0x3ea1b5d0	0.31584024
143	0xbe4948ef	-0.19656728
144	0xbe593cbd	-0.21214576
145	0xbeecd197	-0.46253654
146	0x3de89535	0.11356584
147	0xbe904136	-0.28174752
148	0x3e9f96f0	0.31169844
149	0xbe9483ea	-0.29006892
150	0x3ec110b4	0.37708056
151	0x3e57b867	0.21066438
152	0xbed99145	-0.42493644
153	0x3eac1bb7	0.33614895
154	0xbe6e012b	-0.23242633
155	0x3eac6937	0.33674023
156	0xbe7174f1	-0.23579766
157	0x3ded2321	0.11578966
158	0xbeb225b7	-0.347944
159	0xbebbee09	-0.36705044
160	0xbe85db9a	-0.26144105
161	0x3e8b37ab	0.2719091
162	0xbe8e22fa	-0.2776106
163	0xbebb5818	-0.36590648
164	0x3b3df484	0.0028984854
165	0xbeb7f376	-0.35927933
166	0x3e93b405	0.28848282
167	0xbee33a71	-0.44380525
168	0xbeb9b4bd	-0.36270705
169	0x3e8eb61b	0.2787331
170	0xbe3cd5d9	-0.18440951
171	0xbea1d297	-0.3160598
172	0x3ec82378	0.3908956
173	0xbe88434c	-0.26613843
174	0x3d0b7344	0.034045473
175	0x3dc9545a	0.09830542
176	0xbe79a9f7	-0.24381243
177	0x3e9415ee	0.2892298
178	0x3e7f4d9f	0.24931954
179	0x3e292a39	0.16520013
180	0xbe240889	-0.16018881
181	0xbdb4ec44	-0.088341266
182	0x3e694e0b	0.22783677
183	0x3eba4e0d	0.36387673
184	0x3d03e9dc	0.032205448
185	0xbe18e08f	-0.14929412
186	0xbe6e1333	-0.23249511
187	0x3e36f7e1	0.17867996
188	0x3f519004	0.81860375
189	0x3e638bcc	0.22221297
190	0x3ded6a90	0.11592591
191	0x3e47737f	0.19477652
192	0x3eaa4c41	0.33261302
193	0x3cd12aa6	0.025533032
194	0xbed903e2	-0.42385775
195	0xbed4bd73	-0.41550788
196	0x3e46a447	0.19398604
197	0xbe84b1b6	-0.25916833
198	0x3e120c5d	0.14262529
199	0xbedcb426	-0.43106192
200	0x3daa9d6b	0.08330806
201	0x3e0bae6a	0.13640752
202	0xbe84b16f	-0.2591662
203	0x3ed4826b	0.4150575
204	0xbe17ac5a	-0.1481184
205	0x3ec8eff4	0.3924557
206	0xbe3fb123	-0.18719916
207	0x3e7d91f1	0.24762703
208	0xbeb78120	-0.35840702
209	0xbea51541	-0.32242778
210	0xbe97bc0c	-0.29635656
211	0x3dde17d7	0.10844391
212	0xbeaaad08	-0.33335137
213	0xbe9cbc67	-0.3061249
214	0xbd972806	-0.07380681
215	0xbe493c4c	-0.19651908
216	0x3e1359a4	0.14389664
217	0xbedc28b7	-0.42999813
218	0xbe6e97e5	-0.2330013
219	0x3ec39f16	0.3820731
220	0xbe0ae51e	-0.13563964
221	0xbe4d0548	-0.20021546
222	0x3f136269	0.57572037
223	0xbc382403	-0.011239055
224	0x3c3fd87f	0.011709332
225	0x3e6589ae	0.22415802
226	0xbe66cdf6	-0.22539505
227	0x3e88b010	0.26696825
228	0x3e4dfa11	0.20114924
229	0x3e62293e	0.22086045
230	0xbda39fa8	-0.079894364
231	0xbe36b510	-0.17842507
232	0x3d2b2adb	0.041788917
233	0x3e09ba1d	0.13449903
234	0x3e158560	0.1460166
235	0xbe41b687	-0.18917285
236	0xbdb0d48d	-0.08634291
237	0x3e888891	0.26666692
238	0x3edee452	0.4353357
239	0x3e6cdfcf	0.23132251
240	0x3de892a9	0.11356098
241	0x3e2ee103	0.17078023
242	0x3e995331	0.29946283
243	0xbd19bcaf	-0.03753346
244	0xbe4ccced	-0.20000048
245	0xbed81f07	-0.42211172
246	0x3e07bde8	0.13256037
247	0xbdc246b3	-0.09486141
248	0x3e47004b	0.19433706
249	0xbf063784	-0.5242846
250	0x3dd09756	0.10185115
251	0xbdeaa433	-0.114571
252	0x3e27b200	0.16376495
253	0xbd39688a	-0.04526571
254	0x3e00e715	0.12588151
255	0xbe79e92e	-0.24405357

regressor.FC_1.linear.bias f4 [25]
0	0x3e86eb30	0.2635131
1	0xbd213aa6	-0.039362572
2	0xbd66f8b8	-0.05638954
3	0x3e1786ff	0.1479759
4	0x3defee9e	0.117154345
5	0xbeab7fcb	-0.33495936
6	0x3e678ff9	0.22613515
7	0xbe07e418	-0.13270605
8	0x3d424c92	0.047436304
9	0xbda18337	-0.07886355
10	0x3e93569c	0.28777015
11	0xbe168486	-0.14698991
12	0x3c1ea046	0.009681767
13	0xbddcf5be	-0.10789059
14	0xbe37e621	-0.17958881
15	0x3c29d2e5	0.010365223
16	0xbd50acec	-0.05094616
17	0xbe64fb74	-0.22361547
18	0x3eab4b03	0.33455667
19	0x3e5d02fb	0.21583168
20	0x3c7333b3	0.014843869
21	0xbe4bf2d0	-0.19916844
22	0xbdfe3ef5	-0.12414352
23	0x3d6e6e93	0.05821092
24	0x3e8c4ce0	0.274024
