logs/ckpt/epoch=9-step=270-v3.ckpt (torch, 453743 bytes, 57 tensors)

feature_extractor.Conv1D_1.conv_1.weight f4 [14, 14, 5]
000000 ee 6c 9e 3e 96 3a c3 3e 12 39 9b 3e 14 67 97 3e
       0.30942482 0.38130635 0.3031698 0.2957083
000010 b2 58 c0 3e 7c 6d 29 3f cb 9e 39 3f 64 02 dd 3e
       0.3756767 0.66182685 0.72507924 0.43165886
000020 ff 0a 24 3f b2 a3 f3 3e 9c 89 d9 3e 39 23 8c 3e
       0.6407928 0.47585827 0.424878 0.27370623
000030 75 e0 47 3e 75 cc 3b 3e f3 33 8c 3e 9d ab 05 bf
       0.19519217 0.18339713 0.27383384 -0.52214986
000040 e1 cb 1a bf 65 07 e8 be 7c 61 16 bf af 33 76 be
       -0.60467345 -0.45318142 -0.587425 -0.24043153
000050 0f 27 b0 bb b5 df f6 3d 83 37 ee 3d cc 20 b0 3d
       -0.00537575 0.120543875 0.11631682 0.086000055
000060 f8 e6 3f 3e fb 70 a9 3d fe ef c0 3d 40 52 b8 3c
       0.18740451 0.082735024 0.09420775 0.022500157
000070 05 fb 44 3e f4 99 26 3e b1 35 95 3f a7 bc 88 3f
       0.19236381 0.16269666 1.165701 1.0682572
000080 52 bb 74 3f a9 f9 73 3f fc 77 57 3f fc 9d 43 bf
       0.9559833 0.95302826 0.84167457 -0.7641294
000090 71 7d 24 bf 0f 00 0f bf c5 da 00 bf c6 59 7c be
       -0.6425391 -0.55859464 -0.50333816 -0.24643621
0000a0 fd f9 ad bc 93 35 15 3e b6 de 8e bc 46 55 30 3d
       -0.021237368 0.14571218 -0.017440181 0.043050073
0000b0 ed 4c ff 3c 99 46 25 3e e2 1e 1d bc 7e 94 40 3e
       0.03116461 0.16140212 -0.009589883 0.18806645
0000c0 91 58 84 3d 60 e1 a8 3c 61 57 9f 3e 42 6a 1f 3e
       0.06462205 0.02061528 0.31121352 0.15567878
0000d0 4d 1b c7 3e 1e ca 5b 3e 26 e9 00 3e ac d3 89 3e
       0.38888016 0.2146382 0.12588939 0.26919305
0000e0 56 39 0b 3e 7a f6 be 3e c9 42 6b 3e c1 d4 73 3e
       0.1359609 0.37297422 0.22974695 0.23811628
0000f0 a0 8c f5 bd d0 b2 8a be 5d ee 1a be 4a 15 0c be
       -0.11989713 -0.27089548 -0.15129991 -0.13679996
000100 70 6b 11 be 99 46 ae be af 60 9c be 4a 68 86 be
       -0.1420114 -0.34038237 -0.30542514 -0.2625144
000110 7c ba 58 be 89 7c 1f be 58 84 31 3f cb 4a 2c 3f
       -0.21164888 -0.1557485 0.69342566 0.67301625
000120 e3 e5 1f 3f 7e 25 e7 3e 58 10 08 3f 7f 3c 31 3f
       0.62460154 0.45145792 0.5314994 0.69232935
000130 2c 1b 17 3f 4e 22 f2 3e 55 06 03 3f 12 3b 09 3f
       0.59025836 0.47291797 0.51181537 0.5360576
000140 2e 0f 2e 3f 36 35 2b 3f 5d 6b eb 3e 32 c1 bf 3e
       0.6799191 0.6687807 0.4598035 0.37452084
000150 80 0c b7 3e a1 98 50 bf e7 e8 37 bf e8 d1 39 bf
       0.35751724 -0.81482893 -0.71839756 -0.72585917
000160 38 7f 38 bf a3 cc 21 bf 3f a0 95 3e 35 d3 76 3e
       -0.7206912 -0.63202876 0.2922382 0.24104007
000170 34 76 47 3e e7 33 93 3e d9 32 7d 3e a9 a0 ba 3e
       0.19478685 0.28750536 0.24726428 0.364507
000180 41 8c 05 3f 96 9c e2 3e 17 f8 c7 3e 59 27 bf 3e
       0.52167135 0.4426009 0.39056465 0.37334707
000190 c3 eb 5f 3f 6f 35 32 3f 63 20 55 3f 17 63 54 3f
       0.8746912 0.69612783 0.83252543 0.829637
0001a0 cc 1d 56 3f 2a c8 5b bf 0d f3 55 bf 82 53 52 bf
       0.83639216 -0.858523 -0.8357399 -0.8215867
0001b0 6f 44 4e bf 91 21 3f bf 17 7a a2 3e 4a 70 ca 3e
       -0.8057317 -0.74660593 0.31733772 0.39538795
0001c0 11 66 61 3e 21 39 90 3e 58 5b 80 3e 78 3c b7 3e
       0.22011591 0.28168586 0.2506969 0.35788321
0001d0 29 ff bd 3e ff 94 10 3f 7a 6a b8 3e 00 69 03 3f
       0.37108734 0.5647735 0.36018735 0.5133209
0001e0 b5 8c 30 3f 8f 2c ea 3e 73 98 f2 3e c9 76 03 3f
       0.689647 0.4573712 0.47381935 0.51353127
0001f0 2a 00 c8 3e e8 1f 23 3e b3 21 70 3e 28 fd 2a 3e
       0.39062625 0.1593014 0.23450355 0.16698134
000200 8e 59 35 3e 82 59 2d ba fa 5d a3 3c fd 7a 14 3d
       0.17709944 -0.0006612764 0.019942272 0.036250103
000210 f4 7c 01 3e a3 5e c7 3d 24 b8 40 3e 48 56 07 bf
       0.12645322 0.097348474 0.18820244 -0.5286603
000220 2d 72 ca be 63 0c cf be 3d a0 e5 be 59 64 87 be
       -0.39540234 -0.40439138 -0.44848815 -0.26443747
000230 bd b7 19 bd af bc d9 bb 21 84 8b 3c 7c 39 0a bc
       -0.037528742 -0.0066448073 0.017030777 -0.008436557
000240 f4 d8 e8 bd 58 af 81 3e 1d 34 0d 3e 56 99 d6 ba
       -0.113695055 0.2532909 0.13789411 -0.0016372602
000250 8f ee 8e 3d 5c 4e cc bd b5 74 c3 3d 6a ff 23 be
       0.06979095 -0.09975883 0.095437445 -0.16015401
000260 09 88 dd bd 94 60 86 bd 82 4d 18 be d3 0a 3e bd
       -0.10816962 -0.065613896 -0.14873317 -0.04639704
000270 57 d6 09 bd b0 68 20 be fc 79 04 3c d0 3d 11 be
       -0.033651676 -0.15664935 0.008085724 -0.14183736
000280 38 cf 3b 3f a6 92 3b 3f e6 98 23 3f c3 04 2f 3f
       0.73363066 0.7327064 0.6390518 0.6836664
000290 5d d0 40 3f b4 8e 47 3f 08 6c 4d 3f 78 d3 22 3f
       0.7531794 0.7795212 0.8024297 0.63603926
0002a0 f1 b8 57 3f df 05 35 3f ba 5d 9b 3e b3 3a c7 3e
       0.84266573 0.70712084 0.30344945 0.3891197
0002b0 11 38 80 3e 40 ba 33 3e f2 d8 27 3e 05 ca 6c be
       0.25042775 0.17551517 0.16391352 -0.2312394
0002c0 94 56 2f be 73 23 51 bb be 7d be be 7c b7 58 be
       -0.1712287 -0.0031911999 -0.3720531 -0.21163744
0002d0 eb 2e 12 3f 6f 38 47 3f aa b0 12 3f 34 9a 3e 3f
       0.5710284 0.77820486 0.5730082 0.74454045
0002e0 b9 4e 3e 3f 91 a3 25 3f e0 76 47 3f d4 6a 4b 3f
       0.7433887 0.6470271 0.77915764 0.7945988
0002f0 f5 7c 1a 3f 6d f4 19 3f 85 8a c0 3b a9 36 21 bd
       0.6034692 0.6013859 0.005875888 -0.03935877
000300 a3 da ca 3c dc f6 07 be 59 72 58 be f3 42 61 be
       0.024762457 -0.13277763 -0.2113737 -0.21998195
000310 90 3c 72 be 83 48 14 be 3c dd 56 be dc fd 98 be
       -0.23655915 -0.14480786 -0.20982832 -0.2988118
000320 45 f7 ea 3d 98 34 25 3e c6 ad a0 3e 25 c7 0c 3e
       0.11472944 0.16133344 0.3138258 0.13747843
000330 03 44 b2 3e 22 14 e0 3d 84 a6 66 3e 52 94 9f 3e
       0.34817514 0.1094134 0.22524458 0.31167847
000340 e1 76 98 bc c8 14 b7 3e 0c ba de bd 48 bb 9c be
       -0.018611373 0.35758042 -0.108753294 -0.30611634
000350 05 9f 8b be 40 be d3 be 65 82 93 be c6 a0 2a be
       -0.2726976 -0.41356087 -0.2881042 -0.16662893
000360 81 66 b8 bd c6 9c 88 be ac a6 76 be 2d 6a 8a be
       -0.09003926 -0.2668211 -0.24087018 -0.2703413
000370 aa 62 9c be d4 05 0e be 2e d7 6d be e5 19 68 be
       -0.30544025 -0.13869411 -0.23226616 -0.22666128
000380 2c 3a 82 be 3c 01 a3 3e b4 24 4d 3e 16 6a b2 3e
       -0.25435007 0.3183688 0.20033532 0.34846562
000390 70 a8 32 3e e1 3f 33 3e 8c d7 18 3f 85 ba 17 3f
       0.17447066 0.17504837 0.597039 0.5926898
0003a0 cd 50 d7 3e d9 d6 14 3f 25 59 ed 3e 95 f0 0e 3f
       0.42053834 0.5814033 0.46357074 0.5583585
0003b0 05 41 ea 3e 5b 6a 02 3f aa 40 0f 3f b2 af 0e 3f
       0.4575273 0.50943536 0.55958045 0.5573684
0003c0 00 0c 70 bd 36 f7 67 be 9a a2 8e bd 37 3c 7c be
       -0.058605194 -0.22652897 -0.069646075 -0.24632345
0003d0 07 6e c6 bd ba 69 73 3d 53 b7 89 3e 7b 6e 14 3e
       -0.09688955 0.059427 0.26897678 0.1449527
0003e0 91 05 8e 3e 45 4e 49 3e 47 c8 13 3f 34 19 d2 3e
       0.27738622 0.19658764 0.57727474 0.41034853
0003f0 de e1 dd 3e b9 91 09 3f 11 ad d1 3e ed 00 08 3f
       0.43336385 0.5373798 0.40952352 0.5312641

feature_extractor.Conv1D_1.conv_1.bias f4 [14]
000000 54 57 0b be e9 f2 78 be 59 2f 2f bf 14 1b 1b bf
       -0.13607532 -0.24311413 -0.6843162 -0.6058819
000010 3d 16 4b bb 5c c0 04 bf 43 48 3b bd 42 88 89 bc
       -0.0030988597 -0.5185602 -0.04572321 -0.016788606
000020 ca ea b1 3e 5e ed 14 3f 44 3a 0e 3f 62 68 5c bf
       0.34749442 0.58174694 0.55557656 -0.86096776
000030 75 68 d0 be bd 43 bf be
       -0.40704694 -0.37356368

feature_extractor.Conv1D_2.conv_1.weight f4 [28, 14, 3]
000000 3c 44 36 3c 5d d2 8a 3e e2 37 1f 3e 8e 02 aa be
       0.011124667 0.2711362 0.15548661 -0.33205074
000010 f3 3c ad be f4 3d 0c bf d4 7b 2c 3f 14 56 17 3f
       -0.33835563 -0.5478203 0.67376447 0.5911572
000020 f1 c0 1e 3f 88 cb 5d 3e a9 11 3e 3e 7c 75 5a 3d
       0.62013155 0.21659672 0.18561424 0.053334698
000030 28 eb 99 3c f8 ff 93 3e 3a 5f ae 3e 32 6e 1a 3c
       0.018788889 0.28906226 0.34057027 0.009425687
000040 fd d4 d6 3c 81 c7 63 3d 32 ef 28 3d 96 3b a0 3e
       0.026224608 0.055610184 0.04124374 0.3129546
000050 d8 de ab 3e ca c9 8a 3d 7f 32 2e 3e b4 db bf 3e
       0.33568454 0.067767695 0.1701145 0.37472308
000060 8f 65 f8 bd a8 fb a9 be 49 74 af be cb ad 24 bf
       -0.12128746 -0.3319981 -0.34268406 -0.6432769
000070 7e 57 de be 79 b8 b9 be 1f b7 24 bf f7 65 ee be
       -0.43426126 -0.36273554 -0.6434192 -0.46562168
000080 83 cc 1e bf 73 5c 36 3f e4 ce 6a 3f 0d b0 82 3f
       -0.6203081 0.71234816 0.9172194 1.0209976
000090 0a e8 00 3e 53 83 86 3d 67 42 b9 3d 69 a5 f1 3e
       0.12588516 0.06568017 0.09045868 0.4719651
0000a0 89 f1 3b 3f 75 8d 1e 3f 03 91 4f be c3 f1 cb bd
       0.7341543 0.61934596 -0.20270161 -0.09958222
0000b0 8c a9 84 be cb 11 7e be 88 58 9d bd 68 4c b2 3d
       -0.25910604 -0.24811475 -0.076829016 0.087059796
0000c0 bb e1 f0 3e 9c 7e fb 3e f7 2b 85 3e 3b c6 3b bc
       0.4704722 0.49120033 0.26010105 -0.011460836
0000d0 fb c0 09 be ab cb ac bb f6 ca b5 be 38 96 87 be
       -0.13452522 -0.0052733026 -0.3550641 -0.26481795
0000e0 a0 9d 3c be f3 46 aa 3d ab 0a 4d 3d fc 45 0a be
       -0.18419504 0.08314314 0.050059002 -0.1350326
0000f0 81 cd aa be 8d 06 b8 be bf b3 8b bd 71 0f 91 be
       -0.33359912 -0.35942498 -0.06821393 -0.28332093
000100 42 29 af bd 52 db 91 be cf b6 eb bd 8b a3 a6 be
       -0.08552791 -0.2848764 -0.11509477 -0.32546648
000110 96 7d 99 be 11 13 03 bf 23 c5 1e bf 02 70 fa be
       -0.29978627 -0.5120097 -0.62019557 -0.4891358
000120 29 e1 22 bf b5 7f 26 bf 63 c7 f0 be 3d 05 ea 3e
       -0.6362482 -0.65038615 -0.4702712 0.45707121
000130 70 0e 0e 3f 41 13 c0 3e 38 d0 f6 bd 76 ee 70 3d
       0.5549078 0.3751469 -0.12051433 0.058821164
000140 51 97 a0 bd a3 c9 05 3f 25 39 77 3e 4a 12 68 3e
       -0.07841361 0.522608 0.24142893 0.22663227
000150 7b 40 77 3d c1 ad 42 3e 54 ba ab 3e 02 ce f0 be
       0.060364228 0.19011594 0.33540595 -0.4703217
000160 e1 fb f4 be a7 fe a3 be c3 af 31 3f 3d 89 02 3f
       -0.47848418 -0.32030222 0.69408816 0.5099066
000170 de 5b 01 3f ee e2 11 be a3 c0 79 3d 64 55 7d bc
       0.50530803 -0.14246723 0.06097473 -0.015462253
000180 81 c0 a3 3e b8 bf e4 3e 7c 62 a8 3e 83 e2 ef 3d
       0.31982806 0.4467752 0.32887638 0.117131256
000190 fb ed 6f 3d f8 72 94 bd b8 21 63 3e 0d 49 e1 3e
       0.058576565 -0.07248491 0.22180831 0.44001046
0001a0 29 71 ba 3e e7 d4 45 3e 15 f1 92 3e a6 6b 84 3e
       0.3641446 0.19319497 0.28699556 0.2586338
0001b0 0b c1 0c bf 94 b0 e8 be 13 39 c1 be 40 0c 24 bf
       -0.5498206 -0.45447218 -0.37738857 -0.6408119
0001c0 ea af 13 bf 8b 08 20 bf 2c 64 f5 be a1 ac 1c bf
       -0.576903 -0.62513036 -0.47927988 -0.6120091
0001d0 59 65 2a bf f2 65 70 3f 9d 48 80 3f 89 df 81 3f
       -0.66560894 0.93905556 1.002216 1.0146343
0001e0 59 30 5b 3d ee 26 9f 3d ac 82 45 be 66 ed c3 3e
       0.053512905 0.07771097 -0.19288129 0.38267058
0001f0 76 d8 12 3f 97 05 9a 3e a3 cc 85 bd eb a7 79 be
       0.57361543 0.3008239 -0.06533172 -0.24380462
000200 8e d0 00 bf 69 e6 0d 3e 3a 74 21 3e ff 69 53 bc
       -0.5031823 0.13857426 0.15766993 -0.012903689
000210 f9 7d fc 3e b8 d4 01 3f 7a 18 b6 3e d7 fb 12 3d
       0.4931486 0.5071521 0.3556555 0.035884704
000220 a0 67 f8 bd 09 88 88 3d b6 15 c5 be 13 0d 80 be
       -0.1212914 0.06666572 -0.38493127 -0.25009975
000230 54 17 34 be 9e 92 b7 3d 7a a2 d9 39 cf 33 3a be
       -0.17587024 0.08963512 0.0004151052 -0.18183826
000240 95 85 08 be ac a0 9c be 32 af fd be 8d 7b 4c be
       -0.13332208 -0.30591333 -0.49547726 -0.19969006
000250 1f 58 c8 be 9b 8e 21 be 3a ea 53 be 60 51 69 be
       -0.3912973 -0.15777056 -0.20694819 -0.22784948
000260 9a a7 64 be 03 c1 c7 be 96 3b e5 be 21 1f 0d bf
       -0.2232956 -0.39014444 -0.44772023 -0.55125624
000270 d3 cf 24 bf c5 e3 20 bf f1 56 27 bf 64 cc 76 3e
       -0.64379615 -0.6284755 -0.6536704 0.24101406
000280 c8 48 63 3e cb e2 b7 3e 73 b6 1d bd a5 73 29 bd
       0.22195733 0.35915217 -0.038504075 -0.041370053
000290 73 68 31 3e 68 53 92 3e af 71 ec 3e 74 81 cf 3e
       0.17325 0.2857926 0.46180484 0.40528452
0002a0 d8 b8 6c 3d 60 7d a0 3e 6a 02 3a 3e 29 e4 fc be
       0.05779347 0.31345654 0.18164983 -0.49392822
0002b0 b2 dc b7 be ba 3a c5 be 1a 4f 3e 3f f6 06 09 3f
       -0.35910565 -0.38521367 0.7433945 0.53526247
0002c0 98 fb 33 3f 7a eb a8 bc 33 22 87 bd 1f ed 39 3e
       0.70305777 -0.020620096 -0.0659832 0.18156861
0002d0 93 8a 9d 3e 62 ca 51 3d f6 64 b0 3e 3d 3a 40 3e
       0.30769786 0.051218398 0.34452027 0.18772216
0002e0 0d 42 24 3e be 90 d3 bc 29 36 89 3e d6 1d 10 3e
       0.16040821 -0.025825854 0.26799133 0.14073882
0002f0 b0 c1 4d 3e 78 33 9d 3e db 8a b0 3e 13 f4 ba 3d
       0.20093417 0.3070333 0.34480938 0.09128585
000300 8d 88 8b be 69 4e b2 be 6d f9 a2 be a9 d0 45 bf
       -0.27252617 -0.34825447 -0.31830922 -0.77271515
000310 52 9e 01 bf 01 ac dc be 24 e0 17 bf 97 84 1e bf
       -0.506322 -0.4309998 -0.59326386 -0.61921066
000320 a6 9a 25 bf 95 12 50 3f d5 d7 41 3f 81 1a 77 3f
       -0.646891 0.81278354 0.7571996 0.96524817
000330 b3 0e ec bb 59 6d a3 bd 76 34 87 ba 14 37 e7 3e
       -0.0072039007 -0.07979841 -0.0010315317 0.4515921
000340 28 d9 d1 3e 70 cc bd 3e ec 4d 16 be 58 aa 88 be
       0.4098599 0.37070036 -0.14678162 -0.26692462
000350 86 24 ab be 18 dd e8 bd f9 4f 03 be 42 b6 03 be
       -0.33426303 -0.11370295 -0.12823476 -0.12862495
000360 58 c7 f6 3e 34 9f 97 3e a5 e9 49 3e f4 b3 c0 3d
       0.48198962 0.2961365 0.19718035 0.09409323
000370 0b aa 67 3d d9 da 1a 3e b4 7e bf bd 9d 50 48 be
       0.05655865 0.15122546 -0.093503386 -0.19562002
000380 92 e5 7c bd b1 48 ad 3d d5 a6 ab bd 5c 3f a1 bd
       -0.061742373 0.084611304 -0.0838143 -0.07873413
000390 a5 69 67 be d9 73 85 be 70 41 d9 bd fd 6c 81 bd
       -0.22598894 -0.26064947 -0.10608184 -0.06319616
0003a0 7b 38 4d be 4c b1 b2 be 41 fe a5 be 49 fd ca be
       -0.20041077 -0.34900892 -0.32420543 -0.39646366
0003b0 9b 9d 07 bf 34 b9 1a bf aa 2f 2e bf c5 b5 ed be
       -0.5297486 -0.6043885 -0.6804148 -0.46427742
0003c0 9a 9d 0a bf 61 7c 30 bf 65 eb 27 bf 27 5d 88 3e
       -0.5414673 -0.6893979 -0.6559356 0.2663357
0003d0 d2 96 de 3e fe 61 d4 3e 0f 79 09 bd 6a ac 46 be
       0.43474442 0.41481012 -0.033562716 -0.19401708
0003e0 35 fc 0e be 54 72 dc 3e 23 da 5d 3e ba bb aa 3e
       -0.13963397 0.43055975 0.21665244 0.3334635
0003f0 86 3c 22 3e 45 3c 52 3e d8 14 83 3e 5c 42 01 bf
       0.158434 0.20530804 0.2560184 -0.5049188

feature_extractor.Conv1D_2.conv_1.bias f4 [28]
000000 2c 94 02 be d2 7d d7 be 0c 98 aa be 7e 02 94 be
       -0.12751836 -0.4208818 -0.33319128 -0.2890815
000010 62 9f fd bd 70 b3 54 be ad 2b b2 be 54 3b 68 be
       -0.123839155 -0.20771575 -0.34798947 -0.22678882
000020 a4 c5 b2 bd dd cf 4b be 86 05 38 be cf 88 a9 be
       -0.08729103 -0.19903512 -0.17970857 -0.3311219
000030 46 19 a3 be 04 c5 c1 be 68 8a bb bd f1 0c a4 be
       -0.3185522 -0.37845623 -0.09157258 -0.32041124
000040 b7 e1 93 bd 48 56 c7 be 1b 75 ac be 82 7f ab be
       -0.07220786 -0.38933015 -0.33683094 -0.33495718
000050 55 e3 8a be 91 9f be be 82 12 ae be 69 f1 85 be
       -0.27126566 -0.37231115 -0.33998495 -0.26160744
000060 50 6e 7b be bf 81 bf be 2d 9e cd bd 5e 10 9c be
       -0.245538 -0.37403676 -0.10039935 -0.30481237

temporal_extractor.LSTM.lstm.weight_ih_l0 f4 [200, 5]
000000 ec 54 1b 3e 8b 77 d1 3d 2d 99 56 3e 53 c0 0b 3e
       0.15169114 0.10227879 0.2095687 0.13647585
000010 5b e6 97 3e 48 00 cc 3f 03 41 ba 3f 41 7c d4 3f
       0.29667935 1.5937586 1.455109 1.6600419
000020 f3 37 c5 3f b4 a1 a2 3f 60 32 ed 3f 94 91 e8 3f
       1.5407699 1.2705598 1.8530998 1.8169427
000030 da 83 e2 3f 77 f0 d5 3f 6b ad e4 3f 97 b8 91 3e
       1.7696488 1.6714009 1.7865423 0.28461143
000040 11 1f ad 3e 2c db 31 3e 92 dd f1 3d c4 d2 2d 3e
       0.33812764 0.17368764 0.11809839 0.16974932
000050 ac 6a 64 3e b8 a1 de 3e b4 be c4 3e 09 bb b4 3e
       0.22306317 0.43482757 0.38426745 0.35298946
000060 20 61 9f 3e 18 89 72 3f 49 f0 8a 3f 13 43 9b 3f
       0.31128788 0.9474044 1.0854579 1.2129844
000070 b1 9d 86 3f 85 89 80 3f e1 e1 59 bf 74 71 7b bf
       1.0516874 1.0041968 -0.8511029 -0.9821999
000080 3e 1d 26 bf b8 b4 21 bf fc d8 c3 be f1 ae 5f bf
       -0.6488837 -0.6316638 -0.38251483 -0.87376314
000090 00 a3 86 bf 45 98 84 bf 36 a6 73 bf 47 07 82 bf
       -1.0518494 -1.0358969 -0.9517549 -1.0158471
0000a0 c3 c5 ec bd 7e 5b 73 bd 2d 98 7d be 4f d0 97 bd
       -0.115611576 -0.059413426 -0.24765082 -0.074127786
0000b0 b6 12 7a bc cc 4f 17 bf f6 b4 b4 be a3 26 a1 be
       -0.01526325 -0.59106135 -0.35294312 -0.3147479
0000c0 37 27 76 be 48 d9 1f be 55 c9 f7 be aa fe bf be
       -0.24038397 -0.1561023 -0.48395792 -0.3749898
0000d0 5e 66 0b bf 0f df 10 bf 5a 60 0d bf 8d 6b ff be
       -0.54453075 -0.5659036 -0.55225146 -0.49886742
0000e0 10 a6 2b bf e4 5a 40 bf e7 42 0f bf 18 4e 3c bf
       -0.67050266 -0.7513869 -0.5596146 -0.7355666
0000f0 82 60 e9 bd c4 9f f4 3d c0 f1 ac 3e 6b bf 09 3e
       -0.113953605 0.119445354 0.3377819 0.13451926
000100 9a 68 bb 3e 8e 51 01 3f c9 bc 0f 3f 7d 3d 27 3f
       0.36603242 0.5051507 0.5614744 0.653282
000110 2b b3 25 3f 4d c0 56 3f 3e 81 7c bf 1c ea 77 bf
       0.64726514 0.8388718 -0.9863471 -0.968416
000120 24 43 75 bf 5e 94 7c bf 12 ed 58 bf 9b bc c3 bf
       -0.95805573 -0.9866389 -0.8473674 -1.5291933
000130 66 18 aa bf 9f dc 9f bf b2 84 8d bf f6 6d 62 bf
       -1.3288696 -1.2489203 -1.105612 -0.8844904
000140 72 be 73 bf 24 84 3e bf c6 b3 7b bf a9 e6 60 bf
       -0.9521247 -0.7442038 -0.9832119 -0.8785196
000150 37 e3 62 bf f7 59 c8 3e 0d e9 86 3e a2 da ba 3e
       -0.8862795 0.39131138 0.2634968 0.3649493
000160 ed a0 17 3e 47 d8 8c 3e aa 70 33 3f d5 0a 51 3f
       0.14807482 0.27508757 0.70093787 0.81657153
000170 c2 50 2a 3f f8 07 d7 3e cd f9 ac 3e 43 a8 4b be
       0.66529477 0.41998267 0.33784333 -0.19888406
000180 5a 2b 5e be 62 1d 4d be 3e ae 63 be ff f2 84 be
       -0.21696225 -0.2003074 -0.22234437 -0.2596664
000190 fb 24 dc 3f 6a 5f cc 3f d2 16 d2 3f b8 78 bb 3f
       1.7198786 1.5966618 1.6413214 1.4646215
0001a0 4d 1f ce 3f c1 aa 0c bf 80 4a da be bb f6 0e bf
       1.6103302 -0.5494805 -0.42634964 -0.5584523
0001b0 a8 b9 30 bf 8d 10 e3 be 99 92 37 bf 06 f0 07 bf
       -0.6903329 -0.44348565 -0.71708065 -0.5310062
0001c0 4c bb 21 bf 76 d5 14 bf 44 83 0d bf 62 4d 9e bf
       -0.6317642 -0.58138216 -0.5527842 -1.2367365
0001d0 52 9e 60 bf b4 ca 77 bf 30 3e 5a bf 3e 82 43 bf
       -0.8774158 -0.96793675 -0.8525114 -0.7637061
0001e0 ef 5f 5f 3e 5a a3 79 3d 93 a5 23 3e 80 fe 20 3e
       0.2181394 0.0609468 0.1598113 0.15722084
0001f0 68 16 c2 3d 6a e9 c4 bf c9 1e cf bf 95 8f ea bf
       0.0947693 -1.5383732 -1.618127 -1.8325068
000200 f3 ac f9 bf e9 d1 ee bf a2 ad 31 3f fc 5a fb 3e
       -1.9505905 -1.865781 0.6940557 0.49092853
000210 f1 e2 26 3f 00 59 20 3f 46 ab 0b 3f ef 31 1e 3f
       0.65190035 0.62635803 0.5455822 0.6179494
000220 f7 55 46 3f 15 3f 16 3f 68 e6 56 3f b8 e1 47 3f
       0.7747492 0.58690006 0.8394532 0.78078794
000230 d4 43 73 be 9d 3a c5 bd 91 71 e9 3b 85 f9 3a 3e
       -0.23756343 -0.0963032 0.007124134 0.18259247
000240 13 9e 3e 3e bf b8 01 bf 76 55 fa be f1 e8 d2 be
       0.18614988 -0.50672525 -0.48893327 -0.41193345
000250 98 d5 8b be e2 7a 21 be 4e 48 9e 3f 71 58 94 3f
       -0.27311397 -0.15769532 1.2365816 1.158949
000260 9e 2c ab 3f 83 e7 b1 3f 44 b4 be 3f d5 58 56 bf
       1.3372991 1.3898777 1.4898763 -0.83729297
000270 b8 63 4e bf 97 61 42 bf 17 3a 32 bf 59 a4 36 bf
       -0.8062091 -0.7593016 -0.6961989 -0.71344525
000280 1f 37 7d 3e f0 3f 8b 3e b3 62 a1 3e 10 b8 05 3f
       0.24728058 0.27197218 0.31520614 0.5223398
000290 ad b7 0d 3f 13 19 8e be d2 91 36 be ba a8 94 be
       0.5535839 -0.27753505 -0.17829064 -0.29034978
0002a0 f2 46 c2 be 6d 77 b7 be e5 62 3a be d4 23 a2 be
       -0.37944752 -0.35833302 -0.18201788 -0.3166796
0002b0 62 58 b0 be c2 3f f2 be c7 25 fb be 04 6c 59 3f
       -0.3444243 -0.47314268 -0.4905226 0.84930444
0002c0 3d be 8b 3f d2 fc a3 3f 98 86 93 3f 28 33 a3 3f
       1.0917431 1.281153 1.152545 1.2749987
0002d0 08 d1 b4 be 61 bb 03 bf 0c e2 cf be a2 bd 4b be
       -0.35315728 -0.5145779 -0.40602148 -0.19896558
0002e0 d2 f9 bc be e7 40 40 bf ad c6 30 bf 4e ac 64 bf
       -0.36909348 -0.75099033 -0.69053155 -0.89325416
0002f0 fe 71 54 bf 9c fd 48 bf f7 4b ee 3d 8e 64 e9 3e
       -0.8298644 -0.7851198 0.11635583 0.4558453
000300 d6 a5 b3 3e 6e e4 e9 3e 21 00 1f 3f a1 24 b2 be
       0.3508746 0.4568209 0.6210957 -0.3479357
000310 79 0f 29 bf d2 ba 1c bf 0a f4 1e bf 62 cb 0b bf
       -0.66039234 -0.61222565 -0.62091124 -0.5460721
000320 08 5d bb bc 1b b3 d6 3c 62 b0 d3 bd f0 3e a3 be
       -0.02287151 0.026208451 -0.10336377 -0.31883955
000330 86 d8 03 be 3c e3 ff bd e5 e7 c1 bd 12 13 89 bd
       -0.12875566 -0.124945134 -0.094680585 -0.066930905
000340 c0 96 cb 3b 2a ce f0 bd 69 2e 8a be 0b 29 e6 be
       0.006213039 -0.11758073 -0.26988533 -0.44953188
000350 d4 46 fc be 88 b1 4f bf 11 a2 58 bf 01 67 8f 3f
       -0.49272788 -0.81130266 -0.84622294 1.1203309
000360 54 bd 9b 3f 4c 25 95 3f 06 8f 9a 3f 0a 2c 9e 3f
       1.2167153 1.1652007 1.2074897 1.235719
000370 7b ea f9 3d 0a 87 1d 3e db c4 3c 3e 2c b4 e6 bc
       0.12202927 0.15383545 0.1843447 -0.028162085
000380 2f 1d 15 3e 0b c7 33 3f 8b 67 3b 3f 59 d4 3b 3f
       0.14561914 0.7022559 0.7320487 0.7337089
000390 6e f9 87 3f 7f e1 6b 3f ef 08 c2 bf f6 1d d0 bf
       1.0622995 0.92140955 -1.5158976 -1.6259143
0003a0 16 42 c6 bf e4 ec c5 bf 57 62 d5 bf 12 a7 f6 3e
       -1.5488918 -1.5462918 -1.6670636 0.4817434
0003b0 b3 dd ba 3e 0a 5c a7 3d 54 4c 00 3e 49 89 59 3e
       0.36497268 0.08171852 0.12529117 0.21243776
0003c0 aa ab b7 3d 9c 1e a3 bd 8c 1d 02 be ed c9 26 bc
       0.08968289 -0.07964823 -0.12706584 -0.010179979
0003d0 b4 92 30 be e7 4a e8 3e b1 88 0d 3f d3 ca 0a 3f
       -0.17243463 0.45369646 0.552867 0.54215735
0003e0 2d b2 1d 3f d6 bd 2a 3f 65 09 21 3e 65 8f 45 3e
       0.616 0.66695917 0.1572624 0.19292982
0003f0 c0 80 06 3e 80 3e 9f bd a7 a0 ef 3d 7d a9 0a 40
       0.13135052 -0.07775593 0.11700564 2.1665947

temporal_extractor.LSTM.lstm.weight_hh_l0 f4 [200, 50]
000000 b9 5f 3b 3e 1b ac 59 3e 54 20 64 3e af 28 1c bf
       0.18298234 0.2125706 0.22277957 -0.6099958
000010 c1 76 53 3f 4b eb c8 be 86 5c ed 3e 66 1b 05 3e
       0.8260308 -0.39242014 0.46359652 0.12998733
000020 70 48 d4 be 41 ae ad be c2 b5 27 3e 1e f8 48 be
       -0.41461515 -0.33922008 0.16377929 -0.19625899
000030 3e e3 0d be 8f 6a 18 3f 81 80 11 3f 53 e1 1b bf
       -0.13856217 0.59537596 0.56836706 -0.6089069
000040 9e c1 93 3e b7 c2 88 be f2 02 a1 be cd 25 12 bf
       0.28858656 -0.26711056 -0.3144756 -0.5708893
000050 71 10 c0 3e 23 8c c0 be e4 df d1 3e bb 34 04 3e
       0.37512544 -0.37606916 0.40991127 0.1291074
000060 4c 33 1c bf 66 12 1d bf e0 34 e6 3e f3 32 9f 3d
       -0.6101577 -0.613562 0.44962215 0.0777339
000070 72 05 34 3d 1e ec 00 bf 2d c6 8c 3e 1a 7e a4 be
       0.043950506 -0.50360286 0.27494946 -0.32127458
000080 eb 27 f0 be 13 e1 8f 3e 37 4d d6 be 6c 3f 09 bf
       -0.46905455 0.28101406 -0.41855785 -0.536124
000090 ba 06 38 be 42 cd 56 3e 01 65 90 3e 7e bc 77 be
       -0.17971316 0.20976737 0.2820206 -0.24192998
0000a0 51 43 c3 be 58 18 31 bd c4 ab bf 3e 12 4f 4f bc
       -0.38137296 -0.043236107 0.37435734 -0.012653129
0000b0 40 30 08 3e 56 a2 62 bf c3 f9 a2 bd f7 7a ed be
       0.13299656 -0.88528955 -0.079577945 -0.46382877
0000c0 4a 76 05 3d 58 58 33 3e 69 b5 e8 3e b6 86 dd be
       0.032583512 0.17514169 0.45450905 -0.4326684
0000d0 f7 7f 15 bf 32 72 5f be 6c c6 2a 3f 46 43 7f be
       -0.58398384 -0.21820906 0.6670902 -0.24928007
0000e0 a3 70 5e 3f 27 80 ff 3e 6b ff 83 be 5d 5e 73 bf
       0.8689062 0.4990246 -0.25780806 -0.9506586
0000f0 f0 62 f8 be f5 45 05 bf ca f0 77 be 83 d3 3a 3f
       -0.48512983 -0.5205987 -0.24212947 0.7297899
000100 3f 32 24 3f 25 69 80 be 6f f9 b5 3e b3 20 a4 be
       0.6413917 -0.2508022 0.35541865 -0.32056198
000110 d8 bc d3 be b7 0e fc be 55 54 4a 3f 5a 6a 46 bf
       -0.41355014 -0.49229977 0.7903493 -0.7750603
000120 9b b8 86 3e 5b 60 b2 be 51 26 17 be ad b7 d3 be
       0.26312718 -0.34839138 -0.1476071 -0.4135107
000130 84 22 1a 3f ef a1 f5 3e 28 65 98 bd 93 19 5c bf
       0.60208917 0.47975108 -0.07441169 -0.85976523
000140 c1 ec 4f 3f e9 bc a9 be 8d 04 22 bf e3 57 bb bc
       0.8122063 -0.3315194 -0.63288194 -0.022869056
000150 c8 24 1d bd 22 55 5a 3e b2 45 c3 3e ff a9 2d 3f
       -0.038365155 0.21321538 0.3813911 0.6783752
000160 d3 28 0c 3f e9 01 5c 3e c0 27 49 3e ce 2b 8b bd
       0.5474979 0.21485104 0.1964407 -0.067954645
000170 5c d4 47 3f 5f f6 17 bf 21 1b f6 3e 22 92 2c bf
       0.7805841 -0.5936031 0.48067573 -0.6741048
000180 a6 19 31 be 65 e8 51 bf 1a d4 a1 3d 9d c8 80 be
       -0.1729494 -0.8199523 0.07901783 -0.25153056
000190 ec 48 20 be 3b 7b 8c 3e 38 00 a7 3e 86 aa ee 3e
       -0.15652817 0.27437767 0.32617354 0.46614474
0001a0 ec 97 87 3f 90 15 c7 be 8e 01 e6 be e9 f5 df bd
       1.0593238 -0.38883638 -0.4492306 -0.109355755
0001b0 f5 79 0a 3e 13 84 8e 3e f2 10 1d 3f e7 57 11 3d
       0.13523085 0.2783514 0.6135398 0.03548422
0001c0 d8 71 26 be 41 4e a3 3e 32 e4 a1 3e ca 5d fc 3e
       -0.16254365 0.3189564 0.31619412 0.49290305
0001d0 bf ed 80 3f 2e 48 0c 3e d3 17 ee bf 21 92 f1 3d
       1.0072554 0.1369941 -1.860102 0.1179545
0001e0 5b 62 1d 3e 21 e8 70 be 3f 82 4c bd 88 16 a2 3e
       0.15369551 -0.2352605 -0.0499289 0.31657815
0001f0 e6 02 90 bf be 30 24 3e 6b 22 fd bd cd 51 b1 3f
       -1.1250885 0.16034219 -0.1236008 1.3853089
000200 38 5b d8 be 84 91 1a be 92 d6 2a bd a8 02 a7 bf
       -0.42257094 -0.15094572 -0.041708536 -1.3047686
000210 09 4e 00 3e 25 04 b0 be b5 ba 2d bf e7 a0 a0 be
       0.12529768 -0.34378162 -0.6786302 -0.3137276
000220 47 61 f4 be ba 73 ea bd a1 20 dd bd fd 2c 66 bf
       -0.47730467 -0.11447854 -0.10797239 -0.89912397
000230 7f 41 0f 3f b1 b7 2b 3f a6 2e b7 3d 64 95 8a 3d
       0.55959314 0.67077166 0.08944444 0.06766775
000240 60 3f 9a 3c 55 d7 c3 3e 53 1f 02 bf d9 45 47 3e
       0.018829048 0.38250223 -0.50829047 0.19460239
000250 5b 3a a6 bf 24 27 52 bf 8b 2a 93 3e 01 71 f9 bd
       -1.2986559 -0.82090974 0.28743395 -0.12179757
000260 4a 09 34 3f 28 c8 42 bf d0 a2 08 3f c1 7a 0e be
       0.70326674 -0.76086664 0.5337343 -0.13914014
000270 cf ff 10 3f 44 6f 90 3e 5b 1e 2f bf 01 51 04 be
       0.5664033 0.2820989 -0.68405694 -0.12921526
000280 60 29 6e bb 6d 05 0d 3c 85 17 3c be 02 b4 49 3f
       -0.003634058 0.008607251 -0.18368347 0.78790295
000290 e9 81 c9 3e 07 96 78 bf dc f6 e2 3d 1a a5 c5 be
       0.39356926 -0.97103924 0.11082241 -0.38602525
0002a0 f1 f6 f8 bd 28 24 f4 be 1f dc 85 3c aa 06 73 3d
       -0.12156475 -0.47683835 0.016340313 0.059332527
0002b0 a0 ec de 3e 9d 4b 7d 3e c2 45 94 be b4 f5 31 bf
       0.43539906 0.24735875 -0.2895947 -0.6951554
0002c0 58 aa ef 3e fa 8d 43 be ef b4 f0 3e 12 48 70 be
       0.4680965 -0.19097129 0.4701304 -0.23464993
0002d0 17 d6 1e 3d 9b 57 27 bf c6 05 08 be 68 66 2a 3f
       0.03877839 -0.6536805 -0.13283452 0.6656251
0002e0 2a e3 09 bc dd 49 65 be c3 88 b6 3e 70 3f 4e 3e
       -0.008415977 -0.22391458 0.35651216 0.20141387
0002f0 95 c1 84 3e f2 17 84 3e 46 64 6e bf 97 42 8f be
       0.2592894 0.2579952 -0.93121755 -0.27980492
000300 ea a7 7b 3e 73 ba 62 3e c2 89 fe 3d ea 18 3c bf
       0.24575773 0.22141437 0.12428619 -0.73475516
000310 90 31 22 be 05 67 2c bf fd 8d f4 3d 5d 03 36 bd
       -0.15839219 -0.67344695 0.119411446 -0.0444368
000320 47 be 82 bf e8 28 ee 3e bd a9 9c bf 01 6b 12 3f
       -1.0214318 0.46515584 -1.22393 0.57194525
000330 cd b4 f5 3d e7 ec a8 3f 03 4d 2c bf 45 e2 30 bf
       0.11997376 1.3197297 -0.6730501 -0.6909526
000340 91 1e b9 3f 04 61 47 3c 3b 01 f9 3e fd d9 1a 3e
       1.4462453 0.012169126 0.4863375 0.15122218
000350 b0 f7 bd 3e 72 6d 5e bf f7 2f 12 bf a2 9a 00 3f
       0.37103033 -0.8688575 -0.5710444 0.5023595
000360 71 48 33 3f dd 2d 7a 3f 8e 12 38 bf 6c 81 54 3f
       0.7003241 0.9772623 -0.7190331 0.8300998
000370 f3 34 66 3f c8 f8 3d 3f 50 e1 1d bf 97 bf ba 3e
       0.89924544 0.74207735 -0.61671925 0.36474296
000380 ff 5d 3e 3d df bc b3 3f 66 c2 87 bf c1 59 7b 3e
       0.04647636 1.4042014 -1.0606201 0.24545957
000390 4f 17 ee be 12 9a 72 3f 4f e3 5d 3d f2 b8 86 3e
       -0.46502158 0.9476634 0.054171856 0.26312977
0003a0 69 93 b1 3f 0c 4c 4f bf 35 8a 81 be 90 62 96 3f
       1.3873111 -0.80975413 -0.25300756 1.1748829
0003b0 e1 6a 4a be d0 d7 7c bf c9 5f 96 bf 1c da 24 bf
       -0.19767334 -0.98766804 -1.1747981 -0.6439531
0003c0 e8 3e 96 3f bb db 90 3f 7b 5f c1 be 7f 11 29 be
       1.1737947 1.1317056 -0.37768158 -0.1651058
0003d0 6c f7 83 bf b9 60 ea 3e 12 7d 3f 3f c4 62 4a 3f
       -1.0309882 0.4577692 0.7480022 0.79056954
0003e0 24 cb 77 bf 04 26 19 bf 24 38 2c 3e ce 23 f1 3c
       -0.96794343 -0.5982363 0.16818291 0.029436018
0003f0 0e 2c ff 3e d2 5a 1a 3d 78 8e 3e 3f bc 16 92 3e
       0.498383 0.03768427 0.7443614 0.2853297

temporal_extractor.LSTM.lstm.bias_ih_l0 f4 [200]
000000 1e a3 8f be cf 71 20 bf 9e 37 10 be 53 6a c5 3d
       -0.28054136 -0.6267366 -0.14083716 0.0963942
000010 2d 9b 9c 3f 51 27 cf 3d 2b 3a b0 3f 25 26 0e 3f
       1.2234856 0.10114921 1.3767751 0.55526954
000020 41 77 28 bf 30 fd ae 3e 22 29 b0 bb 65 43 c2 be
       -0.6580697 0.34177542 -0.005375997 -0.37942043
000030 f5 9c 9f 3d a4 9e 4a 3f 30 5c 65 be 4b de 3f bd
       0.07793609 0.79148316 -0.22398448 -0.046842854
000040 94 d3 cd be 7a 81 7b 3e c9 25 28 bd 7b 70 ac bd
       -0.40200484 0.2456111 -0.04105166 -0.084198914
000050 44 f3 52 3f 39 8f f3 bd ba 76 2a bd 72 67 68 3f
       0.82402444 -0.11892552 -0.041617133 0.90782845
000060 08 62 2e 3e 76 eb 09 bf 91 14 b3 be ac 99 a9 3e
       0.17029583 -0.5387491 -0.34976628 0.33125055
000070 bd 09 7d be fe 48 74 3e d0 b1 6c 3e 93 67 2b be
       -0.24710746 0.2385597 0.23114705 -0.16738729
000080 3c e4 aa bd 63 c7 cd 3e 90 cb 2a 3e 95 fa 16 3f
       -0.083443135 0.40191182 0.16679215 0.5897611
000090 d2 b3 e9 3d f8 11 3e be ec e1 c6 3e b5 a4 2a be
       0.11411251 -0.18561542 0.3884424 -0.16664393
0000a0 48 b8 4b 3f c3 65 0d be 83 2c 66 3e b6 57 0f 3f
       0.79578066 -0.1380835 0.22477917 0.5599321
0000b0 98 62 46 3e 0f 01 f0 3e aa 2a 1b 3e a6 bd 45 3e
       0.19373548 0.46875808 0.15152994 0.19310626
0000c0 43 f4 23 bc db 97 b9 bd dd 29 5b be 1e e1 9c be
       -0.010006967 -0.09062167 -0.21402688 -0.306405
0000d0 d8 01 1b bf 19 55 1a 3e c2 ee 21 3e 48 94 f2 bc
       -0.6054969 0.15071525 0.15813735 -0.029611722
0000e0 4e 78 9d 3f 3e 71 02 3d 3d e8 1a bf cd f6 d3 3e
       1.2302339 0.031846277 -0.6051062 0.41399232
0000f0 07 f2 93 3e 0d 11 e2 be 78 4b 83 be fd e8 54 3f
       0.2889559 -0.44153634 -0.25643516 0.8316801
000100 52 a9 5b be 78 94 bb 3e 6b 5c a6 be ab 9d 57 3e
       -0.2145131 0.3663671 -0.32492384 0.2105624
000110 23 0e f8 be 8e 62 e7 3e be 53 eb 3e 89 78 89 bc
       -0.48448285 0.4519238 0.45962328 -0.016781108
000120 78 30 92 bd 5e 6e 3e 3f 31 1a 4e 3e 50 54 1f bf
       -0.07138151 0.74387157 0.20127179 -0.62238026
000130 23 c7 bf be cc 15 a5 3e 51 44 ad 3e 01 59 09 3f
       -0.37456617 0.32243192 0.33841184 0.53651434
000140 d9 f6 5e bd f1 9f da 3c 77 00 8c 3e 84 9e bf 3e
       -0.05443463 0.026687594 0.27344105 0.37425625
000150 ff 1b 3d be 32 49 02 bf 17 d2 e7 be 14 60 99 be
       -0.18467711 -0.5089294 -0.45277473 -0.29956114
000160 18 c8 14 3f fc 16 e8 bd 37 2f 64 bb 6f 9e e6 be
       0.5811782 -0.11332509 -0.0034818181 -0.4504275
000170 22 07 b9 be ff dc 65 3e ce 0a a6 3e eb 78 50 3e
       -0.36138254 0.22447585 0.32430118 0.20358627
000180 10 8c b8 3e dd fd 94 3d 05 28 a2 3e fe d6 fa 3e
       0.3604436 0.07274983 0.31671157 0.4899215
000190 e7 94 02 3e 5e 4e 04 be 87 6e 75 bc 02 70 66 be
       0.12752114 -0.1292052 -0.014979965 -0.22503665
0001a0 e3 ec e9 3c cf 6f a7 3e 3e bf dc bc 30 4c da be
       0.02855534 0.3270249 -0.02694666 -0.4263625
0001b0 fe 27 18 bf 0a 07 ca 3d 2b 9a d9 3d 6d 5f ab 3e
       -0.59436023 0.09864624 0.10625108 0.33471242
0001c0 d0 12 c5 be 88 b7 57 bf 20 04 77 3d fe 60 2f be
       -0.38490915 -0.8426442 0.06030667 -0.17126843
0001d0 cd ef 1f be 12 7d 5b 3e 61 c7 6f 3d 02 2f 0f 3f
       -0.1561882 0.2143443 0.058539752 0.55931103
0001e0 58 e8 54 3d 6b 3d 0c be 95 9d b8 3c bb de d0 3e
       0.051979393 -0.13695304 0.022536078 0.4079493
0001f0 77 d8 b5 3e 67 82 a7 3d 67 ec 32 3e ed b4 cc 3c
       0.35516712 0.08179169 0.17472993 0.024988616
000200 09 9c ee 3d 3e 38 5b 3e 00 60 1f 3e e2 98 23 3d
       0.11650855 0.21408173 0.15563965 0.039940722
000210 80 99 33 3f f6 1d 6b 3d f2 a8 16 3e 4a 84 1c 3f
       0.701561 0.05740162 0.14712885 0.6113936
000220 d9 15 c8 3e c7 9a 03 3e c0 6f 8c bc bc 7e ab be
       0.39079168 0.12852012 -0.01714313 -0.33495128
000230 5c b6 99 be f2 6f d9 be b2 fa b7 be 7a 50 26 3a
       -0.30021942 -0.4246822 -0.35933453 0.00063443894
000240 87 6c d0 be c6 c7 48 be 5e 9d 1e 3f da b3 95 3e
       -0.407078 -0.19607458 0.61958873 0.29238778
000250 c5 fb a8 be 51 7f f9 be ce a6 97 bd 59 77 dd be
       -0.33004585 -0.48729947 -0.07404862 -0.43255118
000260 bd b1 8d bd a6 5a 70 3e f9 25 9f 3f 8f ae c1 3d
       -0.069186665 0.2347208 1.2433463 0.094571225
000270 27 97 bc 3f 7b 50 9b 3e 59 18 2c bf cd 15 b9 3c
       1.4733628 0.3033484 -0.6722465 0.022593403
000280 6c 95 43 3d de 93 44 be 37 80 9b 3d 4d f2 3b 3f
       0.04774992 -0.19197032 0.075928144 0.73416597
000290 3c f1 c3 be 7b 7c 82 bd f1 bb a5 be 2f 84 76 3e
       -0.38269985 -0.06371399 -0.3236995 0.24073862
0002a0 dc b9 05 3b 3e eb 93 be fc 42 30 3f 6a 45 74 3d
       0.002040497 -0.28890413 0.6885221 0.05963651
0002b0 1c fe da bd de f4 f1 3e 6e 11 81 3e ad 54 43 bf
       -0.10692999 0.4725713 0.2520861 -0.7630108
0002c0 f9 3e 47 be 70 6f a5 3e 32 62 aa be db eb e7 3e
       -0.19457616 0.32311583 -0.33278042 0.4529713
0002d0 cf b5 0b 3e 45 3f 8c be d0 28 79 3e f2 10 e6 3e
       0.13643573 -0.2739202 0.24331975 0.44934803
0002e0 55 25 12 3d ac e4 2e 3f 7b 49 46 3f 4e cd 0d 3e
       0.035680134 0.68317676 0.7745587 0.13847849
0002f0 56 eb 3e 3f c9 8b bd be a2 15 1f 3f 93 64 85 3e
       0.74577844 -0.3702071 0.62142384 0.26053295
000300 d5 37 a1 3e cd 25 2f 3f 96 9a 50 3e f4 8b 0b 3e
       0.3148791 0.68417054 0.2037147 0.13627607
000310 d2 00 ce be 73 aa 13 3e a7 9c 4a 3e fb 3d 05 bd
       -0.40235 0.1442049 0.1978632 -0.032529812

temporal_extractor.LSTM.lstm.bias_hh_l0 f4 [200]
000000 66 2b 70 be 48 ce 4c bf 72 a5 f6 bc c1 69 2f 3e
       -0.23454055 -0.8000226 -0.030108187 0.17130186
000010 71 2a a7 3f ca 1d f2 3d 1c 37 a8 3f 9b 14 f6 3e
       1.3059827 0.11822088 1.3141818 0.48062596
000020 e4 69 50 bf 08 8e 83 3e a3 d6 c6 3d 12 51 9b be
       -0.81411576 0.256943 0.097089075 -0.3033529
000030 cc 7e d0 3d 1a 69 4a 3f 38 13 cd be ab cf 02 bd
       0.101804346 0.7906662 -0.40053725 -0.03193633
000040 e5 fb 1d bf 7c 1e a2 3e a2 3c 7e 3b 1d 6d 99 be
       -0.61712486 0.31663883 0.0038793464 -0.2996606
000050 52 dd 4e 3f 79 b7 d5 3c a8 2a 14 3e 0c 51 6e 3f
       0.8080646 0.026088463 0.14469397 0.9309242
000060 cc e5 b9 3e d9 46 29 bf 35 7c ec be 4d 49 d6 3e
       0.36308134 -0.6612373 -0.46188512 0.418528
000070 34 4e c9 be 8b 60 18 3e af 0f a2 3a e9 cb ae bd
       -0.39317477 0.14880578 0.0012364293 -0.085349865
000080 7a a5 40 be 0e 1a 68 3e d1 5a b7 bb 7b 28 4b 3f
       -0.18813124 0.22666189 -0.005595543 0.79358643
000090 22 44 99 3e 3d 86 31 bc 03 e6 d8 3e 30 66 1e be
       0.29934794 -0.010835228 0.42362985 -0.15468669
0000a0 dd f7 56 3f 31 7f f6 bd fb 53 1e 3e bf 0f 14 3f
       0.8397196 -0.120359786 0.15461724 0.57836527
0000b0 5c d6 5e 3e 22 2f 09 3f e2 ea d4 3d 08 0d 8e 3e
       0.21761459 0.53587544 0.10396363 0.27744317
0000c0 1a 01 21 3e 29 21 42 be 30 e3 a4 bd 99 21 05 bf
       0.15723076 -0.18957962 -0.08051145 -0.5200439
0000d0 ab 27 dd be 75 61 81 3e 93 f3 e2 3d 89 14 be bd
       -0.43194327 0.25269666 0.11081614 -0.092812605
0000e0 73 8c 93 3f ec 84 70 3e d4 0a 19 bf 38 21 54 3e
       1.1527237 0.23488206 -0.5978215 0.20715797
0000f0 f1 a3 8e 3e cd ce 85 be 94 32 90 be 98 25 67 3f
       0.27859452 -0.2613434 -0.28163588 0.9029174
000100 a3 bc a2 be c7 a2 2b 3e 23 73 d6 be ec 64 d1 3e
       -0.31784543 0.16761313 -0.41884717 0.4089731
000110 c0 e0 f5 be b8 e5 f8 3e 32 3b 03 3f 13 34 22 3e
       -0.48023033 0.48612761 0.512622 0.15840177
000120 c1 76 9a 3d c9 1b 0f 3f 58 a8 0f 3e f1 5d e8 be
       0.07542182 0.5590177 0.14029062 -0.45384172
000130 b9 26 01 bf e1 97 b4 3e 73 a3 c4 3e f4 b5 ed 3e
       -0.5044971 0.35272124 0.38405952 0.46427882
000140 8c 3e ad 3d 3f f9 15 bd 5b e5 8b 3e fe 5d 97 3e
       0.084591955 -0.036614653 0.27323422 0.29563898
000150 09 b2 44 be c3 b8 f6 be 8b 96 9e be 18 c1 de be
       -0.1920854 -0.48187837 -0.3097423 -0.43506694
000160 50 d7 10 3f b8 8a 1f be ee e7 4c 3d 2f e7 c5 be
       0.5657854 -0.15580261 0.050025873 -0.38652942
000170 f4 d9 94 be dc 0f 54 3e f5 b7 d0 3e 6e 71 0c 3e
       -0.29072535 0.20709175 0.40765348 0.13715145
000180 d2 76 e2 3e 4f a3 b8 bd 6b e6 97 3e ce ec 00 3f
       0.44231278 -0.09015524 0.29667982 0.50361335
000190 59 6c 54 3e bc e3 04 be b1 f4 ec bc f2 4a b2 bd
       0.20744456 -0.12977499 -0.028925272 -0.08705701
0001a0 6c 25 86 3e c8 da 69 3e fe ac e8 3d 7e 71 24 bf
       0.26200426 0.22837365 0.11361121 -0.64235675
0001b0 af 22 d3 be 26 ef 3a 3d 32 db 6f 3e 3d 98 89 3e
       -0.412374 0.045638226 0.2342346 0.2687396
0001c0 da 9b d7 be b7 9c 41 bf 02 22 91 3d 12 b1 e0 bd
       -0.42111093 -0.7562975 0.070865646 -0.109712735
0001d0 d0 af 1f bd d8 f0 cd 3e 51 cb a4 3d 7f 46 1c 3f
       -0.038986027 0.40222812 0.08046592 0.6104507
0001e0 4b 36 8f 3e a3 7c 1b bd 81 05 85 bd 15 32 9a 3e
       0.2797111 -0.03796066 -0.064951904 0.30116335
0001f0 07 e0 92 3e 40 83 06 3d 1c 21 1a 3e 4d 34 a8 3c
       0.28686544 0.032840014 0.15051693 0.020532751
000200 65 47 66 3d 72 78 27 3e 01 10 fe bc 29 99 84 bc
       0.05622043 0.1635454 -0.03101349 -0.016186314
000210 79 0d 46 3f ea 0e 9a 3e b2 5b 1a 3e 0e a5 1e 3f
       0.7736431 0.30089504 0.15074041 0.61970603
000220 03 a4 ed 3e 33 e8 de bb 06 91 84 bd 82 53 0f bf
       0.46414194 -0.0068025826 -0.064729735 -0.559868
000230 9b a1 a7 be 99 17 06 bf 81 73 48 be 28 ab 0f be
       -0.32740483 -0.5237976 -0.19575311 -0.14030135
000240 8d e6 a8 be b9 ba 5f be eb 84 34 3f 53 2d c5 3d
       -0.32988396 -0.21848573 0.70515317 0.096277855
000250 83 21 3c be cc 4d b1 be bf 37 4d be fb 55 08 bf
       -0.18372159 -0.34629667 -0.20040797 -0.53256196
000260 d0 3b 85 bc 4c 0e 59 3c 9d ca 91 3f aa da 80 bd
       -0.016263872 0.013248038 1.1389958 -0.06291707
000270 01 d5 cc 3f af b0 84 3e 51 29 02 bf c4 94 83 3e
       1.6002504 0.2591605 -0.50844294 0.25699437
000280 03 f1 d3 bd 94 05 9b be 5a cd 5c 3d 1a 04 00 3f
       -0.10348704 -0.30277693 0.053906776 0.5000626
000290 06 0c 84 be 45 dd f4 bd f9 86 b3 be ca a3 21 3e
       -0.25790423 -0.11956266 -0.35063913 0.15785137
0002a0 e4 2d 99 bc be d5 b7 be 67 71 28 3f b7 84 fc bd
       -0.01869864 -0.3590526 0.6579804 -0.12330001
0002b0 9c f7 df bb 21 47 ae 3e 7e 7f 8e 3e 6d 72 4b bf
       -0.0068349373 0.34038642 0.27831644 -0.79471475
0002c0 2d dc 91 be 7c 24 9c 3e 42 90 7b be 14 91 00 3f
       -0.28488293 0.30496585 -0.24566749 0.5022137
0002d0 6c e2 b0 3e 5e 7e 0f be 3e 5f 80 3e 5f cc 83 3e
       0.34547746 -0.14013049 0.25072664 0.2574186
0002e0 77 c8 50 bc 51 d0 3c 3f fd 5a 23 3f b8 b1 e1 3b
       -0.012743107 0.73755366 0.6381071 0.006887641
0002f0 14 c6 46 3f af 38 c4 be c7 50 61 3f d7 db 26 3e
       0.77645993 -0.38324496 0.8801388 0.162948
000300 93 ef 39 3e cc 0d 3f 3f 1d 90 de 3e e5 3a 7d 3e
       0.18157797 0.7463043 0.43469325 0.24729498
000310 c6 e7 cd be 1a b1 26 3e 32 f0 0f 3e bc a1 91 be
       -0.40215892 0.16278496 0.14056471 -0.28443706

temporal_extractor.LSTM.lstm.weight_ih_l1 f4 [200, 50]
000000 ee c1 7c bd a0 c7 5c bc c2 11 b0 3d 57 45 04 3e
       -0.061708383 -0.013475329 0.08597137 0.12917076
000010 a0 51 c7 bd c8 bd 08 be 8c bc dd bd 30 43 ad 3c
       -0.097323656 -0.13353646 -0.10826978 0.021150202
000020 c0 b5 05 3c 4a e4 75 bd 24 ed cb 3d 88 72 ce 3d
       0.008161008 -0.060032167 0.0995734 0.10080439
000030 00 e8 30 bc ca 8c ec 3d 96 db 96 bd 15 fc 0c 3e
       -0.010797501 0.11550291 -0.073661014 0.13768037
000040 ec 15 19 3d 68 8c b4 bd 9c e5 3f 3d f4 4f 62 3d
       0.037374422 -0.08815843 0.046849832 0.05525203
000050 85 f0 dc bd b0 4d e3 bc 91 2f c8 bd d0 ca 9e bd
       -0.10788063 -0.027747005 -0.097746976 -0.07753527
000060 10 ed 4f 3c 98 43 0a be 2a 9a 84 bd e0 b2 31 bc
       0.012690797 -0.13502347 -0.06474717 -0.01084587
000070 80 62 5d 3d 98 3c c3 3d c0 fc b9 bc ce 12 a1 3d
       0.054049015 0.09533042 -0.022703528 0.07864915
000080 fe 74 bb 3d 44 f1 ad 3d 06 05 ac bd 62 39 ec 3d
       0.09153174 0.084932834 -0.08399396 0.115343824
000090 c8 9a 23 3d 3e 09 48 bd 3a 3d e2 3d 82 a1 a6 3d
       0.039942533 -0.04883694 0.11046834 0.08136274
0000a0 ac 8b 2e bd c0 dc 2a 3c 80 4d 70 3c 9c 8e 5f 3d
       -0.04261367 0.010428607 0.014666915 0.054579362
0000b0 f0 98 ce 3c 80 2d d3 3c 48 b3 aa 3c 88 ac 08 bd
       0.02521941 0.025778532 0.020837441 -0.033367664
0000c0 48 12 46 3d 70 18 4a bc c2 38 06 bd e0 5f c2 bb
       0.048357278 -0.012334928 -0.032768972 -0.0059318393
0000d0 cd 76 07 3e 00 d1 83 3a 60 e3 b6 3d 58 0e f9 bd
       0.13228913 0.0010056794 0.08930087 -0.12160939
0000e0 78 8b 4e 3d 76 b7 d9 3d b8 54 8f 3d d0 c4 0e bd
       0.050425977 0.106306955 0.06998581 -0.034855664
0000f0 f6 53 2f bd 00 3f 5c bb 80 0c d5 3a b0 0b 22 3c
       -0.04280468 -0.0033606887 0.0016254336 0.009890482
000100 e0 b2 37 3d 1a 8b ae 3d 50 c0 97 3d 8c f5 e1 bc
       0.044848323 0.08522625 0.074097276 -0.027582906
000110 98 b6 61 3d 1f cb 03 3e 5b e3 02 3e d0 4c 71 3d
       0.055105776 0.12870453 0.12782042 0.058911145
000120 a4 98 5e 3d 7c 24 bd bd 50 08 cc bc d6 16 be 3d
       0.05434479 -0.092354745 -0.024906307 0.09281699
000130 40 cd 8f bc 18 c9 9a 3d 35 57 0c be c6 a7 32 bd
       -0.017553926 0.07557887 -0.13705142 -0.043617032
000140 83 5b b3 bd d8 1d 1d bd 04 b7 a1 bc dc ae bb 3d
       -0.08757689 -0.03835854 -0.019740589 0.09164211
000150 a8 70 65 3d b8 27 39 3d 90 a7 dc 3d 07 05 fb bd
       0.05601564 0.045203894 0.107741475 -0.12256818
000160 40 27 aa 3b ba 67 eb bd 1a ad b9 bd 6a c0 f4 3d
       0.0051926672 -0.11494394 -0.0906622 0.119507626
000170 b0 71 b8 bc 00 f2 3b 3c 86 ca e9 3d be 7d c4 3d
       -0.022515148 0.0114712715 0.114155814 0.09594296
000180 b8 5b 2d 3d ba 1c 99 bd 50 b4 ce bd 44 92 bc 3d
       0.042323798 -0.07476182 -0.10092986 0.092075855
000190 60 ad 4f 3d 81 78 07 be f8 5e 92 bd f8 d3 9f 3d
       0.050702453 -0.13229562 -0.0714702 0.07804102
0001a0 cc 83 85 3d b0 4f 69 bd c0 52 e3 bd 28 da 55 3d
       0.06519279 -0.05696076 -0.11099768 0.052210003
0001b0 8b 1b f8 bd 44 dc 37 bd 66 33 be 3d 1e d8 24 bd
       -0.121146284 -0.044887796 0.09287147 -0.040245168
0001c0 0c 72 78 3d fe c6 f2 bd 0e 0d ec 3d 41 5c e0 bd
       0.06065564 -0.11854361 0.115259275 -0.10955096
0001d0 70 ff 5a bd bb b3 96 bd 10 b4 46 bd f0 09 77 bc
       -0.05346626 -0.073584996 -0.048511565 -0.015078053
0001e0 78 12 08 be 36 94 ad bd fc a0 5c bd b2 59 2e bd
       -0.13288295 -0.084755346 -0.053864464 -0.04256601
0001f0 00 5e 50 bb cb 69 01 be b0 8a 73 bc 90 7c 33 3c
       -0.003179431 -0.12638013 -0.014864609 0.010954991
000200 b5 15 02 3e 7e 91 a3 3d 10 90 46 3c 31 46 94 bd
       0.12703593 0.07986735 0.012119308 -0.072399504
000210 80 db 17 bc dc eb 0c 3d d8 2e ae bd 60 80 40 3d
       -0.0092686415 0.03440462 -0.085050285 0.046997428
000220 4a 91 f1 3d 98 e5 64 3d c1 ae 8b bd 0c 97 a4 bd
       0.1179529 0.05588302 -0.06820441 -0.080366224
000230 06 80 c0 3d ac 38 2d 3d 26 79 d7 bd 3a a5 cd 3d
       0.093994185 0.042290375 -0.10521154 0.1004128
000240 5f 87 01 3e 4c fc 02 3d c5 f5 9b bd 3c a9 33 3d
       0.12649296 0.03197889 -0.07615236 0.043862566
000250 f9 78 fd bd 68 4f f3 bd 10 88 af 3c 04 5c 18 3d
       -0.12376589 -0.1188038 0.021427184 0.037197128
000260 6d 21 0b be ac 6c a6 bd ca 4f ef 3d 00 e0 ea b7
       -0.1358697 -0.08126196 0.116851404 -2.7999282e-05
000270 ab cc 0b 3e c0 74 c3 3d ec e1 e9 bc c4 9d 89 3d
       0.13652293 0.09543753 -0.02855011 0.067195445
000280 6a f3 f2 3d c4 c9 79 3d 60 d4 a5 3d 5a a0 c9 3d
       0.11862834 0.060983434 0.08097148 0.09845038
000290 02 4f 90 3d 8c 58 b7 bd 50 b0 d3 bc 10 46 0e bc
       0.070463195 -0.08952436 -0.025840908 -0.008683696
0002a0 2c 0c 94 3d d8 59 ba bd bc e4 ed bd 15 17 07 3e
       0.07228884 -0.090991676 -0.11615893 0.13192399
0002b0 f8 79 e0 bc de 81 f1 bd 94 ed dc bc c8 57 4a 3d
       -0.02740191 -0.11792348 -0.026968755 0.04940012
0002c0 80 71 bc 3a 50 01 f8 bc 0c c2 6a 3d 04 90 5a bd
       0.0014377087 -0.030274063 0.057313964 -0.05336
0002d0 fa 96 ca 3d 84 00 a0 bd 3c 86 52 bd 88 33 1d 3d
       0.09892078 -0.07812598 -0.051397547 0.038379222
0002e0 20 f5 4e 3d 4c 39 5a 3d 8f 64 0a 3e 82 10 ff bd
       0.05052674 0.0532773 0.13514923 -0.124543205
0002f0 0e a3 f9 3d 34 1c 07 3d 70 0a 20 3d d2 39 a9 3d
       0.12189303 0.03298588 0.039072454 0.082629815
000300 bc eb c4 bc 51 cd 01 3e 18 bc a7 3c 6b 6b 0e 3e
       -0.024038188 0.12675978 0.020475432 0.13908164
000310 cc e7 15 3d 2c 3e e6 bd 17 8e 0a 3e a0 05 b6 bc
       0.03659801 -0.11242327 0.13530765 -0.02221948
000320 32 c0 da 3d 2c 6a 09 be 0e 77 3d bd ec 3b 73 3d
       0.106811896 -0.13419408 -0.046256118 0.059383318
000330 5c a4 48 3d f2 03 e6 3d 70 2e 66 3c f0 2f 2a 3d
       0.04898487 0.11231221 0.0140491575 0.041549623
000340 e0 e7 cc bb 16 5c 8a 3d 84 e2 3f bd e9 a3 b4 bd
       -0.0062532276 0.06755845 -0.04684688 -0.08820326
000350 86 9f ff 3d 05 c0 ea bd 30 58 2c 3c be 90 9c 3d
       0.124815986 -0.11462406 0.010519072 0.07644795
000360 26 f9 fd 3d c4 fe 48 bd 0a dd 9c bd 0d 45 cb bd
       0.12401037 -0.04907109 -0.07659347 -0.0992528
000370 2c ef 48 3d 06 a6 a8 3d 66 d2 1a bd 48 4f fb bd
       0.049056217 0.082347915 -0.037798308 -0.12270981
000380 60 00 02 bd d0 a0 11 bd e0 51 96 3c aa a0 f4 3d
       -0.03173864 -0.035553753 0.018349588 0.11944707
000390 08 3a bf 3c 34 66 1b bd 47 d2 09 3e e3 1e c8 bd
       0.023343101 -0.037939265 0.1345912 -0.09771516
0003a0 97 9c 0a 3e 3a 91 b9 3d d3 cb cd bd 2d 09 c1 bd
       0.13536297 0.09060903 -0.10048642 -0.09425578
0003b0 80 47 f8 bd 9e cd e0 3d 00 6a 6a 3b 3a 8e 82 3d
       -0.121230125 0.10976718 0.0035768747 0.06374784
0003c0 92 2b b4 bd e0 dd 0b bd 5c 41 38 bd c0 0c cf bb
       -0.08797373 -0.034147143 -0.044984207 -0.0063186586
0003d0 80 5c 1f bc 56 d0 bd 3d 00 11 b1 3a 46 0e ef bd
       -0.009726644 0.092682526 0.0013509095 -0.11672644
0003e0 85 0f e6 bd 88 1c 40 bd c0 df cd bc 1c 2c 25 3d
       -0.11233429 -0.04690221 -0.025131106 0.04032527
0003f0 ed 1f c2 bd 14 00 4d 3d ec 37 ab bc 88 13 32 3d
       -0.094787456 0.050048903 -0.020900689 0.043475658
