logs/ckpt/epoch=21-step=594.ckpt (torch, 204767 bytes, 45 tensors)

feature_extractor.Conv1D_1.conv_1.weight f4 [14, 14, 5]
-0.38772467 -0.4488485 -0.623126 -0.52448815 -0.69157535 -0.26537874 -0.46264002 -0.7264833
-0.7315824 -0.6401362 -0.6343016 -0.7781993 -0.88090295 -0.99366504 -1.1422732 -0.6059415
-0.32813457 -0.34876102 -0.124355294 0.04303859 3.5399303 3.4797766 3.546348 3.239296
3.443478 2.0006382 2.0479157 1.9449157 1.8341583 1.6628579 0.52822924 0.24428585
0.19817783 0.08005455 -0.24993649 -0.597667 -0.35947204 -0.40511385 -0.46367812 0.029834386
3.3831942 3.3392246 3.3154464 3.2847774 3.39298 1.6543244 1.7353165 1.709189
1.5590286 1.6328102 -0.5913973 -0.8073948 -0.68731886 -0.8853638 -1.066071 -1.3288349
-1.2465509 -1.3367821 -1.4426073 -1.260561 1.441367 1.2050563 1.4444413 1.5887234
1.4228812 0.7989565 1.0697864 1.1340013 1.1884739 1.15884 -0.4295157 -0.51775426
-0.6821779 -0.63421106 -0.951708 -0.31157506 -0.48722908 -0.41768482 -0.7264257 -0.6246264
-0.77049345 -0.7426702 -0.72945803 -1.0183108 -1.066568 -0.79718095 -0.483529 -0.14596449
-0.17610632 -0.009816816 3.4535625 3.5241828 3.5011723 3.3552234 3.4320056 2.1034243
2.0186467 1.9359354 1.9481632 1.7327112 0.36204973 0.3145681 0.2118361 0.08880382
0.105783835 -0.77286094 -0.40220436 -0.4558202 -0.49910814 -0.05660973 3.4243731 3.4502144
3.3034854 3.0834224 3.3845038 1.8162335 1.6793469 1.6437585 1.5911852 1.4653738
-0.7472246 -0.78650546 -0.8807233 -0.8907097 -0.84978503 -1.1301423 -1.3292834 -1.441874
-1.4123911 -1.3336427 1.403506 1.5134522 1.6158682 1.5399516 1.5827212 0.9658853
1.101497 1.1270941 1.2300211 1.2419544 -0.31801808 -0.41409725 -0.63454515 -0.6012992
-0.7093112 -0.36430103 -0.5551441 -0.5576919 -0.50917166 -0.7186851 -0.6505358 -0.79875517
-0.8661373 -0.95858556 -1.0548431 -0.6844004 -0.28167582 -0.42380762 -0.1934616 0.013857212
3.525681 3.54611 3.4301114 3.2601619 3.399466 2.1210477 1.9480095 2.0737023
1.8091278 1.8094844 0.31983104 0.11069852 0.027279286 0.055833694 -0.08213137 -0.54281694
-0.60892993 -0.2391394 -0.33436358 -0.14196205 3.3251297 3.4455051 3.3892176 3.2380757
3.4608557 1.7400181 1.7135485 1.5638636 1.6118068 1.4874789 -0.76721525 -0.55541295
-0.8167657 -0.722837 -0.9659672 -1.2222186 -1.1981328 -1.4405386 -1.3967979 -1.4422925
1.4973385 1.4377496 1.563312 1.4155487 1.6074576 0.946148 1.1536164 1.0238606
1.1686804 1.2497256 -8.343586 -8.4774885 -8.325779 -8.376995 -8.240641 -8.592913
-8.398535 -8.387657 -8.318677 -8.583096 -8.413568 -8.435196 -8.444734 -8.38517
-8.415647 8.48656 8.342884 8.51509 8.329029 8.495063 -8.576754 -8.554262
-8.562529 -8.447108 -8.511633 -8.405223 -8.408755 -8.459305 -8.541202 -8.381163
-8.48349 -8.538111 -8.399149 -8.484251 -8.339199 8.516236 8.362215 8.527232
8.457656 8.514297 -8.661109 -8.594027 -8.470803 -8.529585 -8.383968 -8.438112
00000000: d983 c6be 78cf e5be 2f85 1fbf db44 06bf
00000010: 150b 31bf b9df 87be 27df ecbe cffa 39bf
00000020: fc48 3bbf f7df 23bf 9761 22bf 1238 47bf
00000030: db82 61bf d560 7ebf 0236 92bf fb1e 1bbf
00000040: 4101 a8be ce90 b2be fdad febd 3c49 303d
00000050: 388e 6240 a9b4 5e40 5ef7 6240 a050 4f40
00000060: f261 5c40 750a 0040 0d11 0340 fff2 f83f
00000070: b3c5 ea3f 87d8 d43f 083a 073f 1226 7a3e
00000080: 21ef 4a3e a4f3 a33d 5aef 7fbe b400 19bf
00000090: b80c b8be 156b cfbe 3867 edbe 3e67 f43c
000000a0: 4186 5840 dbb5 5540 4630 5440 cb39 5240
000000b0: 9626 5940 e7c0 d33f da1e de3f b5c6 da3f
000000c0: 408e c73f edff d03f d065 17bf 6db1 4ebf
000000d0: 21f4 2fbf 34a7 62bf 0475 88bf 4317 aabf
000000e0: fb8e 9fbf ad1b abbf 5ba7 b8bf 105a a1bf
000000f0: b77e b83f 493f 9a3f 74e3 b83f 4a5b cb3f
00000100: f920 b63f 6a88 4c3f c3ee 883f f426 913f
00000110: ea1f 983f de54 943f 7be9 dbbe 8b8b 04bf
00000120: 36a3 2ebf a85b 22bf 23a3 73bf c486 9fbe
00000130: 1776 f9be c9da d5be 09f7 39bf 84e7 1fbf
00000140: 0f3f 45bf a21f 3ebf c3bd 3abf 0258 82bf
00000150: 4d85 88bf 0d14 4cbf 1d91 f7be b777 15be
00000160: 3755 34be b6d6 20bc 2b07 5d40 368c 6140
00000170: 3513 6040 fbbb 5640 fba5 5b40 819e 0640
00000180: 8231 0140 bbcc f73f 695d f93f 7bc9 dd3f
00000190: 955e b93e 120f a13e 90eb 583e c7de b53d
000001a0: 32a5 d83d 37da 45bf bbed cdbe 4461 e9be
000001b0: 1a8b ffbe 9bdf 67bd ee28 5b40 50d0 5c40
000001c0: 4e6c 5340 cb56 4540 b69b 5840 577a e83f
000001d0: d7f4 d63f ae66 d23f f5ab cb3f 5e91 bb3f
000001e0: 1d4a 3fbf 6c58 49bf 1577 61bf 8d05 64bf
000001f0: 838b 59bf 81a8 90bf f525 aabf 548f b8bf
00000200: 3bc9 b4bf ceb4 aabf 16a6 b33f cdb8 c13f
00000210: c5d4 ce3f 221d c53f 9c96 ca3f 4244 773f
00000220: dbfd 8c3f 9f44 903f 5571 9d3f 5df8 9e3f
00000230: 44d3 a2be 8e04 d4be 8d71 22bf bfee 19bf
00000240: 6b95 35bf aa85 babe ec1d 0ebf e5c4 0ebf
00000250: 1359 02bf bffb 37bf 8489 26bf 387b 4cbf
00000260: 2dbb 5dbf dd65 75bf 1905 87bf dd34 2fbf
00000270: d037 90be 50fd d8be cc1a 46be 5c09 633c
00000280: c2a4 6140 77f3 6240 f286 5b40 7ea6 5040
00000290: da90 5940 3fbf 0740 6058 f93f 8ab7 0440
000002a0: 8091 e73f 2f9d e73f e5c0 a33e e8b5 e23d
000002b0: cf78 df3c dfb1 643d 7e34 a8bd 0df6 0abf
000002c0: d5e2 1bbf f5e0 74be b431 abbe 805e 11be
000002d0: edce 5440 2883 5c40 f1e8 5840 a23c 4f40
000002e0: a97e 5d40 eab8 de3f 8f55 db3f af2c c83f
000002f0: af4f ce3f b565 be3f 3868 44bf 8b2f 0ebf
00000300: 8f17 51bf d80b 39bf a049 77bf a971 9cbf
00000310: 6a5c 99bf 9263 b8bf 46ca b2bf 0a9d b8bf
00000320: caa8 bf3f 2e08 b83f 9c1a c83f b330 b53f
00000330: 2cc1 cd3f c136 723f b4a9 933f dd0d 833f
00000340: 5297 953f 02f7 9f3f 547f 05c1 cba3 07c1
00000350: 6436 05c1 2c08 06c1 aad9 03c1 927c 09c1
00000360: 6660 06c1 d833 06c1 4d19 05c1 5c54 09c1
00000370: f99d 06c1 90f6 06c1 a11d 07c1 a829 06c1
00000380: 7da6 06c1 f3c8 0741 747c 0541 cf3d 0841
00000390: b443 0541 c7eb 0741 623a 09c1 42de 08c1
000003a0: 1e00 09c1 5b27 07c1 a62f 08c1 cb7b 06c1
000003b0: 438a 06c1 5059 07c1 c3a8 08c1 3e19 06c1
000003c0: 60bc 07c1 1a9c 08c1 ea62 06c1 7ebf 07c1
000003d0: 5c6d 05c1 8142 0841 a2cb 0541 8b6f 0841
000003e0: 8f52 0741 8f3a 0841 e793 0ac1 2281 09c1
000003f0: 6988 07c1 2e79 08c1 bc24 06c1 8202 07c1

feature_extractor.Conv1D_1.conv_1.bias f4 [14]
-4.3099303 -4.178373 -4.239943 8.471073 8.494474 -4.209722 8.437377 -4.3260045
-4.2497826 8.432312 8.382031 8.311199 -4.104661 -4.0692577
00000000: f3ea 89c0 3bb5 85c0 9dad 87c0 8489 0741
00000010: 5ee9 0741 0bb6 86c0 7fff 0641 a16e 8ac0
00000020: 38fe 87c0 c0ea 0641 cd1c 0641 acfa 0441
00000030: 6259 83c0 5c37 82c0

feature_extractor.Conv1D_2.conv_1.weight f4 [28, 14, 3]
4.9165454 4.6672506 4.729405 4.625351 4.8406425 4.8569317 4.889937 4.8522387
4.847472 -4.065824 -3.6492667 -3.6723223 -4.1015296 -3.9391356 -3.9240625 4.6961265
4.814078 4.777834 -4.0181785 -3.89811 -3.9975476 4.87203 4.9442925 4.8162007
4.606192 4.7778163 4.773355 -3.9477139 -3.9168293 -3.8661437 -3.9526198 -3.828102
-3.6331208 -3.9868176 -3.816685 -3.958261 4.6952853 4.5808015 4.7541857 4.931745
4.7348433 4.7112107 -7.343935 -7.1834016 -7.3112416 -7.0967746 -7.2532454 -7.3753257
-7.3146844 -7.411336 -7.187593 6.8140707 7.0131555 6.8170905 6.9374304 7.1147094
6.9906964 -7.205018 -7.153577 -7.1313663 6.900295 7.1400065 6.95349 -7.190531
-7.326783 -7.2259617 -7.297546 -7.2969084 -7.3354936 7.1061006 7.005846 6.699388
7.061656 7.038123 7.0167475 7.036233 6.902287 6.9363933 -7.181232 -7.2590356
-7.141048 -7.2491055 -7.2208824 -7.1570754 8.012844 8.107608 7.9710207 7.959204
7.9625907 7.93405 8.1022415 8.179019 8.212483 -7.93965 -8.045141 -7.794429
-8.074456 -7.93809 -8.059728 7.9765987 8.163522 8.024569 -8.080845 -8.032676
-8.046907 8.079684 8.077787 8.109327 8.255412 8.1104 8.071019 -7.9107366
-7.6571712 -7.784959 -7.9581885 -8.025585 -7.8899574 -8.084347 -8.150906 -7.94757
8.002392 8.090924 8.069244 7.961214 7.9125123 8.22639 -8.220886 -8.166907
-8.240636 -7.9811425 -7.987473 -8.053404 -8.0083065 -8.084128 -8.226321 7.5944557
7.691123 7.5392947 7.791104 7.85326 7.7692323 -8.131755 -8.150857 -8.114432
7.812967 7.690209 7.744218 -8.190781 -8.137941 -8.109775 -8.241991 -8.040043
-7.999934 7.782383 7.641269 7.703549 7.6225147 7.6147223 7.560457 7.7961845
7.629624 7.578518 -8.153539 -8.051432 -7.9943132 -8.006613 -8.155573 -8.239074
7.219816 7.104586 7.147682 7.193551 7.330422 7.3112745 7.3991566 7.3720627
7.3192754 -7.077064 -7.0422883 -7.1520514 -7.2130327 -7.283071 -7.374733 7.2198806
7.2905164 7.311071 -7.3377113 -7.2053285 -7.2551084 7.2209263 7.29751 7.27719
7.315348 7.30142 7.3052816 -7.0720615 -7.035094 -7.0462117 -7.1021013 -7.342253
-7.1210504 -7.3637276 -7.1317763 -7.3620186 7.013897 7.2285814 7.19748 7.2942414
7.378681 7.1827083 -8.102902 -8.080437 -8.233166 -8.141289 -7.8458586 -8.207261
-8.14602 -8.007787 -8.145784 8.166981 8.25073 8.061121 8.275035 8.236708
8.092005 -8.096514 -7.8634834 -8.12635 8.351844 8.341577 8.346657 -8.023535
-8.23829 -8.000804 -8.016197 -7.911321 -7.9081216 8.06557 7.99976 8.1582775
8.019854 8.265655 8.103574 8.35014 8.377152 8.198863 -8.15868 -7.9596834
-8.0363655 -8.194246 -7.991748 -7.910106 8.044358 8.179992 8.12579 8.052199
00000000: 5754 9d40 1e5a 9540 4957 9740 e002 9440
00000010: 8be6 9a40 fc6b 9b40 5d7a 9c40 8a45 9b40
00000020: 7e1e 9b40 3b1b 82c0 968d 69c0 5407 6bc0
00000030: bb3f 83c0 cc1a 7cc0 d723 7bc0 ab46 9640
00000040: ed0c 9a40 04e4 9840 eb94 80c0 a27a 79c0
00000050: d2d7 7fc0 abe7 9b40 a537 9e40 511e 9a40
00000060: ed65 9340 dfe3 9840 53bf 9840 58a7 7cc0
00000070: 55ad 7ac0 e66e 77c0 b9f7 7cc0 a0ff 74c0
00000080: 0d85 68c0 0528 7fc0 9144 74c0 2654 7dc0
00000090: c73f 9640 ed95 9240 4a22 9840 dbd0 9d40
000000a0: d683 9740 3dc2 9640 8401 ebc0 6dde e5c0
000000b0: b1f5 e9c0 c718 e3c0 961a e8c0 ab02 ecc0
000000c0: e511 eac0 aa29 edc0 c300 e6c0 de0c da40
000000d0: c56b e040 9b25 da40 6eff dd40 b3ab e340
000000e0: c9b3 df40 828f e6c0 1aea e4c0 2734 e4c0
000000f0: 37cf dc40 ef7a e440 fd82 de40 d418 e6c0
00000100: 0275 eac0 143b e7c0 7f85 e9c0 4680 e9c0
00000110: 5dbc eac0 2d65 e340 e42f e040 6361 d640
00000120: 16f9 e140 4e38 e140 3289 e040 d228 e140
00000130: 89df dc40 eff6 dd40 a7cc e5c0 054a e8c0
00000140: 7783 e4c0 acf8 e7c0 7811 e7c0 c306 e5c0
00000150: 9c34 0041 c3b8 0141 9a12 ff40 cdb1 fe40
00000160: 8bcd fe40 bde3 fd40 c8a2 0141 43dd 0241
00000170: 5566 0341 9d11 fec0 e6b8 00c1 f66b f9c0
00000180: f930 01c1 d504 fec0 a5f4 00c1 4c40 ff40
00000190: c99d 0241 a264 0041 244b 01c1 d785 00c1
000001a0: 22c0 00c1 6346 0141 9e3e 0141 cebf 0141
000001b0: 2b16 0441 33c4 0141 e522 0141 c124 fdc0
000001c0: 8c07 f5c0 621e f9c0 7ba9 fec0 cc68 00c1
000001d0: 887a fcc0 7c59 01c1 1c6a 02c1 7e52 fec0
000001e0: cc09 0041 6d74 0141 a01b 0141 44c2 fe40
000001f0: 4d33 fd40 4b9f 0341 c088 03c1 a7ab 02c1
00000200: a5d9 03c1 8565 ffc0 6199 ffc0 beda 00c1
00000210: 0622 00c1 9758 01c1 039f 03c1 c805 f340
00000220: ae1d f640 e741 f140 b950 f940 e84d fb40
00000230: 8d9d f840 ab1b 02c1 e969 02c1 b7d4 01c1
00000240: d303 fa40 3116 f640 a2d0 f740 700d 03c1
00000250: 0235 02c1 a3c1 01c1 32df 03c1 04a4 00c1
00000260: 76ff ffc0 4809 f940 4785 f440 7983 f640
00000270: a4eb f340 ceab f340 44ef f140 587a f940
00000280: e125 f440 3883 f240 e574 02c1 aad2 00c1
00000290: 6ad1 ffc0 161b 00c1 3a7d 02c1 3fd3 03c1
000002a0: bc08 e740 c558 e340 d0b9 e440 9231 e640
000002b0: d192 ea40 f6f5 e940 e4c5 ec40 f0e7 eb40
000002c0: 8137 ea40 4f77 e2c0 6d5a e1c0 9bdd e4c0
000002d0: 2ad1 e6c0 eb0e e9c0 d0fd ebc0 4309 e740
000002e0: e94b e940 4bf4 e940 88ce eac0 0d92 e6c0
000002f0: d929 e8c0 d411 e740 3485 e940 bede e840
00000300: 5517 ea40 3ca5 e940 dec4 e940 544e e2c0
00000310: 7d1f e1c0 917a e1c0 6a44 e3c0 bdf3 eac0
00000320: a5df e3c0 a8a3 ebc0 8337 e4c0 a895 ebc0
00000330: d871 e040 8a50 e740 c251 e640 6d6a e940
00000340: 281e ec40 bfd8 e540 7da5 01c1 7849 01c1
00000350: 0cbb 03c1 b842 02c1 4611 fbc0 f150 03c1
00000360: 1956 02c1 e51f 00c1 2255 02c1 f4ab 0241
00000370: fd02 0441 5afa 0041 8b66 0441 8ec9 0341
00000380: da78 0141 528b 01c1 a8a1 fbc0 8805 02c1
00000390: 27a1 0541 1977 0541 e88b 0541 6660 00c1
000003a0: 09d0 03c1 4b03 00c1 5842 00c1 8b29 fdc0
000003b0: 550f fdc0 930c 0141 09fe ff40 4e88 0241
000003c0: 5251 0041 1f40 0441 3da8 0141 2c9a 0541
000003d0: d108 0641 8b2e 0341 f489 02c1 bab5 fec0
000003e0: f494 00c1 a21b 03c1 66bc ffc0 971f fdc0
000003f0: b1b5 0041 3fe1 0241 3c03 0241 cfd5 0041

feature_extractor.Conv1D_2.conv_1.bias f4 [28]
-4.781392 7.420391 -7.9664254 8.168074 -7.2322917 8.07985 -8.090557 -6.4289384
-5.159304 6.5762043 5.328459 -2.0583045 5.478545 -6.240199 6.142818 -6.935477
6.964709 -5.4119124 4.561496 -7.1255145 6.950059 -6.3020635 7.0076256 -7.0936494
-7.1193733 8.03449 -7.983286 6.469869
00000000: 2a01 99c0 d873 ed40 f5ec fec0 6eb0 0241
00000010: ef6e e7c0 1147 0141 ec72 01c1 ddb9 cdc0
00000020: 0519 a5c0 4470 d240 bc82 aa40 43bb 03c0
00000030: 3e50 af40 b6af c7c0 f791 c440 6def ddc0
00000040: e5de de40 632e adc0 c6f7 9140 3704 e4c0
00000050: e266 de40 81aa c9c0 783e e040 2dff e2c0
00000060: e8d1 e3c0 458d 0041 1477 ffc0 2b09 cf40

temporal_extractor.LSTM.lstm.weight_ih_l0 f4 [200, 5]
0.2527173 0.31281656 0.091188036 0.11868826 0.27263698 0.9801072 0.7192947 0.22898948
0.006593466 -0.2192305 0.21461062 0.21104611 0.25595686 0.1436154 0.2178436 0.30139202
0.13524213 0.18522066 0.14405471 0.37597206 0.19057631 0.25924376 0.11223382 0.028745957
0.16259916 1.1588392 0.69146705 0.17181844 -0.14925347 -0.40283024 0.24826619 0.07359694
0.09427593 0.27430567 0.06312523 0.057818532 -0.0009985929 -0.00454959 0.0048876046 -0.05228357
0.14800732 0.347677 0.09285531 0.12562643 0.2785533 -0.056200262 -0.13414487 -0.1517737
-0.1488813 -0.12821132 0.18220364 0.009242006 0.1915236 0.13342759 0.22975239 0.39828438
0.24176745 0.2808284 0.35131702 0.17747404 -0.064236976 0.08758121 0.14392559 0.17573994
-0.007500611 0.3138938 0.36885774 0.14776441 0.15811132 0.16731372 0.24400648 0.322129
0.06537108 0.30385065 0.22381452 0.127721 0.09548712 -0.068420045 0.15007243 -0.021271246
0.21754564 0.04851148 0.25191596 0.13606818 0.1348566 0.14473006 0.17211549 0.15151486
0.26782727 0.14311425 0.21205753 0.25641397 0.10754955 0.21374202 0.27930108 0.12594728
0.018577242 0.10155812 0.14596133 0.07330716 0.31500882 0.09979882 0.30013493 0.2865066
0.103350095 0.03149122 0.03857477 0.24646974 0.15429217 0.103808545 0.28035334 0.19289696
0.19539256 0.06946354 0.25652996 0.15989174 0.047403485 0.23149839 0.17404817 0.06342812
0.284211 0.23305482 0.01630682 0.018345326 0.24272302 0.14831875 0.16488954 0.1471698
0.13149816 0.08589366 0.064979725 -0.0047443802 -0.069086194 0.110205665 0.03289647 0.078132406
0.19098587 0.18505517 0.06895181 0.29608762 0.33434716 0.10913186 0.18594599 0.26999846
0.19817315 0.2672227 0.080252685 0.05080749 0.1217889 -0.13378087 0.12478083 0.041096073
0.31650174 0.2688604 0.45142156 0.05241319 0.16037227 0.02894947 0.057467304 0.18892576
0.37281588 0.14765109 0.1890012 0.35126463 0.14948781 0.09096293 0.23669861 -0.009702252
0.041733604 0.19035387 0.21879497 0.1884742 0.2686043 0.25276172 0.14460775 0.40834793
0.18154828 0.2769884 0.11201901 0.30433944 0.36267415 0.38725513 0.2566035 0.19360408
0.41994843 0.12788577 0.21884677 0.037856113 0.19421245 -0.0014280315 0.097674206 0.36443537
0.33180115 0.2942571 0.086417 0.037921134 0.00023609183 0.06579754 0.22275758 0.23583095
0.2414378 0.21182771 0.09425254 0.17350592 0.24956003 0.13238534 0.14897552 0.05562788
0.112194955 0.22314562 0.085896194 0.19099869 0.038037933 0.21358979 0.045510802 0.012774256
0.18033712 0.2074688 0.11521094 0.14362536 0.03019188 0.2316833 -0.029610293 0.12533927
0.03566321 0.13527647 0.16707233 0.12118625 0.024572523 0.03011469 0.17737506 0.09325694
0.093253024 -0.048727546 0.13288608 0.28981707 0.17378037 0.10681998 0.09524584 0.21006945
0.12840794 0.18697177 0.0732374 0.11490617 0.3145583 0.18825747 0.030690748 0.072031915
0.13713449 0.111344285 0.121221416 0.18059123 0.0884339 0.116278745 0.11069488 0.9158122
00000000: 2964 813e 7e29 a03e cbc0 ba3d d512 f33d
00000010: 1397 8b3e 4ee8 7a3f b323 383f 387c 6a3e
00000020: 000e d83b f67d 60be e3c2 5b3e 791c 583e
00000030: c70c 833e ea0f 133e 6512 5f3e 0e50 9a3e
00000040: ea7c 0a3e 7caa 3d3e 1483 133e 697f c03e
00000050: 7026 433e 99bb 843e d8da e53d a47c eb3c
00000060: 6580 263e d854 943f fc03 313f 2cf1 2f3e
00000070: e7d5 18be c43f cebe 7e39 7e3e feb9 963d
00000080: bd13 c13d cb71 8c3e cd47 813d 20d3 6c3d
00000090: 38e3 82ba ba14 95bb 3328 a03b 4c27 56bd
000000a0: 3b8f 173e b802 b23e ed2a be3d 37a4 003e
000000b0: 8a9e 8e3e 3f32 66bd 465d 09be 916a 1bbe
000000c0: 5774 18be d449 03be 9793 3a3e c86b 173c
000000d0: c31e 443e 3ea1 083e 3644 6b3e eeeb cb3e
000000e0: e391 773e bdc8 8f3e d3df b33e c1bb 353e
000000f0: ad8e 83bd c75d b33d 3b61 133e 2cf5 333e
00000100: afc7 f5bb b0b6 a03e ecda bc3e 8e4f 173e
00000110: efe7 213e 4a54 2b3e d6dc 793e 18ee a43e
00000120: 46e1 853d 5092 9b3e a22f 653e 4bc9 023e
00000130: c08e c33d cf1f 8cbd 96ac 193e 0941 aebc
00000140: 49c4 5e3e f9b3 463d 21fb 803e 7555 0b3e
00000150: d917 0a3e 1e34 143e 0b3f 303e b626 1b3e
00000160: a820 893e 8b8c 123e 9c25 593e b148 833e
00000170: f042 dc3d 30df 5a3e 8d00 8f3e 53f8 003e
00000180: 4d2f 983c b4fd cf3d e376 153e 1022 963d
00000190: d648 a13e 5363 cc3d 49ab 993e feb0 923e
000001a0: 37a9 d33d f0fc 003d 9400 1e3d 9062 7c3e
000001b0: c4fe 1d3e 9399 d43d 798a 8f3e c886 453e
000001c0: fd14 483e e742 8e3d e557 833e a9ba 233e
000001d0: 282a 423d ea0d 6d3e af39 323e 9ae6 813d
000001e0: 1b84 913e eca5 6e3e e195 853c f048 963c
000001f0: 628c 783e dfe0 173e ced8 283e aeb3 163e
00000200: 74a7 063e 04e9 af3d 1714 853d bf76 9bbb
00000210: 107d 8dbd 82b3 e13d 73be 063d e203 a03d
00000220: cd91 433e 1a7f 3d3e 9b36 8d3d cc98 973e
00000230: 8d2f ab3e 8680 df3d a068 3e3e 3d3d 8a3e
00000240: e7ed 4a3e 6ad1 883e 855b a43d 841b 503d
00000250: 756c f93d dafd 08be 188d ff3d 5b54 283d
00000260: 840c a23e 12a8 893e ba20 e73e 37af 563d
00000270: a138 243e 7027 ed3c d662 6b3d c175 413e
00000280: b9e1 be3e d931 173e 8889 413e f5d8 b33e
00000290: 5513 193e c64a ba3d 1f61 723e 32f6 1ebc
000002a0: dbf0 2a3d 20ec 423e ca0b 603e 61ff 403e
000002b0: 8186 893e fc69 813e 0e14 143e fb12 d13e
000002c0: cbe7 393e 6cd1 8d3e 396a e53d 61d2 9b3e
000002d0: 6db0 b93e 4e46 c63e 8961 833e 2640 463e
000002e0: 7b03 d73e 7df4 023e 5e19 603e 030f 1b3d
000002f0: a1df 463e c92c bbba 6a09 c83d 4697 ba3e
00000300: d7e1 a93e dea8 963e 65fb b03d 3153 1b3d
00000310: 6b8f 7739 dcc0 863d 901a 643e ab7d 713e
00000320: 783b 773e 5de9 583e 7a07 c13d 89ab 313e
00000330: aa8c 7f3e 0690 073e 0a8d 183e 0fda 633d
00000340: 78c6 e53d 4980 643e 58ea af3d 2995 433e
00000350: aacd 1b3d 48b7 5a3e 8969 3a3d 1d4b 513c
00000360: 4baa 383e b372 543e b7f3 eb3d 8712 133e
00000370: f654 f73c 633e 6d3e 4991 f2bc f058 003e
00000380: 9613 123d ea85 0a3e 0215 2b3e 7f30 f83d
00000390: 514c c93c 15b3 f63c cfa1 353e 7ffd be3d
000003a0: 71fb be3d 8996 47bd 4a13 083e e762 943e
000003b0: 7bf3 313e 6fc4 da3d 4010 c33d 721c 573e
000003c0: 5f7d 033e 8775 3f3e 7dfd 953d ed53 eb3d
000003d0: c90d a13e 91c6 403e 2a6b fb3c 7885 933d
000003e0: fc6c 0c3e 7908 e43d ef42 f83d e8ec 383e
000003f0: d51c b53d 8d23 ee3d ffb3 e23d ab72 6a3f

temporal_extractor.LSTM.lstm.weight_hh_l0 f4 [200, 50]
0.16803478 -0.07237141 0.25496328 0.12584452 -0.13526857 0.045783564 0.05910415 0.139589
-0.0060328846 -0.057151172 0.28378433 -0.28702766 0.04217576 0.25893056 0.15289654 -0.13898073
-0.116383135 0.0967692 0.21139786 -0.036497243 -0.056753445 0.05216426 0.14701493 -0.09343363
0.12359682 0.32094747 -0.015244921 0.19947448 -0.23271316 -0.093659036 -0.32873827 0.011744882
0.1787557 0.2876872 -0.004920361 0.16481745 -0.05994782 -0.26262987 -0.27055237 0.083011
-0.13364916 -0.06895488 -0.2255569 0.1223968 0.125798 -0.026649171 0.28702858 -0.19140317
0.19262604 -0.21887062 0.9385786 -0.63008523 1.0728818 0.76086324 -0.7624346 -0.49106532
0.93354166 0.7428364 -0.774983 -0.06591138 0.7970631 -0.907598 0.9743044 1.0065979
0.87088513 -0.85247725 -0.72140896 1.1338288 1.0696901 -0.8023305 -0.9542032 1.0271205
0.7679919 -0.7820462 1.0811162 1.0359101 0.9499259 1.2326089 -1.07793 -0.763229
-1.0198973 -0.8040353 1.0427374 1.0468289 1.0291855 0.79821193 -0.88979495 -0.8860468
-0.8138284 1.0658641 -0.9739408 -0.88445365 -0.9196776 0.99695134 0.950423 -0.71363086
0.85689044 -0.9822727 0.8649684 -0.99351794 0.067146406 -0.009658691 0.13643493 0.082227565
-0.2321497 0.15576045 0.19697459 0.09172612 -0.098231316 0.012059 0.106875226 -0.23432161
0.059790853 0.07782257 0.08459179 -0.07433858 -0.28104684 0.22913486 0.07478476 -0.11119061
-0.018750051 0.1944803 0.27199525 -0.14548758 0.1495536 0.11623841 0.22575226 0.0678013
-0.17907989 -0.07718443 -0.2360585 -0.26219913 0.18336372 0.14629531 0.0488516 0.07317849
-0.24627505 -0.076315746 -0.06981111 0.09725376 -0.051530037 -0.14815313 -0.073166855 0.23042066
0.24763192 -0.2390219 0.26980767 -0.20427512 0.25282112 -0.20490646 0.037471585 -0.16758427
-0.021229064 0.2943061 -0.034442887 0.05697204 0.12590425 0.08956235 -0.17919758 -0.0136987
0.17511152 -0.2509199 0.1742874 0.03483932 0.30710703 -0.103894524 -0.08340905 -0.058691368
0.22525804 -0.22096935 -0.008444613 0.24628824 0.21995096 -0.09841425 0.09963013 0.020035764
0.066213936 -0.065749526 -0.07742635 -0.16249976 0.01821446 -0.2587587 0.118186325 0.17214294
0.25212967 0.04811345 -0.11822145 -0.055224765 -0.2086269 0.11389296 -0.2915636 -0.058046907
-0.14132129 0.19060417 0.15625896 -0.14872365 0.17681447 -0.16613992 0.060923066 -0.13474752
0.17260692 0.005758991 -0.056904268 0.1437831 -0.04680569 0.056182504 0.07567303 0.16226496
-0.07133029 -0.12190902 0.26087463 -0.1977696 0.17479168 0.26759735 0.04357285 -0.20965497
-0.19737951 -0.032258246 0.13389559 -0.23621099 -0.22582866 0.09087346 0.27868906 0.011530744
0.14367872 0.1245992 0.2112096 -0.02535282 0.0035275915 -0.04919683 -0.14879756 -0.18208663
0.08253895 0.20950927 0.25163668 0.18492012 -0.06839311 -0.20642014 -0.28416133 0.15212955
-0.123140015 -0.04244625 0.00010802828 -0.050907332 0.0073395255 -0.12464111 0.038319662 -0.04603107
0.061524093 0.03294489 1.3293986 -0.9632687 1.5372306 1.1259124 -0.9426894 -0.3143891
00000000: 4f11 2c3e 7637 94bd 8c8a 823e 63dd 003e
00000010: d883 0abe 8c87 3b3d 3117 723d 6bf0 0e3e
00000020: 81af c5bb 5917 6abd 2e4c 913e 4af5 92be
00000030: 7dc0 2c3d 8c92 843e e990 1c3e f750 0ebe
00000040: 485a eebd ee2e c63d ae78 583e 227e 15bd
00000050: 4d76 68bd 31aa 553d 158b 163e 225a bfbd
00000060: 5420 fd3d 3a53 a43e d5c5 79bc 0a43 4c3e
00000070: 5c4c 6ebe 4fd0 bfbd 6250 a8be 9b6d 403c
00000080: bc0b 373e bd4b 933e fb3a a1bb e8c5 283e
00000090: d88b 75bd 6c77 86be d785 8abe ac01 aa3d
000000a0: 53db 08be 3738 8dbd 63f8 66be 2cab fa3d
000000b0: 31d1 003e 5d4f dabc 69f5 923e 31ff 43be
000000c0: c33f 453e 9f1f 60be b046 703f 444d 21bf
000000d0: 3154 893f efc7 423f ea2e 43bf ea6c fbbe
000000e0: 96fc 6e3f 872a 3e3f 4965 46bf 8cfc 86bd
000000f0: 540c 4c3f 5858 68bf 036c 793f 33d8 803f
00000100: 54f2 5e3f f33b 5abf 42ae 38bf 4d21 913f
00000110: 9beb 883f 8865 4dbf a946 74bf af78 833f
00000120: 1e9b 443f 2e34 48bf 0462 8a3f b498 843f
00000130: 582e 733f 21c6 9d3f 9cf9 89bf fa62 43bf
00000140: ff8b 82bf 42d5 4dbf 6b78 853f 7dfe 853f
00000150: 5abc 833f 9e57 4c3f 9ac9 63bf f7d3 62bf
00000160: 0f57 50bf 3c6e 883f 2f54 79bf 8e6b 62bf
00000170: fe6f 6bbf 3438 7f3f ec4e 733f 83b0 36bf
00000180: 2c5d 5b3f 3976 7bbf 926e 5d3f 3157 7ebf
00000190: 0e84 893d 7c3f 1ebc 99b5 0b3e ed66 a83d
000001a0: a7b8 6dbe ab7f 1f3e b5b3 493e e7da bb3d
000001b0: 802d c9bd 1d93 453c 66e1 da3d 01f2 6fbe
000001c0: 41e7 743d 7161 9f3d 763e ad3d d33e 98bd
000001d0: 5fe5 8fbe 54a2 6a3e c128 993d e7b7 e3bd
000001e0: b599 99bc d825 473e f642 8b3e b2fa 14be
000001f0: 9424 193e 670e ee3d 9a2b 673e 68db 8a3d
00000200: b860 37be df12 9ebd 52b9 71be f73e 86be
00000210: b3c3 3b3e 70ce 153e 9e18 483d 9bde 953d
00000220: 872f 7cbe 6e4b 9cbd 21f9 8ebd fb2c c73d
00000230: 2911 53bd 74b5 17be 81d8 95bd 65f3 6b3e
00000240: 3993 7d3e 28c2 74be 3b24 8a3e 7f2d 51be
00000250: c571 813e 00d3 51be ce7b 193d 369b 2bbe
00000260: 93e8 adbc 4aaf 963e fc13 0dbd 845b 693d
00000270: 0bed 003e 776c b73d 927f 37be 8370 60bc
00000280: 6f50 333e 9378 80be 6578 323e adb3 0e3d
00000290: 223d 9d3e a7c6 d4bd 5dd2 aabd 5c66 70bd
000002a0: 0baa 663e ca45 62be 465b 0abc fc32 7c3e
000002b0: d33a 613e 698d c9bd e20a cc3d 0b22 a43c
000002c0: 2c9b 873d b0a7 86bd b591 9ebd 5666 26be
000002d0: 7e36 953c 057c 84be ac0b f23d 3d46 303e
000002e0: 2417 813e 9c12 453d 161e f2bd 5d33 62bd
000002f0: 4aa2 55be b640 e93d d347 95be 98c2 6dbd
00000300: 87b6 10be bd2d 433e 5902 203e 034b 18be
00000310: da0e 353e 9520 2abe 778a 793d 41fb 09be
00000320: debf 303e ebb5 bc3b 7314 69bd e13b 133e
00000330: 53b7 3fbd a01f 663d 76fa 9a3d c928 263e
00000340: 9d15 92bd 70ab f9bd 5c91 853e 1d84 4abe
00000350: 97fc 323e 8502 893e 7279 323d cbaf 56be
00000360: db1d 4abe 3921 04bd ed1b 093e 4be1 71be
00000370: a13f 67be dd1b ba3d 55b0 8e3e 72eb 3c3c
00000380: 8420 133e de2d ff3d 5447 583e b8b0 cfbc
00000390: 2a2f 673b 9d82 49bd 635e 18be eb74 3abe
000003a0: 2e0a a93d 9989 563e 86d6 803e b35b 3d3e
000003b0: b011 8cbd cd5f 53be 987d 91be d9c7 1b3e
000003c0: d530 fcbd 1edc 2dbd 3e8d e238 3584 50bd
000003d0: 6780 f03b d743 ffbd 14f5 1c3d 138b 3cbd
000003e0: b000 7c3d 39f1 063d bc29 aa3f c798 76bf
000003f0: f9c3 c43f e61d 903f 1854 71bf 9cf7 a0be

temporal_extractor.LSTM.lstm.bias_ih_l0 f4 [200]
0.15238485 0.787551 0.2217255 0.20103864 0.2129257 0.97767365 0.62681264 0.22553776
0.1544839 -0.31534332 0.11629671 0.2629252 0.19198763 0.00458849 0.45764512 0.007180187
0.04667397 0.1144274 0.15810974 0.055170782 0.19593145 -0.030735701 0.10318097 0.07763243
0.052341886 0.0027468696 0.04155613 0.13698581 0.13050404 0.14682235 0.30714485 0.120960236
0.47729263 0.09924931 0.011003361 0.45427537 0.12548243 0.07709729 0.31771874 0.04392666
0.18564916 0.19820777 -0.010989787 0.1958121 0.09312018 0.16453181 0.1207083 0.18968034
0.099869646 0.090469345 0.19484916 0.59502846 0.021161199 0.20889756 0.2431083 0.4263288
0.08591751 0.2572892 0.02314275 -0.34810033 0.18594345 0.19335417 0.27566692 0.050960857
0.27773848 0.11056103 0.2601965 0.017620372 0.06687876 0.06898262 0.032236204 0.02092103
0.11437835 0.05698165 0.25223643 0.187486 0.17770089 -0.013208382 0.19738586 0.04189247
-0.0039347718 0.035384096 0.18712519 0.0028578811 0.0718326 0.08776725 0.22287329 0.05694582
0.042922027 0.1895054 0.04060279 0.030710304 0.13170926 0.25783843 -0.0009856306 0.042491697
0.030993091 0.19868115 0.28724042 0.06978327 0.2634104 -0.36604527 0.26357582 0.16602339
-0.26516235 -0.31557468 0.64361817 0.13982038 -0.17633194 0.17390172 0.16067956 -0.09767656
0.19575357 0.19507413 0.23147711 -0.064629205 -0.23453397 0.23010714 0.074676394 -0.12106708
0.031008167 0.1649891 0.27211022 -0.055307467 0.17923135 0.08407966 0.22679539 0.40868977
-0.08370679 -0.097708814 -0.09689896 -0.2588701 0.10986108 0.20358019 0.26561338 0.25460985
-0.13011798 -0.27943096 -0.16859244 0.17889667 0.08710728 -0.2378399 -0.08494301 0.08181493
0.09211953 -0.22549143 0.11743696 -0.26527607 0.2818256 -0.18551093 -1.2305394 0.8679249
0.2785149 -0.896454 -0.4788087 0.7805104 0.012990019 -0.20978878 0.16013455 -0.12627262
-0.34334415 -0.24374913 -0.89920074 -0.0049261483 0.1436796 -0.41093644 -0.5456197 0.047300834
-0.13823369 -0.51734084 -0.5826731 0.09903203 -0.531008 -0.5116815 -0.035861578 -0.53160816
-0.56033456 0.33119762 0.026085941 -0.53312504 -0.1336672 -0.647328 0.20909181 0.03710436
-0.11148477 -0.2869043 -0.024608353 0.003464849 0.27138132 0.022498626 0.2059577 -0.6977155
-0.5223903 0.2734538 0.27659628 -0.49790862 -0.4706188 0.29751626 -0.6927331 0.050793026
00000000: c60a 1c3e f19c 493f 020c 633e 13dd 4d3e
00000010: 3209 5a3e d248 7a3f cb76 203f 5ff3 663e
00000020: 0731 1e3e ae74 a1be f82c ee3d 229e 863e
00000030: 6898 443e 0b5b 963b 7650 ea3e c647 eb3b
00000040: 342d 3f3d ea58 ea3d 85e7 213e c2fa 613d
00000050: 41a2 483e 70c9 fbbc 8b50 d33d c0fd 9e3d
00000060: 7264 563d d304 343b c336 2a3d 0246 0c3e
00000070: daa2 053e 9958 163e 1742 9d3e 00ba f73d
00000080: b35f f43e 3943 cb3d 7147 343c c896 e83e
00000090: 777e 003e 2fe5 9d3d 08ac a23e 71ec 333d
000000a0: d01a 3e3e faf6 4a3e 820e 34bc f882 483e
000000b0: cbb5 be3d 077b 283e ea35 f73d 903b 423e
000000c0: 7588 cc3d fe47 b93d 8a86 473e c953 183f
000000d0: 405a ad3c 3ee9 553e 62f1 783e c547 da3e
000000e0: 85f5 af3d 69bb 833e dd95 bd3c 353a b2be
000000f0: f667 3e3e a3fe 453e 3724 8d3e 55bc 503d
00000100: bd33 8e3e d26d e23d 7a38 853e 9958 903c
00000110: bbf7 883d c346 8d3d 1c0a 043d 9462 ab3c
00000120: 323f ea3d 9765 693d 2225 813e 54fc 3f3e
00000130: 39f7 353e f867 58bc 851f 4a3e 7097 2b3d
00000140: 42ef 80bb eaee 103d bf9d 3f3e 4a4b 3b3b
00000150: f81c 933d 51bf b33d e538 643e 0540 693d
00000160: 02cf 2f3d b40d 423e 1c4f 263d 2d94 fb3c
00000170: cbde 063e 6603 843e 4630 81ba c60b 2e3d
00000180: 39e5 fd3c 1273 4b3e 2d11 933e 88ea 8e3d
00000190: badd 863e 496a bbbe 69f3 863e 0902 2a3e
000001a0: 5cc3 87be 0193 a1be 29c4 243f 132d 0f3e
000001b0: 5c90 34be 4b13 323e 2f89 243e a60a c8bd
000001c0: a073 483e 83c1 473e 5608 6d3e 515c 84bd
000001d0: ac29 70be 35a1 6b3e f0ef 983d 04f2 f7bd
000001e0: d704 fe3c e7f2 283e 0852 8b3e 158a 62bd
000001f0: 6c88 373e f531 ac3d 0d3d 683e c93f d13e
00000200: 776e abbd 8f1b c8bd f672 c6bd 9f8a 84be
00000210: d9fe e03d 5377 503e 7afe 873e 395c 823e
00000220: a63d 05be 9311 8fbe 7fa3 2cbe b030 373e
00000230: 4d65 b23d 4e8c 73be 9af6 adbd 968e a73d
00000240: 2aa9 bc3d 3ae7 66be ca82 f03d 44d2 87be
00000250: 724b 903e 94f6 3dbe 5182 9dbf 5430 5e3f
00000260: 8199 8e3e 027e 65bf 6a26 f5be 88cf 473f
00000270: 17d4 543c dfd2 56be 50fa 233e 9c4d 01be
00000280: ceca afbe 5f99 79be 0532 66bf 876b a1bb
00000290: bf20 133e 4366 d2be bcad 0bbf 85be 413d
000002a0: 228d 0dbe 7370 04bf 102a 15bf 4ed1 ca3d
000002b0: 24f0 07bf 8ffd 02bf 97e3 12bd 7917 08bf
000002c0: 1672 0fbf bc92 a93e 2fb2 d53c e27a 08bf
000002d0: 0ee0 08be 4ab7 25bf 2a1c 563e befa 173d
000002e0: 2152 e4bd 1fe5 92be 7597 c9bc 8512 633b
000002f0: 7ef2 8a3e 0a4f b83c 93e6 523e 7c9d 32bf
00000300: 5fbb 05bf 2302 8c3e 079e 8d3e e1ed febe
00000310: f3f4 f0be 0d54 983e f556 31bf 590c 503d

temporal_extractor.LSTM.lstm.bias_hh_l0 f4 [200]
0.062294774 0.739038 0.041452684 0.20530893 0.020043865 1.1108363 0.6386878 0.16286437
0.18580967 -0.1777847 0.12623043 0.1906182 0.35400185 0.13424926 0.3791258 0.044400357
0.19431576 0.27530387 0.19761513 0.05637618 0.061389294 0.08243284 0.04237498 0.19050066
0.06690599 0.14342774 0.06810462 0.28925762 -0.06915712 0.20693846 0.49536067 0.039958365
0.38795975 -0.020977374 -0.03239936 0.5302456 0.048076052 0.15148966 0.10801538 0.16312322
-0.03698945 0.04208815 0.2544703 0.12630662 0.039958257 0.05573399 0.10966039 0.07866478
0.2005041 -0.0014726256 0.037534505 0.5651774 0.26865056 0.24259502 0.030684043 0.52648765
0.13103446 0.113768004 0.17337672 -0.22008833 0.19278942 0.13094763 0.29570577 0.26298177
0.022103446 0.2528938 0.14400491 0.16593346 0.18005739 0.0882419 0.108181335 0.044784937
0.20567532 0.15841629 0.007569405 0.17430604 0.024238477 0.081774496 0.23537998 0.2995128
0.22464858 0.13030066 0.030349365 0.10138301 0.20118465 0.123211674 0.30020368 0.18690987
0.0879374 0.2394919 0.053377826 0.03963849 0.07680785 0.18143824 0.17307323 0.16189657
0.17441513 0.26968688 0.2004824 0.05540058 0.15612175 -0.2959659 0.20918415 0.30591065
-0.20049013 -0.37598866 0.57782507 0.21432075 -0.1994501 0.20403607 0.28144503 -0.2663143
0.16657266 0.121795885 0.25266948 -0.26905617 -0.1603719 0.32252914 0.31910813 -0.31068608
-0.22119014 0.18422979 0.25426078 -0.2567025 0.042572368 0.09724587 0.26001778 0.22677886
-0.17643584 -0.28643903 -0.3155484 -0.21991983 0.24555945 -0.00078501145 0.1807526 0.21782026
-0.07563312 -0.08351271 -0.1461509 -0.0009885818 0.14249146 -0.30915076 -0.28490797 0.03712618
0.12541662 -0.26796448 0.22196992 -0.20860176 0.23926789 0.013445425 -1.2398111 0.81418544
0.22666644 -0.75636023 -0.51331806 0.81577533 -0.08301432 -0.3105916 0.18695329 -0.17060135
-0.36961594 -0.2251908 -0.9225247 0.21007603 0.23584634 -0.4771808 -0.5538866 0.07530929
-0.22858033 -0.5805314 -0.5980916 0.27231693 -0.6079917 -0.4578847 -0.016301125 -0.45929942
-0.7550711 0.44724417 0.07131113 -0.6221179 0.041126806 -0.5040103 0.30245548 0.11233226
-0.112933636 -0.26094854 -0.21039468 -0.13171141 0.30267954 0.17418769 0.10279542 -0.80555123
-0.4805991 0.26621085 0.009784834 -0.46240672 -0.40376052 0.16640669 -0.6284852 0.21963446
00000000: ce28 7f3d 9831 3d3f 4aca 293d 813c 523e
00000010: 0833 a43c e22f 8e3f 0b81 233f ebc5 263e
00000020: e444 3e3e 310d 36be 8d42 013e 6b31 433e
00000030: bb3f b53e a378 093e c71c c23e 26dd 353d
00000040: b6fa 463e a1f4 8c3e 9f5b 4a3e b6ea 663d
00000050: 5773 7b3d 8cd2 a83d 6391 2d3d 9b12 433e
00000060: 0206 893d b9de 123e 6f7a 8b3d 9319 943e
00000070: 40a2 8dbd ade7 533e ea9f fd3e 62ab 233d
00000080: a9a2 c63e bed8 abbc 31b5 04bd 2dbe 073f
00000090: 65eb 443d 1b20 1b3e 2b37 dd3d c609 273e
000000a0: 4082 17bd a064 2c3d ee49 823e 8656 013e
000000b0: 45ab 233d 5349 643d a095 e03d 001b a13d
000000c0: f250 4d3e 1e05 c1ba c8bd 193d 77af 103f
000000d0: 918c 893e d46a 783e 1a5d fb3c e5c7 063f
000000e0: e62d 063e 33ff e83d ab89 313e d65e 61be
000000f0: 976a 453e 2317 063e bf66 973e 8ca5 863e
00000100: 4912 b53c 4c7b 813e 0676 133e 76ea 293e
00000110: f760 383e 2bb8 b43d 2d8e dd3d 6970 373d
00000120: 8d9c 523e e137 223e c508 f83b 487d 323e
00000130: c58f c63c 6379 a73d 7307 713e be59 993e
00000140: 470a 663e 896d 053e 3b9f f83c e5a1 cf3d
00000150: 5903 4e3e 6756 fc3d 4cb4 993e 4d65 3f3e
00000160: 8618 b43d 5d3d 753e b5a2 5a3d f85b 223d
00000170: 6f4d 9d3d f2ca 393e 1c3a 313e 37c8 253e
00000180: e199 323e 6614 8a3e 424b 4d3e b8eb 623d
00000190: 61de 1f3e d888 97be 5f34 563e 52a0 9c3e
000001a0: 494d 4dbe 9681 c0be 58ec 133f e676 5b3e
000001b0: a63c 4cbe d5ee 503e 9019 903e 595a 88be
000001c0: 0692 2a3e 1f70 f93d e55d 813e bbc1 89be
000001d0: 8838 24be 8a22 a53e 2462 a33e 3f12 9fbe
000001e0: ab7f 62be bca6 3c3e 782e 823e 836e 83be
000001f0: 5d60 2e3d d828 c73d 0d21 853e b838 683e
00000200: 99ab 34be 23a8 92be 8f8f a1be aa32 61be
00000210: f073 7b3e 3ac9 4dba 3617 393e 460c 5f3e
00000220: 8ae5 9abd b608 abbd 95a8 15be 4d93 81ba
00000230: 48e9 113e 0249 9ebe 75df 91be 9f11 183d
00000240: 376d 003e a432 89be 154c 633e b39b 55be
00000250: a402 753e 334a 5c3c 21b2 9ebf 756e 503f
00000260: 3f1b 683e d3a0 41bf d068 03bf a7d6 503f
00000270: 6903 aabd dd05 9fbe af70 3f3e 1fb2 2ebe
00000280: 4d3e bdbe 6b98 66be 942a 6cbf 2c1e 573e
00000290: b481 713e 0b51 f4be 83cb 0dbf c23b 9a3d
000002a0: f610 6abe b59d 14bf 881c 19bf 206d 8b3e
000002b0: 58a5 1bbf dd6f eabe f089 85bc 4b29 ebbe
000002c0: 574c 41bf 30fd e43e 920b 923d 1e43 1fbf
000002d0: 9574 283d d206 01bf 72db 9a3e 750e e63d
000002e0: c049 e7bd 0c9b 85be b471 57be 5bdf 06be
000002f0: d0f8 9a3e 425e 323e 6886 d23d 9b38 4ebf
00000300: 1611 f6be ca4c 883e 9250 203c 93c0 ecbe
00000310: b3b9 cebe 8466 2a3e 68e4 20bf dbe7 603e

regressor.FC_1.linear.weight f4 [25, 50]
0.3106308 1.480532 0.31871858 0.5600444 -0.53519547 1.5478038 0.2781476 0.15056548
-0.029157108 0.004620786 0.28106147 -0.31148747 0.6613698 0.23455435 0.14272578 -0.5180899
-0.6705281 0.13537377 0.3802142 -0.38072702 -0.13080195 0.13234538 0.28723726 -0.28520623
0.20036146 0.24466781 0.43841377 -0.6719458 0.06799747 -0.65492994 -0.16803361 -0.27080733
0.25891665 0.21962783 0.16974822 0.64495325 -0.24466543 -0.3251297 -0.3739766 0.20307897
-0.107977755 -0.5480159 -0.39750046 0.33897927 0.2155735 -0.45974305 0.38105348 -0.26798618
0.38951585 -0.17897342 -0.07939045 -0.14639707 -0.09064622 -0.25799826 0.073418215 -0.2101907
-0.28767562 -0.052231707 0.12773362 -0.18142068 -0.33602813 0.1419375 -0.174672 -0.20936291
-0.28820077 0.33480763 0.21438804 -0.19076253 -0.24343906 0.301136 0.2877196 -0.07344182
-0.061836276 0.24818347 -0.21172248 -0.087494284 -0.2672318 -0.12285769 0.23430742 0.3169288
0.12721924 0.31865415 -0.11061415 -0.23044512 -0.23356712 -0.3046178 0.17173342 0.051616855
0.2648365 -0.21538754 0.12577641 0.19040704 0.1707626 -0.10656506 -0.22888105 0.1060262
-0.07679912 0.21124662 -0.17225482 0.268864 0.54866534 1.3699737 0.32854944 0.6053617
-0.5742631 1.5519173 0.1980472 0.35048822 -0.13180573 0.03977622 0.37279963 -0.30544993
0.7456592 0.23889713 0.21367976 -0.35623518 -0.69377774 0.13112414 0.32188305 -0.40027615
-0.27955902 0.29504907 0.30097893 -0.40528572 0.23899743 0.15977053 0.20844294 -0.7810225
0.01800806 -0.43356043 0.027347783 -0.3962543 0.14538048 0.13152958 0.35527495 0.6437695
-0.0017499606 -0.2753052 -0.17632335 0.19965771 -0.10079655 -0.5475022 -0.2664133 0.09198811
0.080289274 -0.51354015 0.33773202 -0.4136092 0.5840231 -0.2874247 0.43657145 1.4019438
0.24961366 0.61427337 -0.6299878 1.5210603 0.16212459 0.3887226 -0.044509914 -0.15288925
0.39652178 -0.17199802 0.5935691 0.26287806 0.1296682 -0.5753296 -0.4683282 0.14345017
0.26144347 -0.59900594 -0.38123992 0.15772478 0.24100757 -0.35227957 0.1937481 0.25652567
0.29704854 -0.5945387 -0.15722275 -0.7092089 0.019059412 -0.2378713 0.24997714 0.076687254
0.2577949 0.5480401 -0.21897654 -0.30485043 -0.23318471 0.23997992 -0.009064245 -0.45580563
-0.3747008 0.17764983 0.23703004 -0.57934874 0.4774135 -0.26130435 0.55621195 -0.2878666
0.35643965 1.490897 0.15210941 0.52916914 -0.5137608 1.6432805 0.16735399 0.32940295
-0.03192791 -0.11434106 0.41212034 -0.32822132 0.7469977 0.3229057 0.1912528 -0.34556025
-0.6190272 0.11406127 0.305762 -0.5762789 -0.20519975 0.2520366 0.28163326 -0.5502944
0.118665345 0.3600024 0.37949663 -0.4717815 -0.15620673 -0.5281318 -0.08694444 -0.32893896
0.39033893 0.36266744 0.1333893 0.7635369 -0.26080638 -0.22653763 -0.22058775 0.24447988
-0.0017131501 -0.41686845 -0.33035615 0.3165306 0.22233172 -0.5243887 0.47080538 -0.2527329
0.51908606 -0.33307403 0.48836166 1.3737137 0.10734473 0.6389811 -0.674657 1.5227612
00000000: 000b 9f3e 1382 bd3f 152f a33e 125f 0f3f
00000010: 9202 09bf 6f1e c63f 5d69 8e3e d62d 1a3e
00000020: e3da eebc f669 973b 4ae7 8f3e 497b 9fbe
00000030: 884f 293f 042f 703e b526 123e 8aa1 04bf
00000040: bba7 2bbf 6c9f 0a3e 70ab c23e a7ee c2be
00000050: f2f0 05be 8c85 073e c310 933e 8d06 92be
00000060: 8e2b 4d3e 338a 7a3e c577 e03e a404 2cbf
00000070: 4242 8b3d 7da9 27bf 0111 2cbe 42a7 8abe
00000080: b990 843e 1ee6 603e 7ad2 2d3e a81b 253f
00000090: 9389 7abe 6677 a6be dc79 bfbe eff3 4f3e
000000a0: 7123 ddbd c54a 0cbf 2e85 cbbe b18e ad3e
000000b0: 4dbf 5c3e 7163 ebbe 7119 c33e 7c35 89be
000000c0: 9f6e c73e cf44 37be 7697 a2bd 1de9 15be
000000d0: baa4 b9bd 5918 84be 4a5c 963d 3b3c 57be
000000e0: 384a 93be eaf0 55bd 9acc 023e 58c6 39be
000000f0: e10b acbe 1058 113e 37dd 32be 3b63 56be
00000100: 0d8f 93be e86b ab3e 8a88 5b3e 4157 43be
00000110: 1748 79be 7f2e 9a3e fc4f 933e aa68 96bd
00000120: 0948 7dbd cf23 7e3e c7cd 58be 3430 b3bd
00000130: 9bd2 88be d09c fbbd 49ee 6f3e 7e44 a23e
00000140: c345 023e a326 a33e ac89 e2bd cef9 6bbe
00000150: 382c 6fbe ddf6 9bbe e3da 2f3e 326c 533d
00000160: a698 873e 8d8e 5cbe 88cb 003e 10fa 423e
00000170: 64dc 2e3e c83e dabd cb5f 6abe 4424 d93d
00000180: db48 9dbd 0951 583e 9163 30be 8ba8 893e
00000190: 5575 0c3f 4c5b af3f a237 a83e fcf8 1a3f
000001a0: e802 13bf 3aa5 c63f e3cc 4a3e 3173 b33e
000001b0: 15f8 06be 64ec 223d 98df be3e ef63 9cbe
000001c0: 85e3 3e3f 73a1 743e dece 5a3e 7564 b6be
000001d0: 6b9b 31bf 6845 063e dbcd a43e fff0 ccbe
000001e0: 5c22 8fbe ac10 973e e919 9a3e 9c81 cfbe
000001f0: bebb 743e e39a 233e 1172 553e 17f1 47bf
00000200: a485 933c a2fb ddbe 7508 e03c d8e1 cabe
00000210: 9fde 143e b1af 063e 99e6 b53e 14ce 243f
00000220: ef5e e5ba cef4 8cbe 1c8e 34be 1273 4c3e
00000230: 6c6e cebd 1b29 0cbf 5367 88be 4364 bc3d
00000240: b46e a43d 5e77 03bf 36eb ac3e 96c4 d3be
00000250: 8a82 153f 5529 93be 4b86 df3e e572 b33f
00000260: b99a 7f3e 0541 1d3f e146 21bf 1bb2 c23f
00000270: fd03 263e a606 c73e 0750 36bd 008f 1cbe
00000280: e704 cb3e 4020 30be 25f4 173f f497 863e
00000290: bec7 043e cd48 13bf b7c8 efbe 9ae4 123e
000002a0: ebdb 853e 7458 19bf e131 c3be 9b82 213e
000002b0: b0ca 763e fd5d b4be e765 463e 5557 833e
000002c0: bf16 983e b033 18bf 00ff 20be b78e 35bf
000002d0: 7c22 9c3c 8994 73be 02fa 7f3e 350e 9d3d
000002e0: b1fd 833e 5b4c 0c3f 633b 60be 5b15 9cbe
000002f0: f9c7 6ebe 4cbd 753e 3382 14bc 5b5f e9be
00000300: c9d8 bfbe d6e9 353e 01b8 723e 3350 14bf
00000310: 8b6f f43e afc9 85be e863 0e3f 4063 93be
00000320: 427f b63e b7d5 be3f 92c2 1b3e a177 073f
00000330: d485 03bf 0457 d23f d85e 2b3e 81a7 a83e
00000340: d7c6 02bd a52b eabd 7001 d33e a00c a8be
00000350: 3e3b 3f3f e553 a53e c6d7 433e 46ed b0be
00000360: 9178 1ebf f598 e93d d68c 9c3e 0487 13bf
00000370: e21f 52be f10a 813e 3c32 903e 18e0 0cbf
00000380: d106 f33d 3c52 b83e 624d c23e 588d f1be
00000390: a8f4 1fbe a533 07bf ed0f b2bd b06a a8be
000003a0: 81da c73e 8caf b93e 3497 083e 2777 433f
000003b0: 6a88 85be 7bf9 67be c1e1 61be ef58 7a3e
000003c0: c78b e0ba c86f d5be 7124 a9be 4c10 a23e
000003d0: edaa 633e 563e 06bf 670d f13e 3566 81be
000003e0: d3e2 043f ae88 aabe 8a0a fa3e dad5 af3f
000003f0: 8ed7 db3d 4494 233f 52b6 2cbf d7e9 c23f

regressor.FC_1.linear.bias f4 [25]
0.4227884 -0.24542005 0.4290468 0.3617161 0.3251264 0.3584073 0.03966536 0.30671957
-0.2996226 0.3125194 -0.14147311 -0.18305159 -0.26482412 -0.0915598 -0.14288981 0.38323587
-0.14885598 -0.11011578 -0.17169064 -0.057191808 -0.033251252 0.16779491 -0.15885268 -0.22559525
0.35120994
00000000: b977 d83e 654f 7bbe 06ac db3e da32 b93e
00000010: f876 a63e 2981 b73e 2578 223d 590a 9d3e
00000020: 2268 99be 8b02 a03e 54de 10be e071 3bbe
00000030: 0797 87be b483 bbbd b551 12be 7e37 c43e
00000040: b46d 18be 6284 e1bd accf 2fbe f541 6abd
00000050: 7732 08bd 6ed2 2b3e 47aa 22be 7102 67be
00000060: cad1 b33e

regressor.FC_2.linear.weight f4 [12, 25]
0.39643344 0.22987366 0.5769381 0.22533295 0.24042258 0.3120243 0.2904506 0.20054041
0.4236082 0.5946193 -0.09320487 -0.32696673 -0.20197193 -0.05193858 0.08991423 0.474137
0.14820206 0.10697846 -0.09736355 0.18529703 0.001041197 0.23775387 0.029675588 -0.29300264
0.30983835 -0.5906589 -0.21513873 -0.54236674 -0.44399306 -0.40743494 -0.37975854 -0.26582128
-0.54400903 -0.37853274 -0.46092576 -0.07431948 0.28556952 -0.079363815 0.1089517 -0.23373301
-0.54051614 -0.21769114 -0.08002322 -0.020949418 -0.09210949 -0.15239084 -0.26611847 -0.04872148
0.09064267 -0.35237703 0.53916496 0.20970368 0.58398235 0.48488843 0.35312673 0.48702306
0.22225016 0.41298437 0.41177976 0.4831802 0.06637505 -0.25167885 -0.027452826 0.14045353
-0.04993781 0.6117846 0.19560513 -0.09966128 0.1497742 0.15634573 0.1810285 0.23078589
0.046881713 -0.21662423 0.32034165 -0.63875324 -0.06798145 -0.5121905 -0.51607656 -0.54432803
-0.6196654 -0.38350874 -0.32429087 -0.08396066 -0.5687737 -0.13853239 0.04834965 0.26698825
0.032004386 0.070306316 -0.46160468 0.07325253 0.11484547 -0.021291496 -0.15543118 -0.02181047
-0.3053388 -0.10067585 0.12244362 -0.47690517 -0.53802115 -0.035775997 -0.32870117 -0.25153884
-0.5711695 -0.37882367 -0.21879777 -0.46742308 -0.14505892 -0.31706867 0.084742814 0.098788664
0.22893746 -0.017386243 0.107086 -0.37085313 -0.12815419 -0.05887875 -0.016570194 -0.16241293
-0.27680168 -0.49290165 0.049334355 0.12181968 -0.2834915 -0.35676324 -0.35522345 -0.6066963
-0.24216712 -0.43577212 -0.61337334 0.0007286403 -0.47618002 -0.11725439 -0.22308363 -0.099134065
0.42303386 0.16328122 0.07547869 -0.1211223 -0.50481325 -0.18944225 0.11553694 0.07507002
-0.20387515 -0.25255123 -0.3960023 0.009773705 0.30014867 -0.33973423 0.340843 0.046200857
0.2905813 0.3606341 0.37533262 0.27301463 0.22567241 0.23638159 0.03384273 0.28906193
0.18572764 -0.43104607 -0.22848514 -0.10798414 0.07466567 0.4283892 0.07325797 0.110106215
0.2006482 0.38646185 0.14829956 0.43212718 0.21451387 -0.16898501 0.44397065 -0.63632554
-0.29056755 -0.35983592 -0.56297857 -0.2706494 -0.4671541 -0.09043257 -0.48938227 -0.39623597
-0.5542052 0.10057263 0.332266 0.29281104 0.04691322 -0.19768411 -0.3056066 -0.2795526
0.06958206 -0.25498194 -0.079364456 -0.18254782 -0.41882968 -0.0532221 0.023613084 -0.5015574
0.3500287 0.10307354 0.58334154 0.55730623 0.37247002 0.4063938 0.018098056 0.47067428
0.23717852 0.4567931 -0.045147814 -0.13968717 0.060512837 -0.06716828 0.24601696 0.5740757
0.07311394 -0.19056487 -0.08481331 0.10935759 0.029854082 0.24337238 -0.011825175 -0.31859118
0.45226026 -0.6244677 -0.10891535 -0.5136479 -0.35320637 -0.52113783 -0.5881246 -0.016597288
-0.24998339 -0.17637321 -0.36380535 -0.1656165 0.2025302 0.18003666 -0.10138559 -0.14891227
-0.35503435 0.06414629 0.13387449 -0.035622075 -0.05913868 -0.03551554 -0.47480702 0.05783133
0.20949231 -0.36869043 0.5567681 0.35961753 0.34358683 0.34739882 0.34878975 0.63488704
00000000: 53f9 ca3e 0064 6b3e 37b2 133f aebd 663e
00000010: 5631 763e a6c1 9f3e f1b5 943e 775a 4d3e
00000020: 2de3 d83e f838 183f 32e2 bebd 2f68 a7be
00000030: bbd1 4ebe 8cbd 54bd f424 b83d 16c2 f23e
00000040: 48c2 173e 8617 db3d 8a66 c7bd 81be 3d3e
00000050: c678 883a c075 733e 381a f33c 7104 96be
00000060: 22a3 9e3e 6c35 17bf 544d 5cbe 8cd8 0abf
00000070: 0f53 e3be 509b d0be b66f c2be ba19 88be
00000080: 2d44 0bbf 0bcf c1be 76fe ebbe d034 98bd
00000090: 2b36 923e 7f89 a2bd 1222 df3d b557 6fbe
000000a0: 445f 0abf 6dea 5ebe 37e3 a3bd 1d9e abbc
000000b0: e6a3 bcbd 580c 1cbe ae40 88be 2d90 47bd
000000c0: dda2 b93d c36a b4be b706 0a3f 90bc 563e
000000d0: de7f 153f 4c43 f83e 07cd b43e 165b f93e
000000e0: 8c95 633e b072 d33e ccd4 d23e 6563 f73e
000000f0: a4ef 873d 0ddc 80be c0e4 e0bc 0dd3 0f3e
00000100: 978b 4cbd ea9d 1c3f b64c 483e 371b ccbd
00000110: 685e 193e 1819 203e 895f 393e 2353 6c3e
00000120: 0a07 403d bed2 5dbe d203 a43e 5585 23bf
00000130: dc39 8bbd eb1e 03bf 981d 04bf 1559 0bbf
00000140: 64a2 1ebf 425b c4be 7409 a6be 91f3 abbd
00000150: 279b 11bf 6fdb 0dbe 480a 463d afb2 883e
00000160: 0817 033d c2fc 8f3d 7357 ecbe 6c05 963d
00000170: 1a34 eb3d 816b aebc 5a29 1fbe dfab b2bc
00000180: 5e55 9cbe 242f cebd b8c3 fa3d ea2c f4be
00000190: c1bb 09bf da89 12bd 854b a8be b3c9 80be
000001a0: 2a38 12bf 2df5 c1be 860c 60be 1452 efbe
000001b0: 538a 14be d356 a2be a48d ad3d b651 ca3d
000001c0: 956e 6a3e 986d 8ebc e84f db3d 76e0 bdbe
000001d0: da3a 03be d82a 71bd 37be 87bc 934f 26be
000001e0: f3b8 8dbe 9b5d fcbe d212 4a3d 997c f93d
000001f0: cc25 91be aca9 b6be d9df b5be 7350 1bbf
00000200: a8fa 77be 861d dfbe 0906 1dbf 3902 3f3a
00000210: decd f3be 1223 f0bd 0970 64be cd06 cbbd
00000220: e597 d83e 3133 273e 9294 9a3d f80e f8bd
00000230: 713b 01bf 26fd 41be a29e ec3d 50be 993d
00000240: a6c4 50be 654e 81be d0c0 cabe e421 203c
00000250: 16ad 993e a5f1 adbe f982 ae3e 1c3d 3d3d
00000260: 12c7 943e 08a5 b83e 992b c03e 93c8 8b3e
00000270: ab16 673e 040e 723e ad9e 0a3d edff 933e
00000280: 632f 3e3e 12b2 dcbe 02f8 69be ca26 ddbd
00000290: 51ea 983d d455 db3e 4608 963d 5e7f e13d
000002a0: b976 4d3e 54de c53e d7db 173e c63f dd3e
000002b0: 86a9 5b3e 680a 2dbe 1f50 e33e 3be6 22bf
000002c0: 45c5 94be 6a3c b8be 5d1f 10bf 8f92 8abe
000002d0: d22e efbe b634 b9bd 5090 fabe 71df cabe
000002e0: 64e0 0dbf 06f9 cd3d c51e aa3e 54eb 953e
000002f0: 1428 403d b46d 4abe 7878 9cbe 8521 8fbe
00000300: 0a81 8e3d fe8c 82be d589 a2bd d1ed 3abe
00000310: d870 d6be 6bff 59bd 3a70 c13c 1166 00bf
00000320: f636 b33e 3818 d33d df55 153f 9fab 0e3f
00000330: 64b4 be3e d912 d03e 6042 943c 38fc f03e
00000340: edde 723e c9e0 e93e eaec 38bd 270a 0fbe
00000350: 4fdc 773d 868f 89bd dfeb 7b3e a0f6 123f
00000360: c3bc 953d 7023 43be 9ab2 adbd dff6 df3d
00000370: 8c90 f43c 9c36 793e 61be 41bc 621e a3be
00000380: a88e e73e 1ddd 1fbf 030f dfbd 6e7e 03bf
00000390: 77d7 b4be 4a69 05bf 558f 16bf 09f7 87bc
000003a0: a5fb 7fbe 2e9b 34be b244 babe 5f97 29be
000003b0: 1464 4f3e 885b 383e 40a3 cfbd 757c 18be
000003c0: 10c7 b5be 215f 833d 6516 093e 74e8 11bd
000003d0: 673b 72bd be78 11bd e819 f3be 8be0 6c3d
000003e0: 2785 563e fec4 bcbe 5b88 0e3f ca1f b83e
000003f0: 9dea af3e 42de b13e 9294 b23e f587 223f

regressor.FC_2.linear.bias f4 [12]
0.6035597 -0.2706159 0.43314236 -0.4684921 -0.52014405 -0.38978815 0.5308022 -0.27138603
0.31094432 -0.36827508 0.38132334 -0.2826956
00000000: e382 1a3f 2b8e 8abe d6c4 dd3e 32de efbe
00000010: 2928 05bf 5092 c7be a7e2 073f 1cf3 8abe
00000020: 1834 9f3e 8d8e bcbe d03c c33e 7abd 90be

regressor.FC_3.linear.weight f4 [6, 12]
0.25690818 -0.57252294 0.38383535 -0.7014375 -0.5063484 -0.50328517 0.53349984 -0.5014515
0.49828935 -0.42355123 0.101973265 -0.67128336 0.44563794 -0.5744621 0.4851211 -0.6214243
-0.20397654 -0.5704051 0.40174744 -0.38035205 0.5106835 -0.5064489 0.5948176 -0.49597076
0.37324688 -0.24273594 0.62681633 -0.37898967 -0.6901802 -0.40436065 0.6747325 -0.24300256
0.3347736 -0.50385314 0.2926628 -0.14560919 0.34989464 -0.13126646 0.48844764 -0.53824484
-0.17971668 -0.4361423 0.39091554 -0.34422848 0.50558686 -0.18368071 0.07315247 -0.7029118
-0.7078488 0.45331442 -0.32204682 0.38981152 0.68797755 0.08723781 -0.14088045 0.44870597
-0.56516004 0.51816475 -0.5119588 0.1876592 -0.6737742 0.29641557 -0.34911218 0.7125522
0.6454517 0.43264514 -0.25382537 0.6093313 -0.15855815 0.34005824 -0.6146398 0.31512713
00000000: 7889 833e dd90 12bf 1186 c43e 6891 33bf
00000010: 0ca0 01bf 4cd7 00bf 7293 083f 205f 00bf
00000020: c81f ff3e b5db d8be 5cd7 d03d 3ad9 2bbf
00000030: a82a e43e f30f 13bf cb61 f83e aa15 1fbf
00000040: 3adf 50be 1206 12bf d7b1 cd3e 81bd c2be
00000050: 27bc 023f a3a6 01bf f745 183f e1ef fdbe
00000060: 371a bf3e c58f 78be 0977 203f ef0a c2be
00000070: a6af 30bf 5c08 cfbe 45bb 2c3f aad5 78be
00000080: 7267 ab3e 85fc 00bf e6d7 953e 931a 15be
00000090: 6425 b33e b76a 06be cf15 fa3e 6aca 09bf
000000a0: a607 38be 0b4e dfbe 1526 c83e b73e b0be
000000b0: 246e 013f cc16 3cbe f6d0 953d 07f2 33bf
000000c0: 9435 35bf d418 e83e 52e3 a4be 6095 c73e
000000d0: 4c1f 303f bda9 b23d f742 10be cabc e53e
000000e0: 54ae 10bf 72a6 043f bb0f 03bf bc29 403e
000000f0: 777c 2cbf c8c3 973e d5be b2be d269 363f
00000100: 533c 253f aa83 dd3e 66f5 81be 23fd 1b3f
00000110: 115d 22be 1d1c ae3e 0959 1dbf 5858 a13e

regressor.FC_3.linear.bias f4 [6]
0.50936663 0.5226312 0.49057034 0.5427635 -0.53840494 -0.54082155
00000000: da65 023f 29cb 053f 092c fb3e 8cf2 0a3f
00000010: e8d4 09bf 4873 0abf

regressor.FC_4.linear.weight f4 [1, 6]
0.49880764 0.7724464 0.63586396 0.5594448 -0.5771817 -0.59990835
00000000: b763 ff3e 0cbf 453f fbc7 223f c637 0f3f
00000010: 2ec2 13bf 9893 19bf
