logs/ckpt/epoch=9-step=270.ckpt (torch, 280415 bytes, 45 tensors)

feature_extractor.Conv1D_1.conv_1.weight f4 [32, 14, 5]
0.2869567 0.10743048 0.19019185 0.05740873 0.13863252 0.44317216 0.22895086 0.2767304
0.2161589 0.076850556 0.070795305 0.09451791 0.104611166 0.12659237 0.023011262 -0.23011816
-0.2084784 -0.24198507 -0.20847735 -0.1424614 0.24039134 0.32104576 0.14077525 0.3307475
0.23270343 0.3784021 0.20322606 0.3675013 0.30583948 0.25503713 0.71663773 0.6365945
0.46447837 0.53314364 0.28917935 -0.49167156 -0.30590838 -0.26912493 -0.0111629255 -0.11952205
0.19349071 0.23126449 0.24676026 0.32041827 0.25964433 0.26655558 0.22622307 0.18010756
0.1783997 0.40257215 0.24586634 0.14341196 0.09622853 0.05971594 0.15342255 0.2229022
0.28502727 0.21303204 0.10612142 0.0032723036 -0.043567926 -0.052506056 -0.24800436 -0.23632266
-0.023979409 -0.064259015 -0.18454418 -0.08489875 -0.0490327 -0.20635344 0.13867773 0.045350984
0.14864168 0.20385182 0.12591717 0.42613965 0.34181973 0.12265945 0.24922259 0.0779125
0.14973927 0.03132036 0.24336563 0.13287702 0.18739425 -0.24585496 -0.22187889 -0.06093026
-0.16520628 -0.098866835 0.34682578 0.33667746 0.32945675 0.4112277 0.3418619 0.24336877
0.20978087 0.4045294 0.29738218 0.39035213 0.5788323 0.48760068 0.5342487 0.45776016
0.41803437 -0.48054 -0.3039316 -0.23903532 -0.08094686 -0.05092179 0.24457943 0.21272963
0.42475072 0.2680042 0.373772 0.25273332 0.24874155 0.40697694 0.32558104 0.2757885
0.12576427 0.2386276 0.13282324 0.11390758 0.040727172 0.19558321 0.103987396 -0.032096647
0.1269983 -0.04353385 -0.09662205 0.11761007 0.04662581 -0.0073004593 -0.135932 -0.0054907966
-0.10693565 -0.18257079 -0.109740384 -0.19355094 -0.3315823 -0.2983871 -0.37711397 -0.32614017
-0.35118127 -0.23245826 -0.32159853 -0.37350294 -0.31976554 -0.40244696 -0.5121977 -0.49310684
-0.37565348 -0.51075965 -0.4743382 0.10484075 0.32219458 0.28528124 0.32615376 0.41809767
0.13362528 -0.069325745 -0.036908995 0.04441144 0.04487597 0.092820495 0.074074 -0.0432937
0.091967426 0.074891575 -0.18331446 -0.087597266 -0.23094061 -0.23287413 -0.1734899 0.08026558
0.2157225 0.20716856 0.14324701 0.22624265 0.11423093 -0.08682698 -0.041349806 -0.06803418
0.112087585 0.055226434 0.032649536 0.10610799 0.122700535 -0.017810492 -0.33989704 -0.4212362
-0.48087654 -0.4440371 -0.49898854 -0.464008 -0.6236053 -0.529955 -0.64282656 -0.49754137
0.43802714 0.5106317 0.39219686 0.400487 0.45274818 0.48725677 0.44565746 0.56480056
0.42523202 0.5258646 0.27023908 0.1811778 0.13135323 0.039588656 0.093886234 0.41916287
0.31961986 0.2635121 0.02018677 0.1638443 0.06941783 0.013946758 0.06349927 -0.084294036
-0.15369779 -0.2629125 -0.18813835 -0.100764036 -0.16537386 -8.552275e-06 0.2832596 0.28039512
0.30597973 0.3513967 0.49217156 0.3104599 0.27166772 0.33724385 0.33391002 0.40824074
0.70757186 0.39866292 0.38764757 0.40273598 0.3698268 -0.3004986 -0.18287182 -0.12316651
-0.06593816 -0.104084596 0.46543956 0.2917427 0.28336278 0.5411337 0.29627204 0.4921191
00000000: fdeb 923e 8304 dc3d a7c1 423e 6b25 6b3d
00000010: aff5 0d3e 76e7 e23e 1872 6a3e 9baf 8d3e
00000020: c258 5d3e d363 9d3d 21fd 903d 9b92 c13d
00000030: 613e d63d 6ea1 013e 1d82 bc3c 18a4 6bbe
00000040: 5d7b 55be efca 77be 167b 55be 67e1 11be
00000050: 2629 763e 1c60 a43e 6327 103e bc57 a93e
00000060: cf49 6e3e ecbd c13e 7e1a 503e 2129 bc3e
00000070: fe96 9c3e 3a94 823e 9275 373f dbf7 223f
00000080: 1cd0 ed3e 1a7c 083f 510f 943e 60bc fbbe
00000090: 06a0 9cbe beca 89be b4e4 36bc fac7 f4bd
000000a0: 6e22 463e 99d0 6c3e b9ae 7c3e dd0d a43e
000000b0: 1af0 843e f979 883e 05a7 673e 1e6e 383e
000000c0: 69ae 363e f01d ce3e 63c4 7b3e 96da 123e
000000d0: 7713 c53d b498 743d cd1a 1d3e 7940 643e
000000e0: 18ef 913e 1225 5a3e 3056 d93d 2574 563b
000000f0: 4874 32bd 9710 57bd dbf4 7dbe 91fe 71be
00000100: 7770 c4bc 3b9a 83bd 26f9 3cbe 65df adbd
00000110: 83d6 48bd 514e 53be 8901 0e3e f4c1 393d
00000120: 8635 183e 88be 503e 6ef0 003e fa2e da3e
00000130: ff02 af3e e134 fb3d 3534 7f3e 9790 9f3d
00000140: 4055 193e c749 003d d734 793e ea10 083e
00000150: 47e4 3f3e 67c1 7bbe 3834 63be 0292 79bd
00000160: d62b 29be b27a cabd 2693 b13e fd60 ac3e
00000170: 8eae a83e 708c d23e 8608 af3e aa35 793e
00000180: ccd0 563e 7a1e cf3e 7a42 983e 3cdc c73e
00000190: 5b2e 143f cca6 f93e 86c4 083f 8a5f ea3e
000001a0: 9a08 d63e 5709 f6be ec9c 9bbe adc5 74be
000001b0: 78c7 a5bd 5e93 50bd 0873 7a3e ccd5 593e
000001c0: ed78 d93e d937 893e 0b5f bf3e 4366 813e
000001d0: 1bb6 7e3e 485f d03e 8fb2 a63e 2634 8d3e
000001e0: 59c8 003e cb5a 743e d102 083e 6148 e93d
000001f0: 89d1 263d f746 483e 58f7 d43d c677 03bd
00000200: d80b 023e 8d50 32bd c8e1 c5bd 8cdd f03d
00000210: b5fa 3e3d b138 efbb c231 0bbe 24ec b3bb
00000220: 1401 dbbd d6f3 3abe 91bf e0bd 3832 46be
00000230: 28c5 a9be 32c6 98be 1515 c1be d8fb a6be
00000240: 08ce b3be 8a09 6ebe 90a8 a4be c73b bfbe
00000250: 4fb8 a3be 870d cebe 631f 03bf 8078 fcbe
00000260: a755 c0be 25c1 02bf 75dc f2be bfb6 d63d
00000270: b0f6 a43e 6210 923e a0fd a63e e610 d63e
00000280: 11d5 083e a8fa 8dbd e32d 17bd c5e8 353d
00000290: ddcf 373d ac18 be3d 1cb4 973d bc54 31bd
000002a0: 6b59 bc3d c160 993d c9b6 3bbe 3266 b3bd
000002b0: b27b 6cbe 8e76 6ebe 56a7 31be 4862 a43d
000002c0: 5ce6 5c3e ff23 543e 58af 123e 27ac 673e
000002d0: e8f1 e93d 58d2 b1bd 6a5e 29bd 8155 8bbd
000002e0: 2d8e e53d 1d35 623d 85bb 053d 254f d93d
000002f0: 6b4a fb3d 4fe7 91bc fc06 aebe 45ac d7be
00000300: 7335 f6be d558 e3be 6d7b ffbe 7592 edbe
00000310: 99a4 1fbf 22ab 07bf 4890 24bf bebd febe
00000320: 1845 e03e c2b8 023f 07ce c83e a20c cd3e
00000330: 9cce e73e b879 f93e 372d e43e c596 103f
00000340: 03b8 d93e 109f 063f c75c 8a3e ac86 393e
00000350: 7681 063e b727 223d 6d47 c03d 849c d63e
00000360: 37a5 a33e 0feb 863e ba5e a53c cdc6 273e
00000370: ef2a 8e3d f180 643c e80b 823d 5aa2 acbd
00000380: f462 1dbe 789c 86be 57a7 40be 605d cebd
00000390: c457 29be be7b 0fb7 6707 913e f38f 8f3e
000003a0: 60a9 9c3e 45ea b33e e9fd fb3e 9af4 9e3e
000003b0: 0818 8b3e 3aab ac3e 41f6 aa3e ee04 d13e
000003c0: 6e23 353f 8c1d cc3e be79 c63e 6933 ce3e
000003d0: f059 bd3e f4da 99be c042 3bbe b93e fcbd
000003e0: 960a 87bd 4e2a d5bd 184e ee3e 4d5f 953e
000003f0: ed14 913e bd87 0a3f f8b0 973e 09f7 fb3e

feature_extractor.Conv1D_1.conv_1.bias f4 [32]
-0.33776456 -0.31923333 -0.0012641374 -0.32084244 -0.3198308 -0.7776136 -0.6339362 -0.6194807
-0.38216913 -0.36915368 -0.40042695 -0.4841247 -0.3154926 -0.8074368 -0.5090848 -0.63014776
0.21714932 -0.6223708 -0.7490929 -0.18746953 -0.60246503 -0.31445315 -0.3958617 -0.39593634
-0.074044526 -0.37654322 -0.3415021 -0.12493346 -0.44619343 -0.5118848 -0.48459098 -0.65896773
00000000: 7aef acbe 8d72 a3be 6ab1 a5ba 7645 a4be
00000010: ddc0 a3be af11 47bf a549 22bf 4a96 1ebf
00000020: acab c3be b601 bdbe c304 cdbe 31df f7be
00000030: 3f88 a1be 2eb4 4ebf 6253 02bf 5d51 21bf
00000040: 645c 5e3e b153 1fbf 8dc4 3fbf 03f8 3fbe
00000050: 263b 1abf 0100 a1be 62ae cabe 2bb8 cabe
00000060: a8a4 97bd 46ca c0be 5dd9 aebe 1ddd ffbd
00000070: 7773 e4be e20a 03bf 4f1c f8be 1cb2 28bf

feature_extractor.Conv1D_2.conv_1.weight f4 [64, 32, 3]
0.32829213 0.11432733 -0.10513486 0.501227 0.33869433 0.25504094 -0.16048184 -0.31018713
-0.19369683 0.37063095 0.5206512 0.40813076 0.61520237 0.5109909 0.38562915 -0.4817364
-0.4638859 -0.49838886 -0.3758414 -0.47518954 -0.43505493 -0.39800072 -0.5656673 -0.5556273
0.6509333 0.6277122 0.31955552 0.50044316 0.40006387 0.114614874 0.52952534 0.4483021
0.3173117 -0.5922767 -0.52722085 -0.40930617 0.35869926 0.23974116 -0.0071929675 -0.6257593
-0.69722 -0.6723257 0.3551835 0.34391344 0.33254412 -0.40725133 -0.56492734 -0.37513995
-0.24650691 -0.3650475 -0.27624655 -0.45682943 -0.34068394 -0.43006682 -0.7198449 -0.7206831
-0.58240575 -0.069294855 -0.22420609 -0.24134542 -0.57069963 -0.6239979 -0.6343091 0.4017911
0.48304036 0.38185126 0.46018395 0.39967367 0.24806032 0.5100126 0.44927266 0.35496593
-0.3176892 -0.30573824 -0.26413992 0.4361481 0.50167555 0.3438338 0.49234706 0.43984926
0.30623534 -0.08510346 -0.089399695 -0.16532037 0.4687391 0.43153706 0.3744486 -0.19640371
-0.2643489 -0.14828008 0.57021797 0.41452068 0.50268346 0.26162523 0.41724733 0.22541866
0.383208 0.10298789 -0.18114863 0.4747936 0.43012092 0.30462807 -0.23978588 -0.2913099
-0.17630163 0.43319336 0.49464354 0.38180253 0.49828523 0.44597128 0.27774334 -0.3817425
-0.43719324 -0.4510361 -0.486432 -0.34054348 -0.4948546 -0.36512327 -0.44591266 -0.4524482
0.63245153 0.42728722 0.45086586 0.53907585 0.41944322 -0.009949935 0.55666184 0.45784664
0.20849682 -0.50863475 -0.50073266 -0.50623465 0.37652436 0.23462166 -0.11223851 -0.6071067
-0.7245238 -0.71595275 0.33654708 0.2114911 0.31929642 -0.54300314 -0.45166776 -0.49523166
-0.338466 -0.3458681 -0.15332384 -0.3341536 -0.35240498 -0.31267977 -0.6862548 -0.722179
-0.6696316 -0.07196449 -0.075570166 -0.12306498 -0.66654956 -0.70033777 -0.56692153 0.4945136
0.31046173 0.39560467 0.46358424 0.28240776 0.2006083 0.37409163 0.50844526 0.48167986
-0.22393648 -0.21544023 -0.12651858 0.37422124 0.32340747 0.3356224 0.4331831 0.49427333
0.30308732 -0.075744964 -0.12832738 -0.22451821 0.4093316 0.4481483 0.27578062 -0.19712135
-0.16720034 -0.32643306 0.47983715 0.37692544 0.44085655 0.35949105 0.3512538 0.19810319
0.47270072 0.1793103 -0.062614806 0.34919122 0.42275676 0.15190528 -0.15380423 -0.22850548
-0.07082418 0.44682756 0.4606118 0.44440302 0.5805342 0.45496988 0.3831894 -0.4471982
-0.43905357 -0.51505244 -0.50776774 -0.45259327 -0.48291007 -0.39910573 -0.4545287 -0.4363691
0.64395154 0.53448707 0.39074633 0.6272671 0.4564892 0.15084697 0.4276438 0.4760297
0.17800282 -0.5529239 -0.37633193 -0.5634962 0.22240886 0.21180168 -0.12611033 -0.6410091
-0.55910873 -0.5359947 0.2792474 0.34694326 0.3396354 -0.5225019 -0.5112198 -0.48912862
-0.40585765 -0.23149733 -0.37178102 -0.45299947 -0.28945777 -0.3738512 -0.55484724 -0.62856066
-0.57702255 -0.17121589 -0.21179013 -0.1769742 -0.67208666 -0.6769777 -0.6802756 0.48848212
00000000: e815 a83e 7224 ea3d f250 d7bd 6a50 003f
00000010: 5869 ad3e ba94 823e 5a55 24be d9d0 9ebe
00000020: 7658 46be 57c3 bd3e 6649 053f 84f6 d03e
00000030: e77d 1d3f 4dd0 023f 2f71 c53e 27a6 f6be
00000040: 7482 edbe d32c ffbe 496e c0be 0b4c f3be
00000050: 85bf debe c0c6 cbbe 92cf 10bf 973d 0ebf
00000060: 91a3 263f bfb1 203f c89c a33e 0b1d 003f
00000070: 2cd5 cc3e 34bb ea3d f98e 073f da87 e53e
00000080: ae76 a23e 729f 17bf f2f7 06bf 9490 d1be
00000090: 6ea7 b73e b57e 753e fcb2 ebbb c331 20bf
000000a0: 037d 32bf 891d 2cbf 9dda b53e 6c15 b03e
000000b0: 3943 aa3e 3f83 d0be 149f 10bf 5812 c0be
000000c0: 4f6c 7cbe 82e7 babe 3070 8dbe 8ce5 e9be
000000d0: 206e aebe b831 dcbe c147 38bf b07e 38bf
000000e0: 8b18 15bf 76ea 8dbd 4896 65be 4123 77be
000000f0: 5f19 12bf 54be 1fbf 1562 22bf 90b7 cd3e
00000100: 1151 f73e 0282 c33e 3b9d eb3e 07a2 cc3e
00000110: 8603 7e3e 3090 023f 1107 e63e 18be b53e
00000120: 29a8 a2be b989 9cbe 593d 87be ce4e df3e
00000130: cf6d 003f fc0a b03e ea14 fc3e ec33 e13e
00000140: e1ca 9c3e b94a aebd 3017 b7bd be49 29be
00000150: 92fe ef3e 6df2 dc3e bab7 bf3e 0e1e 49be
00000160: bd58 87be bcd6 17be cef9 113f 0e3c d43e
00000170: ddaf 003f bef3 853e 71a1 d53e 26d4 663e
00000180: d733 c43e 51eb d23d 077f 39be 2618 f33e
00000190: cf38 dc3e 36f8 9b3e 6e8a 75be 9226 95be
000001a0: 6a88 34be 85cb dd3e eb41 fd3e 9f7b c33e
000001b0: 3e1f ff3e 5956 e43e 6034 8e3e c173 c3be
000001c0: cbd7 dfbe 34ee e6be 9d0d f9be b75b aebe
000001d0: 955d fdbe 70f1 babe aa4e e4be 4aa7 e7be
000001e0: 58e8 213f 64c5 da3e e4d7 e63e e000 0a3f
000001f0: 43c1 d63e 0d05 23bc 6481 0e3f e06a ea3e
00000200: 3180 553e e335 02bf 0430 00bf 9898 01bf
00000210: cdc7 c03e a940 703e 4edd e5bd 586b 1bbf
00000220: 647a 39bf ae48 37bf e64f ac3e 1f91 583e
00000230: d27a a33e 4102 0bbf ff40 e7be 018f fdbe
00000240: 6a4b adbe a015 b1be ed00 1dbe 2e16 abbe
00000250: 6d6e b4be 9017 a0be 65ae 2fbf b9e0 38bf
00000260: fa6c 2bbf 1e62 93bd 88c4 9abd 7e09 fcbd
00000270: fea2 2abf 5649 33bf c521 11bf e330 fd3e
00000280: d7f4 9e3e b28c ca3e ea5a ed3e c097 903e
00000290: 436c 4d3e f088 bf3e 7829 023f be9e f63e
000002a0: 9b4f 65be 5d9c 5cbe 168e 01be ed99 bf3e
000002b0: aa95 a53e b3d6 ab3e 2dca dd3e 6511 fd3e
000002c0: 432e 9b3e 2d20 9bbd 4168 03be 1ae8 65be
000002d0: e993 d13e b273 e53e 1e33 8d3e 2eda 49be
000002e0: 9136 2bbe 3c22 a7be 37ad f53e 5ffc c03e
000002f0: f3b7 e13e 360f b83e 8ad7 b33e 90db 4a3e
00000300: d405 f23e 1f9d 373e 313c 80bd 31c9 b23e
00000310: 9373 d83e 0f8d 1b3e db7e 1dbe 57fd 69be
00000320: 450c 91bd 95c6 e43e 4fd5 eb3e cb88 e33e
00000330: e49d 143f d0f1 e83e 6731 c43e 2af7 e4be
00000340: a1cb e0be 7ada 03bf 11fd 01bf 4eba e7be
00000350: fd3f f7be 9657 ccbe fcb7 e8be c56b dfbe
00000360: 02da 243f 25d4 083f e70f c83e 9494 203f
00000370: f4b8 e93e a177 1a3e 21f4 da3e 2aba f33e
00000380: 5f46 363e 6c8c 0dbf 94ae c0be 4941 10bf
00000390: 26bf 633e 8ae2 583e 1123 01be 2c19 24bf
000003a0: c021 0fbf f336 09bf 84f9 8e3e 8ca2 b13e
000003b0: b1e4 ad3e afc2 05bf 4ddf 02bf 116f fabe
000003c0: 93cc cfbe a30d 6dbe 155a bebe 8cef e7be
000003d0: cf33 94be 6d69 bfbe 780a 0ebf 5ae9 20bf
000003e0: c0b7 13bf 3853 2fbe 83df 58be ba38 35be
000003f0: df0d 2cbf 694e 2dbf 8b26 2ebf 541a fa3e

feature_extractor.Conv1D_2.conv_1.bias f4 [64]
-0.5844464 -0.53140366 -0.54674906 0.5653244 -0.5619072 -0.59172666 -0.46267822 0.44080973
0.4381224 0.49945337 0.46510884 -0.40719423 -0.5223481 -0.58689857 0.58554876 -0.53330284
-0.6012238 -0.55274886 0.5510388 -0.46128854 0.4243074 0.5490194 -0.42622215 0.49225688
0.44139573 -0.55374414 0.45264724 0.4174187 -0.43769616 -0.4422339 0.49735498 0.50068474
0.5303323 -0.51508594 0.5238925 -0.40376738 -1.4090364 0.47130284 -0.47698954 -0.52671486
-0.4702697 0.5492524 0.5037912 0.52378356 0.5667775 -0.58578086 0.5177274 0.57645744
0.53224695 0.43411338 -0.5612825 0.4294389 0.53435403 0.4846266 0.5703698 -0.43221956
-0.43233633 0.54540104 -0.5566096 -0.5385594 -0.60301185 0.54433835 -0.41277394 -0.8105436
00000000: 479e 15bf 120a 08bf bff7 0bbf 1ab9 103f
00000010: 26d9 0fbf 667b 17bf 29e4 ecbe d0b1 e13e
00000020: 9451 e03e 5ab8 ff3e bf22 ee3e c37b d0be
00000030: 9bb8 05bf fc3e 16bf 86e6 153f 8986 08bf
00000040: cee9 19bf f380 0dbf e110 0d3f 032e ecbe
00000050: d23e d93e 898c 0c3f ca39 dabe 1809 fc3e
00000060: 9ffe e13e 2dc2 0dbf 61c1 e73e e7b7 d53e
00000070: b619 e0be 7b6c e2be 50a5 fe3e e02c 003f
00000080: dcc3 073f acdc 03bf d21d 063f 99ba cebe
00000090: 4e5b b4bf 9b4e f13e f937 f4be c9d6 06bf
000000a0: 31c7 f0be ce9b 0c3f 76f8 003f ae16 063f
000000b0: 5518 113f bcf5 15bf c889 043f b792 133f
000000c0: 5641 083f 1c44 de3e 36b0 0fbf 6adf db3e
000000d0: 6dcb 083f fa20 f83e c103 123f e24b ddbe
000000e0: 305b ddbe 679f 0b3f f77d 0ebf 07df 09bf
000000f0: fc5e 1abf c259 0b3f 1b57 d3be c97f 4fbf

temporal_extractor.LSTM.lstm.weight_ih_l0 f4 [200, 5]
-0.32359666 -0.3299153 -0.06124271 -0.08964815 0.12023765 -0.23291121 -0.3990508 -0.032007445
0.24650884 0.42122403 -0.43826896 -0.372437 0.1219323 0.15323496 0.5061133 -0.5189629
-0.17025135 -0.0102403 0.12244 0.60484594 -0.05051066 0.123945825 0.059645977 0.06138512
0.1599547 0.030054273 -0.1726991 0.10083857 0.044118688 0.18960248 -0.45154098 -0.56674045
-0.25956184 -0.024919465 -0.2002817 -0.26093408 0.014481178 0.33627668 0.97734314 1.0302622
0.2505762 0.71131235 0.62663776 0.3903352 0.2401862 0.04439161 0.011407509 -0.044149015
-0.34557965 -0.17539968 0.56267244 0.11018216 -0.045050718 -0.36078954 -0.67054814 -0.21415517
0.08641645 0.1589017 0.3806771 0.5828938 -0.74887437 -0.085432716 -0.13488428 -0.22954692
-0.18868534 -0.1970518 0.034272388 0.17994395 0.34149653 0.7476978 -0.02031396 -0.83278406
-0.6573697 0.014152705 0.15535802 -0.0025758257 0.044430688 -0.35761446 0.024229838 0.1974432
-0.4524622 -0.29873165 -0.3980813 0.18354504 0.5710118 -0.6462574 -0.6675324 -0.70170164
-0.5172097 -0.22499953 -0.34539258 -0.40286475 -0.51581174 -0.8465676 -0.4148859 -1.0488253
-0.4816698 -0.2978091 0.02982702 0.3218922 0.29467294 0.09373067 0.29401183 -0.027539792
-0.5693698 0.33598337 0.32008696 -0.22504562 -0.90524274 -0.7401155 0.3146579 0.19445838
0.2798465 0.17653899 0.023219617 0.3212803 0.32031745 0.41194034 0.72523445 0.6539662
-0.34859723 0.10291319 0.2861695 0.39046678 0.5198111 -0.46886003 -0.07053661 -0.0043043224
0.15885806 0.6500389 -0.25383055 -0.20171708 0.09259647 0.37923282 0.95879626 -0.6242964
-0.41892955 -0.39199245 -0.17764807 0.046615552 0.17917082 0.02350215 -0.54060644 -0.59011054
-0.36723244 0.10774045 0.062684685 0.21957384 0.52579784 0.72870517 -0.2117247 -0.33756956
-0.24406153 0.48218226 0.6559402 -0.46693555 -0.27590805 0.0016015342 0.17550823 0.5577981
-0.35560048 -0.8815801 -0.4483074 -0.48545465 -0.2996187 -0.6941283 -0.45388818 -0.23629779
0.08494091 0.24986802 -0.29625452 -0.3767012 -1.1106573 -0.3387974 0.056233883 -0.13185312
-0.04053505 0.07810471 0.38105056 0.5022966 -0.51833344 -0.3135242 0.301503 0.6542719
1.1198702 -0.82460856 -0.76700914 -0.08298737 0.0075519243 0.0893831 -0.38489124 -0.81920433
-0.7820305 -0.57760125 -0.4017061 -0.32109642 -0.048170067 0.17557424 0.39593387 0.56523323
-0.9600098 -0.7790785 -0.38590696 -0.100028895 0.24041313 0.53184617 0.39057544 -0.13659044
0.09851512 0.06255776 -0.14127438 -0.3286234 -0.30784342 -0.32500622 -0.08255002 0.23505005
0.6193856 -0.10231253 -0.23064871 0.27724886 -0.38781193 -0.66265726 -0.6254372 -0.5768287
-0.37312815 -0.23534289 -0.14528668 0.20787342 0.37801754 0.57425135 0.0895081 0.2856931
0.370209 0.28303257 0.37372562 0.36038595 0.21702619 0.2650129 0.30832043 0.38446966
-0.14630051 -0.8404938 -0.76327145 -0.61270225 -0.42775446 0.4003428 0.39901167 0.6028926
0.8421286 0.5002522 0.13656068 0.41231385 0.428905 0.33196017 -0.031506978 0.13053599
00000000: 76ae a5be a8ea a8be a3d9 7abd 7399 b7bd
00000010: 283f f63d 4780 6ebe 6350 ccbe 3d1a 03bd
00000020: d06c 7c3e adaa d73e ca64 e0be 10b0 bebe
00000030: a4b7 f93d a0e9 1c3e a490 013f c1da 04bf
00000040: 5f56 2ebe eec6 27bc d3c1 fa3d 2fd7 1a3f
00000050: 44e4 4ebd 4fd7 fd3d 574f 743d f76e 7b3d
00000060: 2acb 233e 6134 f63c 08d8 30be 7484 ce3d
00000070: ccb5 343d 2727 423e 6130 e7be e715 11bf
00000080: 4ae5 84be e823 ccbc a516 4dbe 2799 85be
00000090: 7642 6d3c 752c ac3e 2933 7a3f a2df 833f
000000a0: 864b 803e 9118 363f 556b 203f 04da c73e
000000b0: 5ff3 753e fad3 353d 90e6 3a3c 99d5 34bd
000000c0: d1ef b0be f99b 33be 4d0b 103f 2fa7 e13d
000000d0: 1a87 38bd 68b9 b8be 0ba9 2bbf 7e4b 5bbe
000000e0: 1cfb b03d 21b7 223e 1ce8 c23e 8738 153f
000000f0: 3bb6 3fbf 59f7 aebd 1b1f 0abe 590e 6bbe
00000100: bb36 41be f2c7 49be 3461 0c3d 3a43 383e
00000110: a2d8 ae3e 1f69 3f3f 7669 a6bc 5631 55bf
00000120: 6149 28bf bfe0 673c 2c16 1f3e 2fcf 28bb
00000130: f4fc 353d 3e19 b7be a77d c63c 8d2e 4a3e
00000140: 20a9 e7be 5bf3 98be 50d1 cbbe 3bf3 3b3e
00000150: d42d 123f 2071 25bf 67e3 2abf b8a2 33bf
00000160: db67 04bf 4766 66be 4cd7 b0be 4a44 cebe
00000170: 3d0c 04bf a7b8 58bf ed6b d4be e83f 86bf
00000180: 6d9d f6be 6f7a 98be cb57 f43c 0ecf a43e
00000190: 5fdf 963e def5 bf3d b888 963e 219b e1bc
000001a0: 38c2 11bf 0306 ac3e 70e2 a33e 5c72 66be
000001b0: fdbd 67bf 3678 3dbf d71a a13e 1920 473e
000001c0: 0a48 8f3e a3c6 343e 1137 be3c da7e a43e
000001d0: a600 a43e d8e9 d23e f7a8 393f 546a 273f
000001e0: 567b b2be 27c4 d23d cf84 923e 43eb c73e
000001f0: 5712 053f 6c0e f0be 8075 90bd 460b 8dbb
00000200: b0ab 223e f368 263f 14f6 81be ec8e 4ebe
00000210: 38a3 bd3d ce2a c23e ac73 753f e4d1 1fbf
00000220: ef7d d6be 3cb3 c8be 60e9 35be f3ef 3e3d
00000230: 8e78 373e 9587 c03c 2f65 0abf 7c11 17bf
00000240: e405 bcbe 06a7 dc3d d460 803d f7d7 603e
00000250: b09a 063f 6c8c 3a3f 5cce 58be ebd5 acbe
00000260: 44eb 79be 98e0 f63e b2eb 273f 2d12 efbe
00000270: d243 8dbe 92ea d13a 6eb8 333e dbcb 0e3f
00000280: 4411 b6be 3caf 61bf 8c88 e5be 838d f8be
00000290: 9f67 99be 64b2 31bf 0864 e8be 0cf8 71be
000002a0: 80f5 ad3d 67dd 7f3e acae 97be fbde c0be
000002b0: 052a 8ebf da76 adbe 8055 663d 8104 07be
000002c0: 1508 26bd 5df5 9f3d 0f19 c33e 8396 003f
000002d0: 80b1 04bf 3e86 a0be 9a5e 9a3e 5d7e 273f
000002e0: e857 8f3f 8c19 53bf b65a 44bf 48f5 a9bd
000002f0: 2276 f73b 7d0e b73d 7710 c5be 60b7 51bf
00000300: 2733 48bf addd 13bf 6cac cdbe c066 a4be
00000310: fa4d 45bd bcc9 333e d8b7 ca3e 20b3 103f
00000320: 34c3 75bf b071 47bf 9995 c5be f3db ccbd
00000330: dc2e 763e 1227 083f 81f9 c73e 5dde 0bbe
00000340: 4cc2 c93d 481e 803d 3baa 10be 5441 a8be
00000350: a79d 9dbe 3767 a6be fc0f a9bd f6b0 703e
00000360: 0e90 1e3f 3b89 d1bd 2d2f 6cbe 90f3 8d3e
00000370: 498f c6be e8a3 29bf a71c 20bf 0cab 13bf
00000380: a70a bfbe bafd 70be 08c6 14be c5dc 543e
00000390: 848b c13e 2302 133f 0650 b73d 5e46 923e
000003a0: 098c bd3e a5e9 903e f758 bf3e 8284 b83e
000003b0: 1d3c 5e3e c5af 873e 2ddc 9d3e 35d9 c43e
000003c0: cdcf 15be 9a2a 57bf c265 43bf 0eda 1cbf
000003d0: a202 dbbe bbf9 cc3e 424b cc3e 2b57 1a3f
000003e0: bd95 573f 8710 003f 90d6 0b3e cd1a d33e
000003f0: 7099 db3e aff6 a93e 760d 01bd 3aab 053e

temporal_extractor.LSTM.lstm.weight_hh_l0 f4 [200, 50]
-0.35898507 0.29243067 -0.19245356 -0.5229236 -0.5407965 0.28855696 0.10330094 -0.3152728
0.06196094 0.35389674 0.011103972 -0.100276 0.20286551 -0.27305043 -0.5126266 0.48362607
0.06310088 0.10646693 0.055670895 -0.3843693 -0.08532062 -0.34644973 0.17431124 0.34672022
0.2619181 0.056436908 -0.37073386 -0.425868 -0.119124204 0.2747686 -0.25135693 0.46311724
0.32004642 0.0037630117 -0.1635887 0.04846983 0.28605542 0.25704187 0.07767284 0.041740067
0.5285357 0.1412204 0.15476228 0.06431481 -0.10208599 0.29203346 0.061057243 0.36728057
0.18958299 -0.041526396 -1.0891229 -0.29868189 -0.27118453 0.45130897 0.35557544 0.5413132
0.6450833 -0.07328523 0.27808535 1.1010098 -0.11025513 0.16328248 -0.8548333 -0.028954463
0.7203755 -0.17175439 -0.5602013 0.41068417 -0.78224856 0.7929287 -0.28972948 0.08900401
-0.26713645 0.72829634 0.48955917 -0.4676901 0.7414936 0.19637881 -0.3937552 1.2349384
-0.044617325 0.631239 -0.3114171 0.6748084 0.6120529 0.9252463 -0.101167485 -0.738345
0.019586354 -0.71200716 -0.27913624 0.7163215 0.38182417 0.36833873 0.9369477 -0.07336774
0.49066558 -0.058790173 -0.008762336 -0.45659885 0.58512706 -0.6757625 -0.29602498 -0.4510175
0.04362401 -0.09654481 0.17278245 0.5868534 -0.23359245 -0.24137148 -0.9675944 0.17188632
0.23108754 -0.29445058 -0.42082337 0.23284076 0.6441691 -0.09479853 0.92268527 -0.42950946
0.0565626 -0.13996544 0.28782362 0.35968596 0.21782097 -0.31203395 -0.54560053 -0.2800142
-0.106025495 -0.3809185 -0.7298753 0.0004523902 0.75773007 -0.18338867 -0.28642514 -0.15421823
-0.60459054 0.442909 0.34258637 0.37965113 -0.1759729 -0.15876384 0.09842588 -0.81113076
0.18169224 -0.0814262 0.07905389 -0.5243147 0.32391724 -0.025900189 -0.14062755 -0.6616315
-0.51464236 -0.9059662 -0.03267227 0.08763139 0.17973319 0.32116878 0.056698225 0.05625675
0.059917163 0.43028882 0.4743647 -0.02751884 0.20272286 0.73555624 0.52668566 0.31760487
0.08878358 -0.29536274 -0.37013802 -0.06884322 0.14737289 0.68596303 0.42152557 0.6424816
-0.4116687 -0.20476998 -0.0116666965 -0.03297219 -0.44816163 0.015681807 0.4280689 0.095067464
-0.52339524 0.27798498 0.64006716 0.43113482 -0.018698888 0.5754082 0.616337 0.2749103
-0.25068805 0.06806724 0.12770985 -0.06471118 0.06618646 0.35790318 0.31131512 -0.07324983
-1.3763149 -0.082768686 0.76143724 0.06425811 0.2119637 0.69208765 1.1056949 0.20928437
0.46897212 0.86673874 -0.40317455 0.5155771 -0.4904247 -0.41457197 -0.048016302 -0.30183518
1.1628705 -0.19035716 -0.49200657 0.15338658 -0.7328266 0.13237488 0.12816171 0.8899995
-0.42837495 0.011954202 0.6390624 -0.16027616 -1.0129933 1.4004725 -0.6538622 0.9375756
-0.2515169 0.20438187 0.5296937 1.1130184 -0.4445777 -0.5300854 -0.9735235 0.15915455
-0.12092644 1.4375033 0.48965046 -0.35847571 0.040401697 0.7670106 0.9341263 0.63073826
0.28334945 -0.67841506 -0.4996161 0.4392735 0.29475945 0.8685632 0.06371603 -0.006674314
00000000: e4cc b7be 79b9 953e 8c12 45be 52de 05bf
00000010: a471 0abf bdbd 933e 718f d33d 706b a1be
00000020: c1ca 7d3d f431 b53e 6fed 353c 815d cdbd
00000030: fabb 4f3e 44cd 8bbe 7f3b 03bf d69d f73e
00000040: 093b 813d 550b da3d 2a07 643d 0ecc c4be
00000050: 94bc aebd dc61 b1be a57e 323e 5085 b13e
00000060: 211a 863e 632a 673d d4d0 bdbe 5f0b dabe
00000070: 64f7 f3bd 78ae 8c3e dbb1 80be b41d ed3e
00000080: 20dd a33e dc9c 763b cc83 27be 4d88 463d
00000090: db75 923e fe9a 833e f012 9f3d a2f7 2a3d
000000a0: 1e4e 073f 159c 103e 017a 1e3e 7cb7 833d
000000b0: 7612 d1bd 6985 953e 2917 7a3d 330c bc3e
000000c0: 0b22 423e 9517 2abd 6168 8bbf d5ec 98be
000000d0: b3d8 8abe f811 e73e fc0d b63e 8093 0a3f
000000e0: 2e24 253f 9116 96bd 3461 8e3e e4ed 8c3f
000000f0: 71cd e1bd 8633 273e 5bd6 5abf e931 edbc
00000100: 876a 383f 62e0 2fbe 5a69 0fbf 3245 d23e
00000110: 7141 48bf 60fd 4a3f 6c57 94be bc47 b63d
00000120: 1cc6 88be a171 3a3f 80a7 fa3e 1475 efbe
00000130: 86d2 3d3f 8717 493e 489a c9be 7612 9e3f
00000140: a8c0 36bd e198 213f 1072 9fbe 3ec0 2c3f
00000150: 80af 1c3f f1dc 6c3f e630 cfbd 2e04 3dbf
00000160: 9073 a03c 1a46 36bf f2ea 8ebe d960 373f
00000170: 757e c33e e596 bc3e cedb 6f3f d341 96bd
00000180: 8538 fb3e f7cd 70bd e78f 0fbc 53c7 e9be
00000190: e3ca 153f c5fe 2cbf 9690 97be c4eb e6be
000001a0: 17af 323d 49b9 c5bd e2ed 303e 063c 163f
000001b0: dc32 6fbe 162a 77be 44b4 77bf f802 303e
000001c0: 36a2 6c3e 3ac2 96be 2976 d7be cf6d 6e3e
000001d0: 44e8 243f bb25 c2bd 1a35 6c3f aae8 dbbe
000001e0: 2fae 673d 1a53 0fbe 9e5d 933e c228 b83e
000001f0: 760c 5f3e eac2 9fbe 7aac 0bbf 055e 8fbe
00000200: e523 d9bd c007 c3be 1cd9 3abf c92e ed39
00000210: 99fa 413f 3dca 3bbe 51a6 92be 62eb 1dbe
00000220: 72c6 1abf f8c4 e23e 7b67 af3e a261 c23e
00000230: 3d32 34be fd92 22be 8293 c93d 44a6 4fbf
00000240: 880d 3a3e c8c2 a6bd 02e7 a13d 7d39 06bf
00000250: 7bd8 a53e a22c d4bc ab00 10be af60 29bf
00000260: 9abf 03bf 67ed 67bf 5cd3 05bd 1678 b33d
00000270: fa0b 383e 3c70 a43e 663c 683d 7a6d 663d
00000280: b36b 753d d14e dc3e eedf f23e 316f e1bc
00000290: 9596 4f3e 6a4d 3c3f dfd4 063f 1b9d a23e
000002a0: 2ad4 b53d c939 97be bb82 bdbe adfd 8cbd
000002b0: ebe8 163e 469b 2f3f 33d2 d73e ad79 243f
000002c0: 3dc6 d2be 39af 51be ac25 3fbc d90d 07bd
000002d0: 7175 e5be 2277 803c d92b db3e bbb2 c23d
000002e0: 3bfd 05bf 0c54 8e3e 71db 233f b4bd dc3e
000002f0: 692e 99bc f44d 133f 43c8 1d3f 0bc1 8c3e
00000300: 2f5a 80be d666 8b3d 5fc6 023e 4c87 84bd
00000310: c48c 873d 163f b73e b264 9f3e 0204 96bd
00000320: 162b b0bf a182 a9bd 8ded 423f c299 833d
00000330: 030d 593e a82c 313f 6987 8d3f a44e 563e
00000340: 1d1d f03e 97e2 5d3f e56c cebe dcfc 033f
00000350: f218 fbbe c742 d4be beac 44bd 248a 9abe
00000360: f1d8 943f fdec 42be 49e8 fbbe 5f11 1d3e
00000370: 869a 3bbf 488d 073e d33c 033e 02d7 633f
00000380: f653 dbbe 8fdb 433c 9899 233f 6f1f 24be
00000390: c4a9 81bf af42 b33f 8363 27bf f404 703f
000003a0: d3c6 80be 7b49 513e 029a 073f 6377 8e3f
000003b0: b09f e3be adb3 07bf d638 79bf 69f9 223e
000003c0: 48a8 f7bd 1c00 b83f 77b3 fa3e 218a b7be
000003d0: 407c 253d cf5a 443f e722 6f3f 1078 213f
000003e0: 2e13 913e 9cac 2dbf aecd ffbe 75e8 e03e
000003f0: b6ea 963e 285a 5e3f 8d7d 823d 34b4 dabb

temporal_extractor.LSTM.lstm.bias_ih_l0 f4 [200]
0.43009913 -0.8174083 0.6012232 0.2878186 -0.34629256 -0.60479504 0.05969787 -0.0027631244
-0.32348022 0.51982534 1.5611444 -0.0107722655 -0.40365192 -1.0086315 0.60521007 1.0558447
0.10751886 0.3681721 0.353279 -0.010842618 -0.5156611 0.41406867 -0.28472403 0.15447782
-0.49700767 0.060603477 -0.3634203 -0.11933439 0.13384114 -0.6206517 0.43023926 -0.6284258
-0.32328722 0.079743944 -0.57045656 0.31239855 0.13789092 0.022000378 -0.027239911 0.3772557
0.13736445 -0.13884604 0.6571547 -0.7879246 0.14515464 0.006161682 0.4410419 0.29558346
-0.053737897 -0.34059134 -0.84093636 0.34416717 0.04103327 -0.7727019 -0.6869633 -0.14678319
-0.053057116 -0.68534464 -0.050871324 0.9183379 0.31922922 -0.0788122 0.46291146 0.27150074
-0.50250924 0.9001783 -0.24513648 0.5155942 0.6856338 0.16091743 -0.35329705 0.07127844
0.14354308 0.27769583 0.6407056 -0.091173634 0.23933709 0.024760285 0.5006175 -0.16825011
-0.4667055 0.3212768 -0.7072408 -0.5108948 0.5205758 -0.50527185 0.39780393 0.9137425
0.40710983 -0.33486593 -0.36045673 -0.32351613 0.5117685 0.15327303 0.38026744 0.61499757
-0.6189974 0.23749532 0.49395514 -0.47272083 0.46628463 -0.51263297 -0.08776128 -0.13502374
1.3360562 0.17790751 0.1899989 -0.77267903 -0.35479498 -0.5377187 0.3072466 0.50919217
0.46069196 0.018083192 -0.2588946 0.79080033 0.070779674 -0.34311625 0.46796557 -0.8109545
-0.19023886 -0.1413693 0.57376593 0.3768255 0.6048259 0.118818976 -0.8176817 -0.4340716
0.4764565 -0.6676845 0.09661359 -0.36978492 0.56044465 -0.14515135 -0.68791264 0.3179992
0.40382496 0.93089104 -0.0376106 0.49000636 0.66937023 -0.22193891 -0.32770333 -0.3665146
0.42130712 0.2222782 0.107736945 0.55328 0.43902788 0.106533 0.08313313 -0.63213587
-0.3666165 0.3053271 0.06495444 0.009500786 -0.1746607 0.472236 0.341965 0.10221282
0.8076431 -0.48220003 -0.38048726 -0.15133768 -0.3365964 -0.056443278 0.73268455 0.1673573
0.04001895 0.6221835 0.9574054 -0.10693509 -0.29666564 -0.9143147 -0.8061973 -0.11151191
0.34549162 -0.15543135 -0.06309176 0.830493 0.52022254 0.51557106 -1.0962726 0.40712395
-0.60987246 0.05629998 -0.16372627 0.6033573 -0.37593338 0.22961444 -0.2772908 -0.1881246
-0.74057335 0.515958 -0.010228079 0.4491249 -0.8089524 -0.06044827 -1.3440785 -0.76861423
00000000: f435 dc3e ac41 51bf c3e9 193f f65c 933e
00000010: 424d b1be d9d3 1abf c185 743d 8915 35bb
00000020: 339f a5be 4613 053f 94d3 c73f 287e 30bc
00000030: 77ab cebe d61a 81bf 0cef 1a3f eb25 873f
00000040: d932 dc3d 0e81 bc3e fce0 b43e 3ca5 31bc
00000050: 5e02 04bf cf00 d43e 59c7 91be 6f2f 1e3e
00000060: ca77 febe 5a3b 783d 3a12 babe 9765 f4bd
00000070: a70d 093e 08e3 1ebf 5248 dc3e 83e0 20bf
00000080: e785 a5be cb50 a33d 7109 12bf b4f2 9f3e
00000090: 4733 0d3e 233a b43c 3c26 dfbc a927 c13e
000000a0: 44a9 0c3e a82d 0ebe 4a3b 283f 6db5 49bf
000000b0: 6ba3 143e efe7 c93b 3ed0 e13e b756 973e
000000c0: 451c 5cbd fd61 aebe 9b47 57bf ae36 b03e
000000d0: 8112 283d cbcf 45bf d4dc 2fbf 554e 16be
000000e0: 6b52 59bd bf72 2fbf 735e 50bd 3118 6b3f
000000f0: 0372 a33e 4a68 a1bd bb02 ed3e 2502 8b3e
00000100: 72a4 00bf 1672 663f 0f05 7bbe fbfd 033f
00000110: b285 2f3f 8ac7 243e 5ae3 b4be 6efa 913d
00000120: f5fc 123e 262e 8e3e 4805 243f 3eb9 babd
00000130: c814 753e 15d6 ca3c 7828 003f c249 2cbe
00000140: 06f4 eebe 657e a43e bc0d 35bf 00ca 02bf
00000150: 7544 053f 7f59 01bf f5ac cb3e 07eb 693f
00000160: b370 d03e 8c73 abbe c98d b8be e8a3 a5be
00000170: 4303 033f 9bf3 1c3e 6ab2 c23e 7b70 1d3f
00000180: 9d76 1ebf f931 733e b0e7 fc3e 7708 f2be
00000190: dcbc ee3e ea3b 03bf 30bc b3bd aa43 0abe
000001a0: e403 ab3f 632d 363e 128f 423e 4bce 45bf
000001b0: b0a7 b5be efa7 09bf 6d4f 9d3e 6b5a 023f
000001c0: d1df eb3e 3423 943c d58d 84be e471 4a3f
000001d0: eff4 903d efac afbe 2f99 ef3e b79a 4fbf
000001e0: facd 42be 1dc3 10be 53e2 123f 46ef c03e
000001f0: dfd5 1a3f 5d57 f33d 9753 51bf a23e debe
00000200: 1bf2 f33e 5fed 2abf 59dd c53d 7354 bdbe
00000210: 4d79 0f3f 8ea2 14be 0b1b 30bf cbd0 a23e
00000220: 25c2 ce3e e04e 6e3f 930d 1abd 1de2 fa3e
00000230: d95b 2b3f f443 63be bbc8 a7be cda7 bbbe
00000240: 91b5 d73e e59c 633e 30a5 dc3d c2a3 0d3f
00000250: 43c8 e03e f92d da3d b441 aa3d a8d3 21bf
00000260: 28b5 bbbe d553 9c3e d506 853d 2fa9 1b3c
00000270: 41da 32be ebc8 f13e 0916 af3e f454 d13d
00000280: b3c1 4e3f ece2 f6be 3acf c2be 44f8 1abe
00000290: 5d56 acbe 1131 67bd 3791 3b3f b65f 2b3e
000002a0: e9ea 233d 6b47 1f3f 8518 753f c900 dbbd
000002b0: 8fe4 97be 8710 6abf f262 4ebf 5b60 e4bd
000002c0: 47e4 b03e 6529 1fbe 4136 81bd 309b 543f
000002d0: 4e2d 053f 77fc 033f a952 8cbf 8d72 d03e
000002e0: 9a20 1cbf cf9a 663d dca7 27be a075 1a3f
000002f0: 577a c0be 0c20 6b3e 0ff9 8dbe bca3 40be
00000300: 3796 3dbf d315 043f ac93 27bc b3f3 e53e
00000310: 8117 4fbf 9b98 77bd c40a acbf e7c3 44bf

temporal_extractor.LSTM.lstm.bias_hh_l0 f4 [200]
0.26109648 -0.7968963 0.39764023 0.33616662 -0.24713193 -0.5363561 0.10148283 0.11238336
-0.25883192 0.54560286 1.4747908 -0.07126345 -0.36670405 -1.0036069 0.6744274 1.0555707
0.18652713 0.2344995 0.24605787 -0.010129925 -0.4541599 0.4888931 -0.31374088 0.14238782
-0.29075512 -0.10463089 -0.15751508 -0.14550316 0.21695638 -0.59846556 0.32630217 -0.48021773
-0.39682102 -0.15509601 -0.49945652 0.4190029 0.26089844 0.06561838 -0.008911307 0.34047467
0.22551535 -0.11028131 0.6898107 -0.5859825 -0.06850415 0.06950662 0.5605576 0.36706313
-0.23602685 -0.3969677 -0.84322846 0.2455976 0.15515302 -0.60718626 -0.7156011 -0.13507685
-0.14608441 -0.7737477 -0.15849796 0.92833656 0.1813861 0.09226756 0.22037314 0.14883597
-0.35615203 0.97970456 -0.43104208 0.41740906 0.86433744 0.26787207 -0.37306842 0.28081232
0.20451963 0.26391697 0.6422419 -0.029350631 0.2368623 0.1200467 0.4162501 -0.15279846
-0.41452312 0.14481153 -0.8556478 -0.53324634 0.44755062 -0.24773315 0.4747303 1.0385801
0.36704633 -0.19797242 -0.3790893 -0.39926076 0.64117074 0.1266213 0.29967165 0.5704899
-0.43430963 0.24339075 0.64502126 -0.67288667 0.4032751 -0.34275797 -0.21811146 -0.18560413
1.1943382 0.3297038 0.22413902 -0.6210272 -0.2719434 -0.49323368 0.30473775 0.5862016
0.29647654 -0.21475388 -0.4578444 0.69567454 0.0846219 -0.2579496 0.22797179 -0.7512401
-0.28295055 -0.19131821 0.56343913 0.121804945 0.7949641 0.38933688 -0.7766193 -0.55191773
0.34430605 -0.72784287 0.048791464 -0.5368532 0.45991698 0.0005060234 -0.5336865 0.1492206
0.5336494 1.1141111 -0.22421244 0.5550078 0.7757914 -0.27097246 -0.3039183 -0.42947805
0.6182138 0.09654047 0.17734148 0.5024396 0.627392 0.05373939 0.084373206 -0.6101859
-0.5143048 0.4756646 0.05623052 -0.07142279 -0.2134298 0.6121163 0.30834815 0.047507133
0.82133555 -0.5273799 -0.46619242 -0.13431935 -0.29281926 0.14988776 0.5707229 0.2198844
-0.06584049 0.39133418 0.8836982 -0.14190671 -0.33937216 -0.81491655 -0.8140156 0.018250905
0.43712908 -0.3497147 -0.049926918 0.75659806 0.70988095 0.5966404 -1.2208126 0.26751766
-0.50513977 0.0070282924 -0.1468928 0.5877976 -0.14696023 0.14499976 -0.3346715 -0.1174222
-0.5469846 0.44181767 -0.06961371 0.5648549 -0.70859236 -0.020944443 -1.4117864 -0.6422793
00000000: 70ae 853e 6501 4cbf 8097 cb3e 081e ac3e
00000010: 2710 7dbe a24e 09bf 3bd6 cf3d 3f29 e63d
00000020: 9e85 84be a1ac 0b3f f2c5 bc3f 92f2 91bd
00000030: a2c0 bbbe 3176 80bf 46a7 2c3f f11c 873f
00000040: f800 3f3e a320 703e 98f6 7b3e fcf7 25bc
00000050: a587 e8be 3250 fa3e a5a2 a0be 1dce 113e
00000060: dbdd 94be b848 d6bd a24b 21be c8fe 14be
00000070: d029 5e3e 0a35 19bf 1411 a73e 19df f5be
00000080: 202c cbbe 7dd1 1ebe c4b8 ffbe 8c87 d63e
00000090: 7b94 853e ee62 863d bb00 12bc b252 ae3e
000000a0: 7fed 663e 2bdb e1bd 6f97 303f f302 16bf
000000b0: e74b 8cbd 7d59 8e3d b480 0f3f b3ef bb3e
000000c0: 06b1 71be 5a3f cbbe d2dd 57bf f07d 7b3e
000000d0: 6fe0 1e3e 8f70 1bbf a231 37bf 9651 0abe
000000e0: 2797 15be 5414 46bf 4a4d 22be 77a7 6d3f
000000f0: 47bd 393e c6f6 bc3d 7fa9 613e 7568 183e
00000100: 8f59 b6be ebcd 7a3f 8cb1 dcbe a4b6 d53e
00000110: 3845 5d3f 8726 893e d302 bfbe a2c6 8f3e
00000120: 986d 513e 2020 873e f769 243f bc70 f0bc
00000130: 088c 723e 0bdb f53d bc1e d53e 3377 1cbe
00000140: 603c d4be 7949 143e bc0b 5bbf d582 08bf
00000150: 5b25 e53e c2ad 7dbe da0f f33e 31f0 843f
00000160: 7fed bb3e 48b9 4abe fe17 c2be e86b ccbe
00000170: c423 243f 04a9 013e 906e 993e a00b 123f
00000180: d55d debe 6d3b 793e 1d20 253f 4d42 2cbf
00000190: 137a ce3e f97d afbe 9c58 5fbe 020f 3ebe
000001a0: 13e0 983f f0ce a83e b384 653e a3fb 1ebf
000001b0: 2a3c 8bbe 2089 fcbe 9606 9c3e 4f11 163f
000001c0: c6cb 973e 71e8 5bbe 956a eabe ba17 323f
000001d0: 3f4e ad3d f811 84be 7071 693e 4551 40bf
000001e0: e5de 90be ece8 43be 8c3d 103f df74 f93d
000001f0: c482 4b3f 2a57 c73e 86d0 46bf 7b4a 0dbf
00000200: e248 b03e e953 3abf 8fd9 473d 366f 09bf
00000210: 3d7a eb3e a8a6 043a ae9f 08bf 49cd 183e
00000220: 3f9d 083f 319b 8e3f f297 65be fe14 0e3f
00000230: 449a 463f e7bc 8abe 2e9b 9bbe 8ce4 dbbe
00000240: 4243 1e3f 03b7 c53d 0199 353e e29f 003f
00000250: c39c 203f d61d 5c3d dccb ac3d 2535 1cbf
00000260: 7ba9 03bf 4f8a f33e f951 663d 1d46 92bd
00000270: 578d 5abe a7b3 1c3f cfdf 9d3e d796 423d
00000280: 0c43 523f 5e02 07bf c6b0 eebe 038b 09be
00000290: 68ec 95be 2d7c 193e e51a 123f 6029 613e
000002a0: 61d7 86bd f45c c83e 0c3a 623f fe4f 11be
000002b0: 30c2 adbe 5f9e 50bf 5463 50bf ec82 953c
000002c0: 62cf df3e ce0d b3be 2b80 4cbd 69b0 413f
000002d0: c2ba 353f 6dbd 183f 9643 9cbf 13f8 883e
000002e0: d750 01bf 974d e63b 116b 16be e779 163f
000002f0: be7c 16be d17a 143e 105a abbe 0d7b f0bd
00000300: 2f07 0cbf ed35 e23e a291 8ebd 559a 103f
00000310: 4f66 35bf ae93 abbc 6bb5 b4bf 6b6c 24bf

regressor.FC_1.linear.weight f4 [25, 50]
0.104590006 -0.0028320814 0.2955135 0.26686198 -0.026120702 -0.041204803 0.20457311 0.066723414
0.17790432 0.29461464 -0.30839112 0.2796929 0.12151244 -0.35009354 -0.1606795 -0.15440458
0.16959555 -0.22391981 -0.20036222 -0.24777104 -0.14582378 -0.53605694 -0.04307448 0.5662167
-0.2732439 -0.8761399 -0.28356054 0.3618377 -0.360393 -0.08780549 -0.03474051 -0.0040881857
-0.032574546 0.051899366 -0.01749538 0.107480355 0.557529 0.538351 0.018823199 0.06832659
0.20143771 -0.50079596 0.45085746 -0.111113824 0.059762448 0.10304939 0.27767184 0.018583959
-0.24258362 -0.20037237 -0.23222293 0.61510223 0.49010378 -0.070590705 -0.24885623 -0.4621302
-0.035038628 0.33083114 0.21505822 0.39360458 -0.14859238 0.02524883 -0.7908078 -0.20350038
-0.004624714 -0.6958384 0.08596452 -0.06175094 0.6433395 0.16425054 -0.23924583 0.08754174
0.009032665 0.23888999 -0.23344697 0.23462027 0.23708604 0.5480329 -0.19662912 0.1527447
-0.43004346 0.80017763 -0.09115438 0.060306627 0.5576053 0.12613027 -0.0154555775 -0.3740406
0.1296614 -0.13601544 -0.4388175 0.91106284 0.2232522 -0.32163677 -1.0365374 -0.057292547
0.1680358 0.5786764 -0.24921227 0.2691369 0.2090527 -0.033065084 0.31419292 0.2845277
-0.20249155 0.12234004 0.06519912 0.14584704 0.33862424 0.5172433 -0.6099699 0.04611268
-0.018556904 -0.26836646 0.07216299 -0.16870567 0.04265234 -0.27285835 -0.22490828 -0.14591694
-0.25833115 -0.6252267 0.059030417 0.663312 0.15096124 -0.6312704 -0.20876902 0.26233232
-0.47871423 0.11999293 -0.17542551 -0.03384963 0.0747066 0.007802736 0.14436871 0.17094094
0.44795978 0.5005836 -0.20780775 -0.029518347 0.04711864 -0.48679438 0.55397826 -0.122022435
0.22845897 0.24094997 0.36934114 0.08473418 -0.19377418 -0.2504112 0.13919762 0.10926826
0.49509162 0.47840768 -0.3158914 -0.15569788 0.2575756 0.24573317 0.3712613 0.5677632
-0.58859676 -0.09129928 -0.14417395 -0.39614856 -0.00061651197 -0.097726434 -0.14155906 -0.2944846
-0.32151678 -0.10036389 0.053491786 -0.6306647 -0.101426855 0.57138085 0.06082365 -0.6808081
-0.3628495 0.19700985 -0.51080304 0.12480047 0.08109483 0.1825333 -0.06067709 0.0019795718
0.27449507 0.07716491 0.46483856 0.28341374 -0.027551735 -0.07593013 -0.18398239 -0.34974548
0.7052817 -0.039576612 0.083038025 0.2881754 0.06394383 -0.024234287 -0.0085403165 -0.105430104
-0.14451261 0.87417996 0.2954454 0.35490024 -0.50095344 -0.43549618 -0.21624163 0.12074638
-0.019769417 0.4708308 -0.30271128 0.3847849 -0.56811374 -0.020248367 0.097036004 -0.30670384
0.5319548 0.054385386 0.50598776 0.46764958 -0.072361834 0.018548368 -0.13240646 0.15794782
-0.61802644 -0.08867693 0.1512546 0.5692981 -0.0812275 0.14605802 0.007267026 0.6224465
-0.13557984 0.16949624 0.63781685 0.1786313 -0.30587965 -0.24919999 0.026296627 -0.15266249
-0.5591613 1.0060965 0.12033659 -0.07075509 -0.69889313 -0.069793604 0.28720215 0.33300883
-0.4307253 -0.16580231 0.11614309 0.13157862 0.4851633 0.45271057 -0.10512332 -0.0949526
00000000: 4933 d63d 719a 39bb 8c4d 973e 22a2 883e
00000010: 15fb d5bc 5ec6 28bd 9d7b 513e 49a6 883d
00000020: 8d2c 363e bbd7 963e 71e5 9dbe e833 8f3e
00000030: 84db f83d 763f b3be 2b89 24be 3c1c 1ebe
00000040: 75aa 2d3e 3c4b 65be c12b 4dbe b1b7 7dbe
00000050: d452 15be 073b 09bf de6e 30bd 94f3 103f
00000060: a0e6 8bbe b44a 60bf d92e 91be ca42 b93e
00000070: 6e85 b8be 5dd3 b3bd 114c 0ebd 30f6 85bb
00000080: e36c 05bd 6e94 543d 7952 8fbc a91e dc3d
00000090: 38ba 0e3f 5fd1 093f 1c33 9a3c d0ee 8b3d
000000a0: b045 4e3e 2a34 00bf cad6 e63e a58f e3bd
000000b0: 78c9 743d 8f0b d33d 012b 8e3e 633d 983c
000000c0: d767 78be 6a2e 4dbe d9cb 6dbe 5777 1d3f
000000d0: e2ee fa3e dc91 90bd 2bd4 7ebe 549c ecbe
000000e0: aa84 0fbd b362 a93e 3938 5c3e 8a86 c93e
000000f0: 9a28 18be a2d6 ce3c 6172 4abf 6762 50be
00000100: ea8a 97bb 7722 32bf 2b0e b03d 8eee 7cbd
00000110: e6b1 243f 4b31 283e dcfc 74be 1549 b33d
00000120: befd 133c 949f 743e b90c 6fbe 4c40 703e
00000130: afc6 723e e24b 0c3f 2559 49be 1b69 1c3e
00000140: a82e dcbe 71d8 4c3f 26af babd 1504 773d
00000150: 39bf 0e3f 4b28 013e 6439 7dbc 4082 bfbe
00000160: f5c5 043e a247 0bbe b0ac e0be 6a3b 693f
00000170: 3a9c 643e 93ad a4be 42ad 84bf 97ab 6abd
00000180: 9411 2c3e 2324 143f 8031 7fbe 50cc 893e
00000190: e911 563e 416f 07bd e5dd a03e 9dad 913e
000001a0: f259 4fbe 6a8d fa3d 1e87 853d ed58 153e
000001b0: 2860 ad3e 0f6a 043f fd26 1cbf a6e0 3c3d
000001c0: a604 98bc 5467 89be 31ca 933d 2ec1 2cbe
000001d0: 38b4 2e3d 17b4 8bbe 5b4e 66be 406b 15be
000001e0: fb43 84be db0e 20bf e1c9 713d d1ce 293f
000001f0: 9595 1a3e f09a 21bf 8cc7 55be 6c50 863e
00000200: 081a f5be dabe f53d bfa2 33be e9a5 0abd
00000210: c6ff 983d 18ae ff3b 64d5 133e 240b 2f3e
00000220: fc5a e53e 3f26 003f 8ecb 54be 76d0 f1bc
00000230: 7aff 403d 1d3d f9be 85d1 0d3f e6e6 f9bd
00000240: 26f1 693e 97bb 763e 481a bd3e 1d89 ad3d
00000250: bd6c 46be e635 80be d289 0e3e 0ac8 df3d
00000260: a67c fd3e daf1 f43e 85bc a1be 446f 1fbe
00000270: f3e0 833e 7aa1 7b3e f615 be3e ee58 113f
00000280: 47ae 16bf 1efb babd 56a2 13be fcd3 cabe
00000290: 6b9d 21ba cc24 c8bd dcf4 10be afc6 96be
000002a0: d99d a4be 958b cdbd 341a 5b3d 3e73 21bf
000002b0: e2b8 cfbd 0446 123f 3822 793d 7149 2ebf
000002c0: 69c7 b9be f3bc 493e fdc3 02bf 6497 ff3d
000002d0: 0c15 a63d 02ea 3a3e 8a88 78bd b4bb 013b
000002e0: 9e8a 8c3e a308 9e3d 52ff ed3e 9b1b 913e
000002f0: 2db4 e1bc 4281 9bbd e165 3cbe d711 b3be
00000300: 578d 343f 161b 22bd d70f aa3d ba8b 933e
00000310: fcf4 823d fc86 c6bc afec 0bbc bdeb d7bd
00000320: 1dfb 13be 42ca 5f3f 9f44 973e 7cb5 b53e
00000330: 7c3e 00bf 5bf9 debe 726e 5dbe e149 f73d
00000340: 79f3 a1bc bc10 f13e f9fc 9abe 8702 c53e
00000350: e76f 11bf e7df a5bc d0ba c63d 4908 9dbe
00000360: 312e 083f 36c3 5e3d 6a88 013f c46f ef3e
00000370: 7132 94bd bff2 973c 8f95 07be 13bd 213e
00000380: fb36 1ebf 409c b5bd 7ce2 1a3e 85bd 113f
00000390: 9b5a a6bd 3c90 153e 3c20 ee3b a758 1f3f
000003a0: 71d5 0abe 6c90 2d3e f747 233f 20eb 363e
000003b0: 429c 9cbe 482e 7fbe 066c d73c 8e53 1cbe
000003c0: 3225 0fbf c5c7 803f 0873 f63d 0be8 90bd
000003d0: a9ea 32bf f3ef 8ebd 290c 933e 2280 aa3e
000003e0: 0788 dcbe 15c8 29be 6edc ed3d 8cbc 063e
000003f0: 5367 f83e aec9 e73e e54a d7bd 8276 c2bd

regressor.FC_1.linear.bias f4 [25]
0.90597874 0.31486544 0.7028543 0.8085081 0.28071722 0.7804991 0.41679657 0.79386234
0.81981283 0.48395965 0.65319496 0.88263804 0.38844895 0.1117556 0.27687773 -0.12681863
0.3756003 0.7704157 0.7437303 0.16971003 -0.15759918 0.700844 0.048628777 0.64245826
0.061257057
00000000: 39ee 673f 0b36 a13e 42ee 333f 63fa 4e3f
00000010: 2bba 8f3e cace 473f 5c66 d53e 903a 4b3f
00000020: 41df 513f 8fc9 f73e c937 273f 91f4 613f
00000030: c8e2 c63e 1fe0 e43d ebc2 8d3e bedc 01be
00000040: af4e c03e f739 453f 1c65 3e3f 77c8 2d3e
00000050: ae61 21be 836a 333f f82e 473d 2578 243f
00000060: aee8 7a3d

regressor.FC_2.linear.weight f4 [12, 25]
-0.036583688 -0.25747228 -0.3615308 -0.3082595 -0.4276573 -0.21765077 -0.30049583 -0.10167776
-0.42579865 -0.73457456 -0.8341367 -0.4147649 -0.16795965 -0.47070277 -0.42184514 0.03416208
-0.05849633 -0.21637301 0.017861772 -0.6541196 -0.10641111 -0.6981318 -0.3898386 -0.48376584
-0.31298906 -0.23724689 -0.41447723 -0.2523715 -0.15259913 -0.34312522 -0.092595525 -0.4352396
0.08789188 -0.08267177 -0.3612258 -0.6178321 -0.2896521 -0.19223414 -0.29409325 -0.3445481
0.029464513 -0.22195618 -0.44553822 -0.25594336 -0.5811207 -0.10680421 -0.37321392 -0.3354761
-0.61366683 -0.19368751 -0.23746935 -0.38595137 -0.31949225 -0.13031076 -0.4669979 -0.24805108
-0.33647737 -0.31762287 -0.44760942 -0.51536316 -0.5477783 -0.29409146 0.009772126 -0.31008264
-0.19684963 0.0033531226 -0.19034588 -0.4528482 -0.26467076 -0.50257546 -0.04528936 -0.48738074
-0.5243518 -0.6849465 -0.07908246 -0.032502767 -0.30811787 -0.017627874 -0.50410295 -0.41225794
-0.19631542 -0.13866286 -0.057412695 -0.16212082 -0.36114898 -0.41552702 -0.21777487 -0.28063813
-0.2654487 -0.16644561 -0.09406749 -0.13977608 -0.3507177 -0.2520836 -0.5791265 0.12907508
-0.584435 -0.34137133 -0.42362812 -0.31630367 0.26611587 0.36196893 0.05833046 0.38790733
0.2791518 0.29578942 0.5060084 0.21652493 0.24277455 0.52897567 0.7799595 0.1449281
0.009576182 0.46850574 0.3207759 0.18307061 0.28656194 0.18757506 0.14094049 0.7446136
-0.110019684 0.5006762 0.48805094 0.67467123 0.31518593 -0.068230286 -0.5572096 -0.23626758
-0.17120261 -0.1982511 -0.16259827 -0.13438231 -0.04431458 -0.09957138 -0.36700773 -0.38788053
-0.34628382 0.03518578 -0.56940216 -0.3014547 0.029912917 -0.093170494 -0.38888413 -0.05565583
-0.5543786 0.1711887 -0.32462394 -0.17119366 -0.4703342 -0.13798708 -0.2720907 -0.5635432
-0.2974991 -0.37900114 -0.39767045 -0.17493306 -0.25029564 -0.18546036 -0.27188912 -0.52780473
-0.67314726 -0.37560788 -0.37026155 -0.5630522 -0.37576807 0.12190604 -0.11742658 -0.16392072
-0.021161238 -0.53475875 -0.25128138 -0.80762106 -0.12929137 -0.5011492 -0.030227896 0.17275816
0.47747356 0.0025007299 0.348035 0.585908 0.005136114 0.25902236 0.34415472 0.13468151
0.6011222 0.5727403 0.24613057 0.32378298 0.30082086 0.65925074 -0.0009769712 0.15247704
0.29701307 0.17823419 0.5991571 0.015293564 0.557235 0.5251649 0.62373126 0.30522487
0.36028376 0.43126035 0.10279989 0.47124028 0.2272923 0.07638307 0.2367234 0.111778796
0.38968137 0.6657508 0.7373381 0.13504104 0.15992554 0.29979244 0.4780818 -0.14418754
0.17573859 0.25461346 0.3092599 0.45546487 0.08692037 0.6582544 0.3991892 0.34176105
0.20689408 0.0135144405 0.42860907 0.2828617 0.24541979 0.24554043 0.18297859 0.35201764
0.11967333 0.263101 0.5820753 0.55501837 0.33979708 0.14864798 0.35404018 0.24995649
0.10442886 0.14699516 0.45411515 0.06530508 0.4339941 -0.018249998 0.5793936 0.44551197
0.40181956 -0.008101395 0.025449805 0.4219175 -0.040555943 0.34337264 0.4106764 0.19188645
00000000: c7d8 15bd 68d3 83be 911a b9be 30d4 9dbe
00000010: e6f5 dabe d8df 5ebe 97da 99be 6e3c d0bd
00000020: 4802 dabe 140d 3cbf fc89 55bf 115c d4be
00000030: 9dfd 2bbe f4ff f0be 16fc d7be 8aed 0b3d
00000040: d999 6fbd e390 5dbe da52 923c 6274 27bf
00000050: 11ee d9bd c4b8 32bf ed98 c7be 28b0 f7be
00000060: 1a40 a0be d9f0 72be 5c36 d4be d636 81be
00000070: f242 1cbe 1cae afbe b9a2 bdbd bad7 debe
00000080: a800 b43d d14f a9bd 97f2 b8be 3f2a 1ebf
00000090: 484d 94be 07d9 44be 6493 96be 9c68 b0be
000000a0: 905f f13c 7b48 63be 961d e4be 020b 83be
000000b0: 54c4 14bf 2abc dabd e515 bfbe 86c3 abbe
000000c0: 4519 1dbf 0556 46be 2a2b 73be 6b9b c5be
000000d0: 7d94 a3be 2f70 05be 591a efbe 1a01 7ebe
000000e0: c346 acbe 779f a2be 102d e5be d7ee 03bf
000000f0: 333b 0cbf 2893 96be 441b 203c 27c3 9ebe
00000100: f392 49be 10c0 5b3b 08ea 42be b8db e7be
00000110: ed82 87be c9a8 00bf 5681 39bd f889 f9be
00000120: eb3b 06bf a758 2fbf fcf5 a1bd 9f21 05bd
00000130: a0c1 9dbe 5568 90bc e40c 01bf 7913 d3be
00000140: e906 49be a3fd 0dbe 9329 6bbd 0003 26be
00000150: 85e8 b8be f5bf d4be 6000 5fbe cdaf 8fbe
00000160: e4e8 87be b870 2abe 75a6 c0bd 7621 0fbe
00000170: 4591 b3be 1a11 81be a241 14bf 422c 043e
00000180: 889d 15bf 39c8 aebe c9e5 d8be 8ef2 a1be
00000190: 5740 883e fe53 b93e eceb 6e3d ca9b c63e
000001a0: fcec 8e3e b671 973e c489 013f b6b8 5d3e
000001b0: e499 783e f36a 073f 6dab 473f 0868 143e
000001c0: 6be5 1c3c fcdf ef3e bd3c a43e dd76 3b3e
000001d0: 3fb8 923e ad13 403e b452 103e ff9e 3e3f
000001e0: 0052 e1bd 512c 003f d0e1 f93e 41b7 2c3f
000001f0: 0d60 a13e 52bc 8bbd 4aa5 0ebf 21f0 71be
00000200: bd4f 2fbe 5602 4bbe 2980 26be 849b 09be
00000210: 3483 35bd 14ec cbbd 70e8 bbbe 4798 c6be
00000220: 1d4c b1be f71e 103d 57c4 11bf 4558 9abe
00000230: ef0b f53c 2cd0 bebd d21b c7be 5ef7 63bd
00000240: c2eb 0dbf 174c 2f3e 1c35 a6be 644d 2fbe
00000250: a5cf f0be 7c4c 0dbe 794f 8bbe 5e44 10bf
00000260: cd51 98be 700c c2be 769b cbbe a721 33be
00000270: c026 80be 52e9 3dbe 0d35 8bbe 361e 07bf
00000280: 6153 2cbf ad4f c0be ec92 bdbe 3024 10bf
00000290: ac64 c0be e0a9 f93d 597d f0bd d5da 27be
000002a0: 555a adbc f3e5 08bf f4a7 80be 41c0 4ebf
000002b0: f564 04be 504b 00bf 7ea0 f7bc 84e7 303e
000002c0: 6a77 f43e 49e3 233b a531 b23e 11fe 153f
000002d0: d94c a83b 949e 843e 0c35 b03e f3e9 093e
000002e0: 25e3 193f 1c9f 123f a709 7c3e e2c6 a53e
000002f0: 3105 9a3e a8c4 283f b70d 80ba f122 1c3e
00000300: 1912 983e 0683 363e 5c62 193f db91 7a3c
00000310: f4a6 0e3f 3571 063f daac 1f3f 6f46 9c3e
00000320: 1d77 b83e 28ce dc3e c088 d23d 6846 f13e
00000330: 50bf 683e ba6e 9c3d 9e67 723e 48ec e43d
00000340: 5184 c73e a56e 2a3f 31c2 3c3f 3348 0a3e
00000350: 85c3 233e 657e 993e 23c7 f43e e6a5 13be
00000360: d1f4 333e b25c 823e 5057 9e3e b132 e93e
00000370: 4f03 b23d 5c83 283f 8762 cc3e 4efb ae3e
00000380: 0bdc 533e ac6b 5d3c a672 db3e 40d3 903e
00000390: 534f 7b3e f36e 7b3e bd5e 3b3e a83b b43e
000003a0: 4a17 f53d 2db5 863e e302 153f af15 0e3f
000003b0: e2f9 ad3e 2d37 183e c144 b53e 98f4 7f3e
000003c0: ccde d53d e685 163e c881 e83e abbe 853d
000003d0: 7a34 de3e 0581 95bc 2453 143f 251a e43e
000003e0: 4bbb cd3e b7bb 04bc 1c7c d03c 9205 d83e
000003f0: fd1d 26bd 8ace af3e 2d44 d23e e27d 443e

regressor.FC_2.linear.bias f4 [12]
-0.81157243 -0.6896619 -0.7044678 -0.6854672 0.8967287 -0.5210759 -0.72652876 0.87418306
0.5377876 0.7153938 0.70544094 0.8630558
00000000: 36c3 4fbf af8d 30bf 0058 34bf c77a 2fbf
00000010: 0390 653f 3b65 05bf cafd 39bf 76ca 5f3f
00000020: 73ac 093f 0c24 373f c797 343f 3af1 5c3f
