logs/ckpt/epoch=9-step=270-v2.ckpt (torch, 204767 bytes, 45 tensors)

feature_extractor.Conv1D_1.conv_1.weight f4 [14, 14, 5]
0	0xc05923b2	-3.3928037
1	0xc0633149	-3.5498831
2	0xc05958ae	-3.3960376
3	0xc05dc9e1	-3.4654467
4	0xc06575de	-3.585319
5	0xc061cf51	-3.5282786
6	0xc05fbeaa	-3.4960122
7	0xc0586a4f	-3.3814886
8	0xc062467c	-3.535552
9	0xc058bbbc	-3.3864584
10	0xc05ce9eb	-3.4517772
11	0xc059d248	-3.4034595
12	0xc05774d6	-3.366506
13	0xc063fb0c	-3.5621977
14	0xc0638726	-3.5551238
15	0x40551ba8	3.329813
16	0x4062f8fd	3.546447
17	0x405c798d	3.4449189
18	0x4056d868	3.3569584
19	0x40633ad6	3.550466
20	0xc05c3545	-3.4407513
21	0xc0604f34	-3.5048342
22	0xc05d0bd7	-3.4538476
23	0xc05698d7	-3.3530786
24	0xc05e5424	-3.4738855
25	0xc05758e3	-3.3648002
26	0xc05e75c2	-3.4759374
27	0xc0594825	-3.3950284
28	0xc05b640c	-3.4279814
29	0xc05e6db7	-3.4754465
30	0xc05ad129	-3.4190161
31	0xc05dcc0d	-3.4655793
32	0xc05869e7	-3.3814638
33	0xc05d0440	-3.4533844
34	0xc05bab8a	-3.432345
35	0x4056e5e0	3.3577805
36	0x4060e173	3.5137603
37	0x405cc076	3.449247
38	0x4058208c	3.3769865
39	0x4057117b	3.360442
40	0xc0622db7	-3.5340402
41	0xc05c3e81	-3.441315
42	0xc061ba3f	-3.5269926
43	0xc05d0771	-3.4535792
44	0xc0574a85	-3.3639233
45	0xc05ef130	-3.483471
46	0xc0573bdf	-3.3630292
47	0xc05f7c1a	-3.4919496
48	0xc0546c8c	-3.3191252
49	0xc062572c	-3.5365705
50	0xc061ef40	-3.5302277
51	0xc058e6cd	-3.389087
52	0xc05ef7eb	-3.4838817
53	0xc05bf541	-3.436844
54	0xc05b031e	-3.4220653
55	0xc0595be6	-3.396234
56	0xc058242b	-3.3772075
57	0xc05fe0b8	-3.4980907
58	0xc05f699c	-3.490821
59	0xc05f786a	-3.4917245
60	0x40601614	3.5013475
61	0x406133a2	3.5187764
62	0x4056a5eb	3.3538768
63	0x40639b88	3.5563679
64	0x405c924a	3.4464288
65	0x405e6682	3.4750066
66	0x40603e9d	3.5038216
67	0x4062fbb9	3.546614
68	0x40604a47	3.5045335
69	0x40638f7e	3.555633
70	0xc05af2fd	-3.4210808
71	0xc05a3b63	-3.4098747
72	0xc05c7e7d	-3.4452202
73	0xc0610975	-3.5162022
74	0xc05d868a	-3.4613366
75	0xc0598ac7	-3.3990953
76	0xc055d278	-3.340971
77	0xc057b0e3	-3.3701713
78	0xc058ea53	-3.389302
79	0xc056c211	-3.3555949
80	0xc057d399	-3.37229
81	0xc057e623	-3.3734214
82	0xc062bd23	-3.542794
83	0xc05b5277	-3.4269083
84	0xc06280c7	-3.53911
85	0x405e84eb	3.4768627
86	0x405e68f3	3.4751556
87	0x4059476b	3.394984
88	0x40557e93	3.3358505
89	0x406298b9	3.5405715
90	0xc05841b5	-3.3790104
91	0xc0555955	-3.3335774
92	0xc05539d1	-3.3316538
93	0xc0591b88	-3.3923054
94	0xc05dac13	-3.4636276
95	0xc05fbef1	-3.4960291
96	0xc05f4548	-3.4886036
97	0xc052b9dd	-3.2925942
98	0xc05daf2e	-3.4638171
99	0xc05dea2b	-3.4674175
100	0xc0604063	-3.5039299
101	0xc0551789	-3.3295615
102	0xc05f1518	-3.4856625
103	0xc060fee9	-3.5155585
104	0xc0612341	-3.5177767
105	0x40575e5d	3.3651345
106	0x405db808	3.4643574
107	0x4058b5cd	3.3860962
108	0x4054ce9c	3.3251104
109	0x4058673c	3.381301
110	0xc053c680	-3.3089905
111	0xc0553e81	-3.33194
112	0xc05d552b	-3.4583232
113	0xc05e397d	-3.4722588
114	0xc05dece2	-3.4675832
115	0xc05bde02	-3.4354253
116	0xc05ec940	-3.4810333
117	0xc05b30c3	-3.4248512
118	0xc0532946	-3.2993941
119	0xc059e423	-3.4045494
120	0xc05ad136	-3.4190192
121	0xc05aa626	-3.416391
122	0xc0555188	-3.3331013
123	0xc062fc57	-3.5466516
124	0xc05cc9e5	-3.4498227
125	0xc05b8183	-3.4297798
126	0xc05ff2f3	-3.4992034
127	0xc05ca1b8	-3.4473705
128	0xc06340c6	-3.5508285
129	0xc0656772	-3.5844388
130	0x40551cd3	3.3298843
131	0x406594f8	3.5872173
132	0x40605b21	3.505562
133	0x4066df06	3.6073623
134	0x405f200a	3.4863305
135	0x40567c21	3.3513262
136	0x405e03cb	3.4689815
137	0x405a0275	3.4064
138	0x405ffc31	3.4997675
139	0x405ff4b1	3.4993098
140	0xc03cb1a9	-2.9483435
141	0xc03bd7cb	-2.935046
142	0xc03d4a97	-2.9576776
143	0xc03d443b	-2.9572895
144	0xc03c8351	-2.945515
145	0xc03991dd	-2.8995278
146	0xc041e230	-3.0294304
147	0xc0442f4e	-3.0653872
148	0xc03a36ff	-2.9096067
149	0xc03d87d9	-2.9614165
150	0xc0437866	-3.0542235
151	0xc03b6136	-2.9278083
152	0xc03baa41	-2.9322665
153	0xc03d7bc9	-2.9606802
154	0xc0395653	-2.8958938
155	0x4045d896	3.0913444
156	0x40464521	3.0979693
157	0x4046c365	3.105676
158	0x4043164f	3.0482366
159	0x40384893	2.8794296
160	0xc039a394	-2.900609
161	0xc0435782	-3.052216
162	0xc03f2b02	-2.987
163	0xc04451a0	-3.067482
164	0xc0405369	-3.005091
165	0xc0368ad3	-2.8522232
166	0xc0424d2a	-3.0359597
167	0xc034e503	-2.8264778
168	0xc0375390	-2.8644753
169	0xc0390a6e	-2.8912616
170	0xc036ec00	-2.8581543
171	0xc03cae28	-2.9481297
172	0xc0441bb1	-3.0641901
173	0xc042a36b	-3.0412242
174	0xc03d1e5b	-2.9549778
175	0x404651f7	3.0987527
176	0x403c4f6a	2.942347
177	0x40475aeb	3.1149242
178	0x4046d562	3.1067739
179	0x403c062a	2.9378762
180	0xc04415c8	-3.0638294
181	0xc03dbf7f	-2.964813
182	0xc038e51e	-2.8889842
183	0xc043ea1f	-3.0611646
184	0xc03c138b	-2.9386928
185	0xc042a335	-3.0412114
186	0xc0382f88	-2.877901
187	0xc0343232	-2.8155637
188	0xc038c48f	-2.886997
189	0xc03f9e9a	-2.9940553
190	0xc03dc8b0	-2.965374
191	0xc03b7d52	-2.929524
192	0xc046c298	-3.105627
193	0xc040d805	-3.0131848
194	0xc03a6b46	-2.9127975
195	0xc0417799	-3.0229247
196	0xc03df49d	-2.968055
197	0xc043684a	-3.0532403
198	0xc0416bec	-3.022212
199	0xc03f890f	-2.9927404
200	0x40414f7d	3.0204766
201	0x4044ec76	3.0769324
202	0x4044f39c	3.0773687
203	0x4041ae41	3.0262606
204	0x4043fa23	3.0621421
205	0x4046c83c	3.1059713
206	0x4040cb22	3.0123982
207	0x403db262	2.9640126
208	0x403fcb8d	2.9967988
209	0x4041cf90	3.0282936
210	0xc05b8963	-3.4302604
211	0xc05a0f8b	-3.4071987
212	0xc0625713	-3.5365646
213	0xc057379b	-3.362769
214	0xc058ce70	-3.3876
215	0xc05ae7c9	-3.420397
216	0xc058bab9	-3.3863966
217	0xc05c84b4	-3.4455996
218	0xc05e2185	-3.4707959
219	0xc05a2121	-3.408272
220	0xc053b10b	-3.3076808
221	0xc0600493	-3.5002792
222	0xc058ad7a	-3.3855882
223	0xc05ce555	-3.4514973
224	0xc0555761	-3.3334582
225	0x405e19ba	3.4703202
226	0x40557090	3.3349953
227	0x405fea58	3.4986782
228	0x4052fb0e	3.2965732
229	0x405ca30e	3.447452
230	0xc05bb857	-3.4331262
231	0xc0578bb9	-3.367903
232	0xc05c98e0	-3.4468307
233	0xc052d594	-3.2942858
234	0xc056ece6	-3.3582091
235	0xc04ff5f7	-3.2493875
236	0xc05c9750	-3.4467354
237	0xc05bfc83	-3.437287
238	0xc051a3f3	-3.2756317
239	0xc054a3b5	-3.322492
240	0xc0534e89	-3.3016684
241	0xc05bdd40	-3.435379
242	0xc053d40e	-3.3098178
243	0xc059104b	-3.3916194
244	0xc058ba67	-3.386377
245	0x4056195c	3.3452978
246	0x4057d37b	3.3722827
247	0x405bdbbb	3.4352863
248	0x405730af	3.3623464
249	0x405efe4d	3.4842713
250	0xc054298d	-3.315036
251	0xc0590bba	-3.3913407
252	0xc051ca2e	-3.277965
253	0xc05665d9	-3.3499663
254	0xc0593cd2	-3.3943372
255	0xc058ecbd	-3.3894494

feature_extractor.Conv1D_1.conv_1.bias f4 [14]
0	0x4053ed7a	3.3113694
1	0x4051d1e1	3.278435
2	0x403af6b7	2.9213083
3	0x404ffafd	3.249694
4	0xc029d458	-2.6535854
5	0x40406eab	3.0067546
6	0x405381b7	3.3047922
7	0xc032fe20	-2.7967606
8	0xc018edd5	-2.389516
9	0xc01ee7c4	-2.4828959
10	0x40595c36	3.396253
11	0xc0226e10	-2.5379677
12	0x403a4f4f	2.9110906
13	0x405d9340	3.4621124

feature_extractor.Conv1D_2.conv_1.weight f4 [28, 14, 3]
0	0xbf8629e2	-1.0481532
1	0xbf82f776	-1.0231769
2	0xbf99e48a	-1.202287
3	0xbf8e625a	-1.1123765
4	0xbf83af84	-1.0287938
5	0xbf8e6954	-1.1125894
6	0xbf7f9ebb	-0.9985158
7	0xbf551fa5	-0.8325141
8	0xbf8a6bc5	-1.0814139
9	0xbf707599	-0.9392944
10	0xbf8a4471	-1.0802137
11	0xbf901ac2	-1.1258166
12	0x3fc2e6ac	1.5226645
13	0x3fb742e4	1.4317288
14	0x3fc3a0a5	1.52834
15	0xbf8768ce	-1.0578859
16	0xbf6af4ff	-0.91780084
17	0xbf7e1bcc	-0.99261165
18	0xbf838a20	-1.0276527
19	0xbfa224bf	-1.2667464
20	0xbf8ec016	-1.115237
21	0x3fca72cf	1.5816287
22	0x3fcc8c98	1.5980406
23	0x3fc43636	1.5329044
24	0x3fc91c68	1.5711794
25	0x3fdaed21	1.7103616
26	0x40031532	2.0481687
27	0x3fac26af	1.3449305
28	0x3fcb9c9e	1.5907171
29	0x3fcc2f52	1.5951941
30	0xbf8de096	-1.1084163
31	0xbf7e3351	-0.9929705
32	0xbf5e7609	-0.8689886
33	0x3fb023c7	1.3760918
34	0x3fb8b9b7	1.4431676
35	0x3fcd5013	1.6040062
36	0xbf8f4be9	-1.1195041
37	0xbf82abd1	-1.0208684
38	0xbf8909c4	-1.0706105
39	0xbf9b6998	-1.21416
40	0xbf973b56	-1.1814983
41	0xbf709f6b	-0.9399325
42	0x404a319f	3.1592786
43	0x403ff050	2.9990425
44	0x403ebaf3	2.9801605
45	0x4047d182	3.1221623
46	0x404c7f38	3.1952648
47	0x404c659a	3.1937013
48	0x40493141	3.1436312
49	0x405440f1	3.3164637
50	0x404c7cb0	3.1951103
51	0x4044cf2f	3.0751455
52	0x40444647	3.0667894
53	0x404e0e49	3.219622
54	0xc04bd235	-3.184705
55	0xc0466364	-3.0998163
56	0xc03f412b	-2.9883525
57	0x404f3b74	3.2380037
58	0x40484737	3.1293466
59	0x405153d6	3.270742
60	0x40489f6b	3.13473
61	0x403df831	2.9682734
62	0x404788ac	3.1177168
63	0xc0416eb6	-3.0223823
64	0xc045d545	-3.091142
65	0xc04149c1	-3.0201266
66	0xc055cc5e	-3.3405986
67	0xc0477452	-3.1164746
68	0xc04f033f	-3.2345731
69	0xc0500864	-3.2505121
70	0xc057aa38	-3.3697643
71	0xc04e0321	-3.218941
72	0x40411581	3.0169375
73	0x4049f9fa	3.1558824
74	0x4048362b	3.1283062
75	0xc043ee23	-3.0614097
76	0xc04a1699	-3.1576293
77	0xc041aa7b	-3.0260303
78	0x404705ed	3.1097367
79	0x404e3ca9	3.2224524
80	0x404777a4	3.1166773
81	0x404a7892	3.163609
82	0x40394b17	2.8952081
83	0x404b0a8b	3.1725185
84	0xc0159c9b	-2.3376834
85	0xc00806d7	-2.1254175
86	0xc0140241	-2.3126376
87	0xc017eac4	-2.373704
88	0xc00ebf14	-2.2304125
89	0xc00c025c	-2.187644
90	0xc001554b	-2.0208309
91	0xc001ea47	-2.0299242
92	0xc0045680	-2.0677795
93	0xc005e538	-2.0921154
94	0xc0111bb3	-2.2673156
95	0xc013dd0d	-2.3103669
96	0x3fc4f817	1.5388211
97	0x3fcd27fb	1.6027826
98	0x3fd06960	1.6282158
99	0xc00eeb9a	-2.23313
100	0xc00c12a4	-2.1886377
101	0xbffaf6af	-1.9606532
102	0xc00b007e	-2.171905
103	0xc00f6156	-2.240316
104	0xc01449f1	-2.317013
105	0x3fc75c24	1.5574994
106	0x3fcef5f5	1.616881
107	0x3fc638a8	1.548604
108	0x3faf7011	1.3706075
109	0x3f96c5b7	1.1779088
110	0x3fa00159	1.2500411
111	0x3fa35daa	1.2762959
112	0x3f9d3f6a	1.2284977
113	0x3fa781f5	1.3086535
114	0xc00bddab	-2.1854045
115	0xc00caecc	-2.1981688
116	0xc0050e10	-2.0789833
117	0x3fbbf07f	1.4682769
118	0x3fc15045	1.5102621
119	0x3fc28b97	1.519885
120	0xc0125de3	-2.2869804
121	0xc00b897f	-2.180267
122	0xbffe81ab	-1.9883322
123	0xc010a71b	-2.2601993
124	0xc006226d	-2.0958512
125	0xc00d2406	-2.2053237
126	0x400687b5	2.102033
127	0x4007c647	2.121477
128	0x400b3524	2.1751184
129	0x40035be7	2.0524843
130	0x40015500	2.020813
131	0x4002f431	2.0461543
132	0x4011abd2	2.276112
133	0x4012fef4	2.296811
134	0x400b75e9	2.1790717
135	0x40151a57	2.3297327
136	0x4007bd26	2.1209197
137	0x400b7e31	2.179577
138	0xc014cbf0	-2.3249474
139	0xc0131523	-2.298165
140	0xc01179fb	-2.27307
141	0x4010a361	2.2599719
142	0x40086a26	2.1314788
143	0x401734d2	2.362599
144	0x3fffd0e6	1.9985626
145	0x400bc778	2.1840496
146	0x4001c03b	2.0273578
147	0xc009d8d7	-2.1538599
148	0xc0182df6	-2.3778052
149	0xc00db8a5	-2.2143948
150	0xc03bd254	-2.9347124
151	0xc0364c1b	-2.848395
152	0xc0317d83	-2.7732856
153	0xc03b29ef	-2.9244344
154	0xc0325018	-2.7861385
155	0xc039c60d	-2.902713
156	0x4012f983	2.296479
157	0x400a4ba5	2.160867
158	0x400937aa	2.1440225
159	0xc00bd07a	-2.1845994
160	0xc01f1168	-2.4854374
161	0xc0224914	-2.5357103
162	0x40109ca9	2.2595618
163	0x4007e72a	2.1234841
164	0x400d6560	2.2093124
165	0x4004a659	2.072653
166	0x40076832	2.1157346
167	0x40046d8a	2.0691857
168	0xc00d5b0e	-2.2086825
169	0xc00a061f	-2.1566236
170	0xc0187cc7	-2.3826158
171	0xc004acf8	-2.0730572
172	0xc01523eb	-2.3303173
173	0xc010a622	-2.26014
174	0xc0110efd	-2.2665398
175	0xc019c945	-2.4029095
176	0xc01c5d71	-2.4432032
177	0xc011958d	-2.2747529
178	0xc00e8b71	-2.2272608
179	0xc018a636	-2.3851447
180	0x4009aa91	2.1510355
181	0x400892bb	2.1339557
182	0x40182a5c	2.3775854
183	0xc0182a07	-2.3775651
184	0xc0157024	-2.3349695
185	0xc014f057	-2.3271692
186	0xc0043385	-2.0656445
187	0xc00f3374	-2.2375154
188	0xc0115562	-2.2708364
189	0x4008e58b	2.1390102
190	0x40092705	2.1430066
191	0x400e0605	2.2191174
192	0x401abc5c	2.4177465
193	0x40210b51	2.5163157
194	0x40122ed7	2.2841089
195	0x4020a4b1	2.510052
196	0x401a0381	2.4064639
197	0x4019d30c	2.4035063
198	0xc00b560d	-2.1771271
199	0xc00dbef1	-2.2147791
200	0xc019549d	-2.3957894
201	0x400b5036	2.1767707
202	0x400be245	2.1856854
203	0x40104392	2.2541242
204	0xc01954bb	-2.3957965
205	0xc015ffdf	-2.3437421
206	0xc0150831	-2.328625
207	0xc01329d8	-2.299429
208	0xc0152e3a	-2.3309464
209	0xc007df04	-2.1229868
210	0xc027ce17	-2.6219537
211	0xc0214cc4	-2.5203104
212	0xc0201eb4	-2.501874
213	0xc0273d1c	-2.6131048
214	0xc0303196	-2.7530265
215	0xc02f3076	-2.7373328
216	0xc020fe70	-2.5155296
217	0xc02622bc	-2.59587
218	0xc0222bb8	-2.5339184
219	0xc026847b	-2.601836
220	0xc01fd079	-2.4970992
221	0xc029f4f5	-2.655576
222	0x404bc229	3.1837256
223	0x40456214	3.0841112
224	0x403f4d0d	2.9890778
225	0xc019c355	-2.4025471
226	0xc025541b	-2.5832584
227	0xc01c424e	-2.441547
228	0xc023d9be	-2.560165
229	0xc030e994	-2.7642565
230	0xc0231d25	-2.5486538
231	0x40444154	3.0664873
232	0x4046d7f8	3.1069317
233	0x4049ff05	3.1561902
234	0x4041a3bf	3.0256193
235	0x404572c9	3.085131
236	0x40364235	2.847791
237	0x4048dc42	3.1384435
238	0x40413757	3.0190027
239	0x403f8e0e	2.9930453
240	0xc01dc2ec	-2.465022
241	0xc02ae51a	-2.6702332
242	0xc01d61e0	-2.4590988
243	0x4042c730	3.0434074
244	0x40427239	3.0382216
245	0x40515ad9	3.27117
246	0xc022b553	-2.5423172
247	0xc027c9e3	-2.6216972
248	0xc01e14df	-2.4700239
249	0xc02c0615	-2.6878712
250	0xc02c2358	-2.6896572
251	0xc02f6981	-2.7408144
252	0x4041b1c6	3.0264754
253	0x40440d80	3.063324
254	0x404a9696	3.165441
255	0x403b7fb0	2.9296684

feature_extractor.Conv1D_2.conv_1.bias f4 [28]
0	0xbfbfcfa0	-1.4985237
1	0x4044d5e6	3.0755553
2	0xbfc46046	-1.534188
3	0x4016bfdd	2.3554604
4	0xc010c49b	-2.2619998
5	0xc043fe6b	-3.0624034
6	0x403f5ede	2.9901652
7	0xc01998bc	-2.3999472
8	0x404a1ffe	3.1582026
9	0xc043a487	-3.056917
10	0xbf9dc9c7	-1.2327203
11	0xc05105ca	-3.2659783
12	0x4072d173	3.7940338
13	0xc050be3b	-3.2616107
14	0x404434c5	3.0657208
15	0xc047c0e6	-3.1211486
16	0xbe554432	-0.20826796
17	0x408041ad	4.008017
18	0x402ef874	2.7339144
19	0x3fc4972a	1.5358632
20	0x3f37c583	0.71785754
21	0xc04592e1	-3.0870898
22	0xc04881c4	-3.1329203
23	0x40461c70	3.0954857
24	0xc049f63e	-3.1556544
25	0x407c8201	3.9454348
26	0xc04cdd8d	-3.2010224
27	0x3faafb59	1.3357955

temporal_extractor.LSTM.lstm.weight_ih_l0 f4 [200, 5]
0	0xbdcc7a3e	-0.09984253
1	0xbe81adc8	-0.25327897
2	0xbe80f069	-0.25183418
3	0xbeb19af0	-0.3468852
4	0xbf04d18b	-0.5188224
5	0x3e3a1d49	0.18175234
6	0xbc0603fd	-0.008179662
7	0xbe831c6b	-0.2560762
8	0xbeeca16d	-0.46216908
9	0xbf08d6fa	-0.5345303
10	0x3e01c44e	0.1267254
11	0x3ebf80d5	0.3740298
12	0x3eb5def9	0.35521677
13	0x3e6375ad	0.22212858
14	0x3d1c3978	0.038140744
15	0x3d67a2e7	0.05655184
16	0xbd7a54e2	-0.061116107
17	0xbe868e99	-0.26280668
18	0xbd0d3a18	-0.03447923
19	0xbe53cb3f	-0.20683001
20	0x3ea907a3	0.3301364
21	0x3edd40a8	0.4321339
22	0x3ec30cb0	0.38095617
23	0x3e74cfc8	0.23907387
24	0x3e8f4256	0.27980298
25	0xbf059fa5	-0.52196723
26	0xbf235e02	-0.6381532
27	0xbecf3eac	-0.40477502
28	0xbf058f75	-0.52172023
29	0xbf14dc9d	-0.5814913
30	0xbefb7621	-0.49113563
31	0xbe97c967	-0.29645845
32	0xbe80006c	-0.25000322
33	0xbdb1e77b	-0.086867295
34	0xbe096b7d	-0.1341991
35	0xbe41e60d	-0.18935414
36	0xbe1cd050	-0.1531384
37	0xbe5477e3	-0.20748858
38	0xbe899092	-0.2686811
39	0xbe002d31	-0.12517239
40	0xbf119b13	-0.5687725
41	0xbe9ea196	-0.30982655
42	0xbe8c0f72	-0.27355534
43	0xbedc91cc	-0.43079984
44	0xbeea8f81	-0.4581261
45	0xbe02cfa3	-0.1277452
46	0xbe127671	-0.14302994
47	0xbe45a164	-0.19299847
48	0xbd863c40	-0.065544605
49	0xbde39164	-0.111117154
50	0xbf000163	-0.50002116
51	0xbe93ab4c	-0.28841627
52	0xbdd9c24d	-0.10632763
53	0xbea47592	-0.3212095
54	0xbeaf4869	-0.34234932
55	0x3e81de60	0.2536497
56	0x3ebd7b8e	0.37008327
57	0x3e8194c9	0.25308827
58	0x3e38d7ef	0.18051122
59	0x3eb32ab4	0.34993517
60	0xbd805d62	-0.06267811
61	0xbdfb71dd	-0.12277577
62	0xbe2d1336	-0.1690186
63	0xbe77ddec	-0.2420575
64	0xbd948328	-0.072515786
65	0xbef3c54a	-0.47611457
66	0xbee58dc2	-0.44834715
67	0xbeb6079e	-0.35552686
68	0xbf00270f	-0.500596
69	0xbec111ca	-0.37708884
70	0xbedd0140	-0.43165016
71	0xbf1e64c9	-0.61872536
72	0xbf002548	-0.50056887
73	0xbf29d637	-0.6634249
74	0xbef6f15e	-0.48231024
75	0xbd200bfb	-0.039073925
76	0x3b856de6	0.004071939
77	0x3d4f9d91	0.050687376
78	0xbd1ca09b	-0.038239103
79	0xbda3d9bd	-0.08000515
80	0xbe79b5cc	-0.24385756
81	0xbe258464	-0.16163784
82	0xbe4aee0d	-0.19817372
83	0xbe190ac4	-0.14945513
84	0xbe5e65f2	-0.21718577
85	0xbe44d228	-0.19220793
86	0xbec4313c	-0.38318813
87	0xbe487555	-0.19576009
88	0xbeab145a	-0.33413965
89	0xbe861f9b	-0.26195988
90	0xbf32c7d1	-0.69836146
91	0xbeea62af	-0.45778415
92	0xbeae4dba	-0.34043676
93	0xbe5fe99a	-0.21866456
94	0xbe901849	-0.28143528
95	0x3e25bacf	0.16184543
96	0x3e57a5f0	0.21059394
97	0x3ed43453	0.4144617
98	0x3ebee891	0.3728681
99	0x3e7f47da	0.24929753
100	0xbee289ff	-0.44245908
101	0xbe957d8c	-0.29197347
102	0xbea21096	-0.3165328
103	0xbf05a033	-0.5219757
104	0xbee4a001	-0.44653323
105	0xbefcfe0f	-0.4941258
106	0xbe915334	-0.2838379
107	0xbeb815d2	-0.35954148
108	0xbecea1a8	-0.4035771
109	0xbec51edc	-0.38500106
110	0xbf014346	-0.50493276
111	0x3bb81599	0.005617809
112	0x3ce42010	0.02784732
113	0x3e292849	0.16519274
114	0x3e552699	0.20815505
115	0xbedb14ae	-0.42789215
116	0xbf1d7be0	-0.61517143
117	0xbecbf7a9	-0.39837387
118	0xbf1c42a9	-0.61039215
119	0xbee18e04	-0.44053662
120	0xbf0ba007	-0.5454106
121	0xbe90462d	-0.2817854
122	0xbe9bfcf9	-0.3046644
123	0xbd04ce6a	-0.032423414
124	0xbe7a0e1a	-0.24419442
125	0x3d1fe4cb	0.039036553
126	0xbebd2de5	-0.36949077
127	0xbee94f68	-0.45568395
128	0xbe87e00b	-0.2653812
129	0xbe9c1c26	-0.30490226
130	0xbf0cf6b6	-0.5506395
131	0xbeee9721	-0.46599677
132	0xbedbf8f5	-0.42963377
133	0xbec926fd	-0.39287558
134	0xbedf8f20	-0.43663883
135	0xbe8a7f84	-0.27050412
136	0xbf096bf5	-0.53680354
137	0xbf1c5a81	-0.610756
138	0xbf12aa05	-0.5729068
139	0xbf29db1c	-0.6634996
140	0xbe2572f6	-0.16157135
141	0xbcc09133	-0.023506736
142	0xbec98265	-0.39357296
143	0xbe8b4fee	-0.2720942
144	0xbe414f16	-0.18877825
145	0xbe010580	-0.12599754
146	0xbb869d58	-0.0041081123
147	0xbd8edfe7	-0.069763
148	0x3da51df4	0.08062354
149	0x3d0ffb29	0.035151634
150	0x3f11f675	0.5701669
151	0x3f00e123	0.5034353
152	0x3ea87cea	0.32907802
153	0x3ecc1ece	0.39867252
154	0x3ddb8304	0.107183486
155	0xbdf35660	-0.11881709
156	0xbd4cb17a	-0.049973942
157	0xbe678b90	-0.22611833
158	0xbe8abf00	-0.27098846
159	0xbe1e7908	-0.15475857
160	0xbed1c375	-0.40969434
161	0xbeac8b00	-0.336998
162	0xbe8a24f3	-0.26981315
163	0xbe9e2646	-0.30888575
164	0xbecbd752	-0.39812714
165	0x3e97f1ba	0.2967661
166	0x3ebc4e27	0.36778376
167	0x3e86f17f	0.26356122
168	0x3df1eac1	0.11812354
169	0x3dccfb93	0.100089215
170	0x3ece953c	0.40348232
171	0x3e2c68fa	0.1683692
172	0x3e7773a5	0.24165209
173	0x3ea73d5a	0.32663995
174	0x3d3f72b8	0.046740264
175	0xbecf6e2a	-0.40513736
176	0xbdd5ffbd	-0.10449169
177	0x3c8e86e2	0.017398302
178	0xbc8d957a	-0.01728319
179	0xbd99d731	-0.07511748
180	0x3ef63ede	0.4809484
181	0x3ed9e335	0.42556158
182	0x3da6fdf3	0.08153906
183	0x3da719eb	0.0815924
184	0x3e98275e	0.29717535
185	0x3ea4f492	0.32217842
186	0x3ec6bc9d	0.38815776
187	0x3e7e5df9	0.24840535
188	0x3e794be4	0.24345356
189	0x3ebe36de	0.37151235
190	0xbdbfdcd5	-0.09368292
191	0xbdace32e	-0.084417686
192	0xbe6eb48a	-0.23311058
193	0xbb9d6ac6	-0.004803988
194	0xbe38b1a1	-0.1803651
195	0x3ea7bf00	0.3276291
196	0x3e8ec3ad	0.27883664
197	0x3ea5742c	0.32315195
198	0x3e0d6ac5	0.1381026
199	0x3d976708	0.073926985
200	0x3eae5a83	0.3405343
201	0x3e212e94	0.15740424
202	0xbe8b9eec	-0.27269685
203	0xbeb46a15	-0.35237184
204	0xbedc690e	-0.430489
205	0xbeacf8c2	-0.33783537
206	0xbed1857a	-0.40922147
207	0xbee66e43	-0.45005998
208	0xbe93e540	-0.2888584
209	0xbe8a34b5	-0.26993337
210	0xbd5a2ef6	-0.05326744
211	0xbea1b7a2	-0.31585413
212	0xbe8116df	-0.25212762
213	0xbe15cd34	-0.1462906
214	0xbe3bc0a5	-0.18335207
215	0x3f037e57	0.51364654
216	0x3ece7b66	0.4032852
217	0x3ec1c67f	0.37846753
218	0x3d93b98e	0.07213126
219	0x3e75edc0	0.24016476
220	0xbf00d213	-0.5032055
221	0xbed3f450	-0.41397333
222	0xbe9a05e9	-0.30082634
223	0xbf13b61c	-0.5769975
224	0xbec837ac	-0.39104974
225	0xbd3a4b93	-0.04548223
226	0xbe87357a	-0.26407987
227	0xbc1ab812	-0.0094433
228	0xb9453cab	-0.00018809985
229	0xbdac28fb	-0.08406254
230	0x3ecba437	0.39773723
231	0x3eacf0bf	0.33777425
232	0x3e21500a	0.15753189
233	0x3ea6405c	0.32470977
234	0x3eb55f90	0.3542447
235	0x3eeb7fbb	0.45995888
236	0x3eac756a	0.3368333
237	0x3e7eba02	0.24875644
238	0x3e6af12a	0.2294356
239	0x3db609e3	0.088886045
240	0xbf6bdc7c	-0.9213331
241	0xbf11a5f6	-0.5689386
242	0xbebfb818	-0.3744514
243	0xbe9842bb	-0.2973841
244	0xbeef2d97	-0.4671447
245	0xbedb37cd	-0.4281601
246	0xbecf7823	-0.40521345
247	0xbe91013a	-0.28321248
248	0xbed70fa7	-0.4200413
249	0xbe7c9af2	-0.24668482
250	0xbf189528	-0.59602594
251	0xbed7c98a	-0.4214595
252	0xbe9b7968	-0.30366063
253	0xbec8526c	-0.39125383
254	0xbea0740a	-0.3133853
255	0xbc9cd341	-0.019143702

temporal_extractor.LSTM.lstm.weight_hh_l0 f4 [200, 50]
0	0x3dcb9d92	0.099421635
1	0xbdfdd726	-0.12394552
2	0xbe65910a	-0.2241861
3	0x3e25f6c1	0.1620741
4	0x3dd51580	0.104044914
5	0x3e0b7666	0.13619384
6	0x3e557119	0.20843925
7	0xbc40261b	-0.011727835
8	0x3d12ba60	0.035822272
9	0xbcb49849	-0.022045271
10	0x3e8bd6ce	0.2731232
11	0x3e2e8367	0.17042314
12	0x3e27bb45	0.16380031
13	0xbb8e0737	-0.004334356
14	0xbd8e609d	-0.06952021
15	0x3ce91efc	0.028457157
16	0xbe5588b9	-0.20852937
17	0x3e04a269	0.1295258
18	0xbed719e2	-0.42011935
19	0xbcc45ab1	-0.023969026
20	0x3cc29282	0.023751501
21	0xbd25e430	-0.04050082
22	0xbe30919e	-0.17243049
23	0xbe3bfd98	-0.18358457
24	0x3e1e7447	0.15474044
25	0xbd4e71b2	-0.050401397
26	0x3cfb1c58	0.030653164
27	0x3d2497f3	0.040183973
28	0x3e6030d2	0.21893623
29	0x3c7d3294	0.015453953
30	0xbca4fc1d	-0.020139748
31	0x3c1698e7	0.009191728
32	0xbe872138	-0.2639253
33	0xbe3ab88e	-0.18234465
34	0xbe00ff1e	-0.1259732
35	0x3aa3d7fd	0.0012500283
36	0x3ce905e0	0.028445184
37	0x3db3576a	0.08756907
38	0x3d2fe46a	0.042942442
39	0x3e1ab01b	0.15106241
40	0xbb7cb223	-0.0038558326
41	0xbcf526b9	-0.029925691
42	0x3d7e8ea6	0.06214776
43	0xbe9357a5	-0.28777805
44	0x3b8a429e	0.004219367
45	0x3e4cb525	0.19990976
46	0xbd5e903b	-0.054336768
47	0xbe6c0990	-0.23050523
48	0x3cebf6e0	0.028804243
49	0xbe3a6018	-0.1820072
50	0x3bb9acd1	0.0056663533
51	0x3f0fda3a	0.5619236
52	0xbe7e4134	-0.2482956
53	0xbcdeb288	-0.02718474
54	0x3c9387af	0.018009035
55	0x3cf0b703	0.029384142
56	0x3c512a95	0.0127665
57	0x3dc8dc01	0.098075874
58	0x3e639ac4	0.22227007
59	0xbe06dc7c	-0.13170046
60	0xbde52896	-0.11189382
61	0x3e05f508	0.13081753
62	0xbd8dca89	-0.06923396
63	0xbe3553c8	-0.17707741
64	0xbe06806c	-0.13134927
65	0x3d4022cc	0.046908185
66	0x3e261b76	0.16221413
67	0xbc99b77c	-0.01876425
68	0x3d9ce0e7	0.07660084
69	0x3d959845	0.07304434
70	0xbe4c2f4f	-0.19939922
71	0xbdf7efd6	-0.12106292
72	0x3e1757f4	0.14779645
73	0x3d91cc71	0.07119072
74	0xbd5f6f6d	-0.054549623
75	0x3da874c0	0.08225393
76	0xbddd1e1a	-0.10796757
77	0x3e11adfe	0.14226529
78	0xbd2a645b	-0.041599613
79	0x3db30cc4	0.08742669
80	0xbf024f6c	-0.5090244
81	0x3eb6bcf9	0.3569105
82	0xbe1649a7	-0.14676534
83	0xbe12dec5	-0.14342792
84	0x3ee9b8c1	0.4564877
85	0x3dabf4bb	0.08396288
86	0x3da43a07	0.0801888
87	0x3d1a2453	0.037632298
88	0x3d948b10	0.072530866
89	0x3e615dfe	0.22008511
90	0x3db2d24c	0.08731517
91	0x3dbcf52c	0.0922645
92	0xbdc2cfbd	-0.09512279
93	0x3d8cc20e	0.068729505
94	0xbec3e6a9	-0.38261917
95	0xbe0715a3	-0.13191848
96	0xbc344e03	-0.011004928
97	0xbe210771	-0.15725495
98	0xbc5eb823	-0.013593706
99	0xbed928aa	-0.42413837
100	0xbe28d100	-0.16485977
101	0x3e0de889	0.13858236
102	0x3d12a7b0	0.03580445
103	0xbeca8a13	-0.39558467
104	0xbd0c1e8a	-0.03420881
105	0xbe847763	-0.25872335
106	0xbe02ac90	-0.1276114
107	0xbeb82469	-0.3596528
108	0xbe04ea2f	-0.12979959
109	0xbe559324	-0.20856911
110	0xbdeeec49	-0.116661616
111	0xbd94541c	-0.07242605
112	0xbec3e1a9	-0.38258103
113	0x3ea78df1	0.3272548
114	0x3e44d190	0.19220567
115	0x3e7f43f3	0.24928264
116	0x3eb27e59	0.3486202
117	0xbd218473	-0.039432954
118	0xbe86539b	-0.2623566
119	0xbea7674e	-0.32696003
120	0x3ec907eb	0.39263853
121	0xbe774e40	-0.24150944
122	0x3ec499a8	0.3839848
123	0x3d1fee30	0.039045513
124	0xbeb42e3b	-0.3519152
125	0xbeea4fe2	-0.4576407
126	0x3e4f6812	0.20254543
127	0xbebb54a5	-0.36588016
128	0xbed14f69	-0.40880898
129	0xbef0b3e3	-0.47012243
130	0xbca1cc4f	-0.019750742
131	0xbddb77f4	-0.107162386
132	0x3d8ddfaf	0.0692743
133	0x3e3ecddb	0.18633215
134	0xbde05f59	-0.10955686
135	0x3e5cc9f7	0.21561418
136	0x3e3c81a7	0.18408833
137	0xbe8017b3	-0.2501808
138	0xbe3edb13	-0.18638258
139	0xbd9b2863	-0.075760625
140	0xbec50ee2	-0.38487917
141	0xbe7c2588	-0.24623692
142	0xbee5bdbe	-0.44871324
143	0xbe811c45	-0.2521688
144	0x3e6e7599	0.23287047
145	0xbe3c9147	-0.18414794
146	0x3d83fe8a	0.06445034
147	0xbd2feca7	-0.0429503
148	0xbee1a11d	-0.44068232
149	0x3d7b33fd	0.061328877
150	0x3e8b81bf	0.27247426
151	0x3e020617	0.12697636
152	0x3c1af6c5	0.0094582485
153	0x3dc9c71a	0.09852429
154	0x3d8d741d	0.069069125
155	0x3e0b85b6	0.13625225
156	0x3c593b04	0.013258699
157	0x3e2eb376	0.17060646
158	0x3e543117	0.20721851
159	0x3d22e26e	0.03976672
160	0x3e69590f	0.2278788
161	0x3cb0f68b	0.021601936
162	0x3dff53e8	0.12467176
163	0xbe19a6a6	-0.15004978
164	0xbe4ea627	-0.2018057
165	0xbde16aec	-0.11006722
166	0xbe0fc1ec	-0.14038819
167	0xbd209fe9	-0.039215002
168	0x3d8b94cd	0.06815491
169	0x3e731e1c	0.23741955
170	0xbe491c71	-0.19639756
171	0x3e8a2b77	0.26986286
172	0xbe4e485e	-0.20144793
173	0xbe86134d	-0.261866
174	0x3d81f08d	0.063447095
175	0x3e827ac8	0.254843
176	0xbe5ed87a	-0.21762267
177	0x3dab8ccc	0.08376464
178	0x3dc5db57	0.096609764
179	0x3e4b4ba5	0.19853075
180	0xbe487a89	-0.19577993
181	0x3e647aba	0.22312441
182	0x3c448de0	0.011996716
183	0xbd97ed46	-0.07418303
184	0x3d5b5c1a	0.05355463
185	0xbe5de43a	-0.21669093
186	0xbe6d6fc6	-0.2318717
187	0x3d8accfd	0.0677738
188	0x3e5a666c	0.21328133
189	0x3d9bcc4d	0.07607327
190	0x3e73b9f5	0.23801406
191	0x3e701da8	0.23448813
192	0x3e55f817	0.2089542
193	0x3cd58027	0.026062084
194	0xbe510d7d	-0.20415302
195	0x3e78107b	0.24225037
196	0xbe77cac8	-0.24198449
197	0xbddac7ea	-0.10682662
198	0x3e222e33	0.15837936
199	0xbd4edb9e	-0.050502412
200	0xbc32cc92	-0.010913031
201	0x3e7d3adb	0.24729483
202	0x3e30c210	0.17261529
203	0x3e89466d	0.26811543
204	0xbe5734e4	-0.2101627
205	0xbe3339d1	-0.17502524
206	0xbe88f24f	-0.26747367
207	0x3e700b0e	0.23441717
208	0xbebf0abb	-0.37312874
209	0x3e33a0cb	0.17541806
210	0x3e2cef90	0.16888261
211	0x3d570c62	0.052502044
212	0x3e010d62	0.12602761
213	0xbc7c80b6	-0.015411546
214	0xbe31a988	-0.17349827
215	0xbe0893e0	-0.1333766
216	0xbe7b8515	-0.24562486
217	0xbd1166bb	-0.035498362
218	0x3d69e244	0.05710055
219	0x3e103c7d	0.14085574
220	0xbde59957	-0.11210888
221	0xbe55b172	-0.20868471
222	0x3dfefff7	0.12451165
223	0xbd7961cc	-0.060884282
224	0xbddfac2c	-0.10921511
225	0x3e0e4634	0.13893968
226	0x3dd382d0	0.10327685
227	0x3e3c75a0	0.18404245
228	0x3e2aafc4	0.16668612
229	0x3e00d500	0.12581253
230	0xbcf34022	-0.029693667
231	0xbb7430c9	-0.0037260524
232	0x3dc37b34	0.095449835
233	0xbef64e94	-0.48106825
234	0xbea49469	-0.32144478
235	0xbe91f84b	-0.28509745
236	0x3e0a701c	0.13519329
237	0x3e8323a0	0.25613117
238	0x3e838b94	0.25692427
239	0x3e01d934	0.12680513
240	0x3dcfec2d	0.10152469
241	0x3e84fb60	0.25973034
242	0x3e3aecbe	0.18254372
243	0xbe9fc795	-0.31206957
244	0x3e932d9c	0.28745735
245	0x3e7a1967	0.24423753
246	0x3e1e16c8	0.15438378
247	0x3d2b1af2	0.041773744
248	0x3e12e788	0.14346135
249	0xbea9f52f	-0.33194873
250	0x3f18f9cf	0.5975618
251	0x3e418978	0.18900096
252	0xbef33d85	-0.47507873
253	0x3e8d05fd	0.2754363
254	0x3f6460d0	0.89210224
255	0x3ddb1aa7	0.10698443

temporal_extractor.LSTM.lstm.bias_ih_l0 f4 [200]
0	0x3d8fdf74	0.07025042
1	0xbdc57012	-0.09640516
2	0xbe6c78a5	-0.23092897
3	0x3e641d8c	0.22276896
4	0x3f29ec74	0.66376424
5	0xbd20bc9f	-0.039242383
6	0xbcaf0f2f	-0.021369545
7	0x3e45b686	0.19307908
8	0xbe8528fd	-0.26007834
9	0x3e8d7bbd	0.27633467
10	0xbd7e3321	-0.06206048
11	0xbe818a50	-0.25300837
12	0x3eaf6418	0.34256053
13	0xbdb07349	-0.08615739
14	0x3dfe77ab	0.124251686
15	0x3e5f6d0d	0.21818943
16	0x3e178794	0.14797813
17	0x3e5eb173	0.21747379
18	0x3ea3e2ff	0.32009122
19	0x3e79d71e	0.24398467
20	0x3ce7e2e6	0.028306436
21	0xbdc20130	-0.09472883
22	0x3f19b172	0.60036385
23	0x3ba7d748	0.005122099
24	0x3ea4dd61	0.3220015
25	0xbd5fd225	-0.05464377
26	0x3d1b7e8f	0.037962493
27	0x3cdb6e5c	0.026786022
28	0x3e9e4866	0.3091461
29	0x3ea56217	0.323014
30	0x3e24ea2e	0.16104957
31	0x3ed46e95	0.41490617
32	0xbecd8314	-0.40139067
33	0xbe82c55c	-0.25541198
34	0x3d1437d4	0.036186054
35	0xbebbecb7	-0.36704037
36	0x3ef92304	0.48659527
37	0x3f96ce83	1.1781772
38	0x3e3070c8	0.17230523
39	0xbdd22109	-0.10260207
40	0x3f1ef759	0.6209617
41	0x3e1d3f0b	0.1535608
42	0x3dbf7acc	0.093495935
43	0x3efa6c43	0.48910722
44	0xbe2bf756	-0.1679357
45	0x3e6ec3de	0.23316905
46	0x3ed421d3	0.41432056
47	0xbd5296c0	-0.051413298
48	0x3ec11d53	0.37717685
49	0x3e187cce	0.14891359
50	0x3e58c7ab	0.21169917
51	0x3ea53b8f	0.32272002
52	0xbda2e89f	-0.07954525
53	0x3e0f0658	0.13967264
54	0x3f31b247	0.69412655
55	0x3ea764c3	0.32694063
56	0x3ed85f7c	0.4226035
57	0x3e54db8d	0.20786877
58	0x3ddfdca9	0.109307595
59	0x3e67c9fe	0.22635648
60	0x3c0e574a	0.0086878035
61	0x3ddc32a5	0.10751847
62	0x3da8dcbe	0.08245228
63	0x3e20eee7	0.15716134
64	0x3ea9dda5	0.33176914
65	0x3e300380	0.17188835
66	0x3e3a5422	0.18196157
67	0x3ef76686	0.48320407
68	0x3ed2a574	0.41141856
69	0x3d65f6ed	0.05614369
70	0x3e5f1e71	0.21788956
71	0x3ee83c06	0.45358294
72	0x3e8cc839	0.27496508
73	0x3d894417	0.0670244
74	0xbe33488a	-0.1750814
75	0xbd849b89	-0.064749785
76	0x3e678e23	0.22612815
77	0x3e96ff86	0.29491824
78	0x3e98d8a5	0.29852787
79	0x3cd3afbf	0.025840638
80	0x3e2e14f3	0.17000179
81	0x3e789ad8	0.24277818
82	0xbe3f8210	-0.18701959
83	0x3ca70094	0.020386018
84	0x3bb01bf5	0.0053744265
85	0xbf0e99d5	-0.5570348
86	0x3f10fd5a	0.56636584
87	0x3f0d5b22	0.5521718
88	0x3e464a56	0.19364294
89	0x3bc4aa0b	0.006001716
90	0x3f491310	0.7854471
91	0xbd3f249d	-0.046665777
92	0x3e8589d7	0.26081726
93	0xbdf215df	-0.11820578
94	0x3e63a3d7	0.22230469
95	0x3dab42ed	0.083623745
96	0x3f24b649	0.64340645
97	0x3d5478fb	0.05187319
98	0xbe64818e	-0.22315046
99	0x3d1dd6d9	0.038534973
100	0x3ec4db31	0.3844848
101	0x3e64bbd6	0.22337279
102	0x3dffd16f	0.12491118
103	0x3e63a285	0.22229965
104	0x3cacbb28	0.021085337
105	0x3e50799f	0.20358895
106	0x3e45876d	0.19289942
107	0x3e17a64d	0.14809532
108	0x3ea57c78	0.32321525
109	0x3e45f6bc	0.19332403
110	0x3ebf6570	0.37382078
111	0x3e563f45	0.20922573
112	0x3e647618	0.22310674
113	0xbec54544	-0.38529408
114	0xbe21982f	-0.1578071
115	0xbe442f66	-0.19158706
116	0xbe9548fe	-0.2915725
117	0xbd16c4e6	-0.03680887
118	0x3ecd63d5	0.40115228
119	0x3e6548b0	0.2239101
120	0xbeb65996	-0.35615224
121	0x3c629f1c	0.01383188
122	0xbde8d469	-0.11368639
123	0xbed2451b	-0.41068348
124	0x3e9e5405	0.30923477
125	0x3eba7131	0.36414483
126	0xbeda1289	-0.42592266
127	0x3e429c19	0.19004859
128	0x3e4faaa4	0.20279938
129	0x3dd45e72	0.103695765
130	0xbbcbe693	-0.006222555
131	0x3f038d71	0.513877
132	0xbf355f26	-0.7084831
133	0xbe85353f	-0.26017186
134	0xbea53e6e	-0.32274193
135	0xbe390030	-0.18066478
136	0xbe3a44f3	-0.18190365
137	0x3e198126	0.14990672
138	0x3e8b5c10	0.27218676
139	0x3e48ae68	0.1959778
140	0x3e867f2e	0.26268905
141	0x3e15fc25	0.14646967
142	0x3e8692d5	0.262839
143	0x3ea95e63	0.33079824
144	0x3cdd50a9	0.027016
145	0x3e440a6f	0.19144605
146	0xbdb6b5b7	-0.08921378
147	0xbe94ea78	-0.29085135
148	0x3e5cfccf	0.21580814
149	0x3d663122	0.0561992
150	0xbd8b23a9	-0.06793911
151	0x3e8daa41	0.27668956
152	0x3de328bb	0.11091753
153	0x3dc52f58	0.09628171
154	0xbffcfb0b	-1.9764112
155	0x3e88b8df	0.26703545
156	0xbe47b477	-0.19502436
157	0x3ea9c972	0.33161503
158	0xbf5824dc	-0.8443124
159	0x3ea09f49	0.31371525
160	0xbd19e8a7	-0.03757539
161	0x3e0010e5	0.12506445
162	0x3ea8e660	0.32988262
163	0x3ce14e05	0.027503023
164	0xbeb2bc56	-0.34909314
165	0x3eba6d4e	0.36411518
166	0x3eaab161	0.33338454
167	0xbeacdca6	-0.3376209
168	0xbe1fd184	-0.15607268
169	0xbcf638f6	-0.030056458
170	0x3d50604c	0.050873086
171	0xbe54590e	-0.20737097
172	0xbc0593df	-0.008152931
173	0xbe27577a	-0.16341963
174	0x3f1890a5	0.5959571
175	0x3e7fa48c	0.24965113
176	0xbe56bc08	-0.20970166
177	0x3cb939d9	0.022610592
178	0x3da9a248	0.08282906
179	0x3f0da5d9	0.5533119
180	0x3ee4713a	0.44617635
181	0xbe0f1907	-0.13974391
182	0xbf0ca328	-0.54936457
183	0x3d8716a7	0.065961175
184	0x3e9d592b	0.30732092
185	0xbe568c3d	-0.20951934
186	0xbfd61b00	-1.672699
187	0x3f48f694	0.7850125
188	0x3e130243	0.14356332
189	0x3dc8b79f	0.09800648
190	0x3ec84e80	0.3912239
191	0xbe997259	-0.29970053
192	0x3dea5162	0.11441304
193	0xbed82d58	-0.42222095
194	0xbf0ee235	-0.55813915
195	0xbe1c8bb3	-0.15287666
196	0xbfc7be74	-1.5604997
197	0xbdef176d	-0.1167439
198	0x3eb4be9c	0.35301673
199	0xbdc20eab	-0.09475454

temporal_extractor.LSTM.lstm.bias_hh_l0 f4 [200]
0	0xbc45b5d4	-0.012067277
1	0xbccae997	-0.024769587
2	0xbe853e4a	-0.26024085
3	0x3e9d0332	0.306665
4	0x3ede4749	0.4341376
5	0x3cae40ec	0.021271192
6	0xbd2cfb33	-0.04223175
7	0x3d56ba57	0.0524238
8	0xbec272c3	-0.3797818
9	0x3e858b1b	0.26082692
10	0xbcb55c3a	-0.022138704
11	0xbe6064b7	-0.2191342
12	0x3e8c8874	0.27447855
13	0xbca5eec3	-0.020255452
14	0x3d2ffaac	0.04296367
15	0x3e9fe2f4	0.3122784
16	0x3e57d7d7	0.2107843
17	0x3e2c10d8	0.168033
18	0x3e0c7dfc	0.13719934
19	0x3e6c026e	0.23047802
20	0x3c3ca012	0.011512773
21	0xbda44f52	-0.08022942
22	0x3ee57804	0.44818127
23	0xbcdcd765	-0.026958177
24	0x3ee1b4cd	0.44083253
25	0xbe03289b	-0.12808459
26	0xbdea64e5	-0.11445025
27	0x3d9872ee	0.07443796
28	0x3e83bc1b	0.2572945
29	0x3e947e18	0.29002452
30	0x3e8be63f	0.273241
31	0x3ea8075e	0.3281812
32	0xbeb60527	-0.35550806
33	0xbe73373a	-0.23751536
34	0xbe0cd3b9	-0.13752641
35	0xbe6ee9d2	-0.23331383
36	0x3edba44c	0.42898786
37	0x3f81f01e	1.0151403
38	0x3e12cd78	0.14336193
39	0xbe051095	-0.12994607
40	0x3f13d652	0.577489
41	0x3e6ed7d4	0.2332452
42	0x3d35c955	0.04438146
43	0x3e808d2f	0.25107715
44	0xbe793cca	-0.24339595
45	0x3e4cebc4	0.20011812
46	0x3f2d3ed4	0.67673993
47	0xbd496e51	-0.04917747
48	0x3ee4327f	0.44569775
49	0x3ca64218	0.020295188
50	0x3e3382eb	0.1753041
51	0x3e5dcb07	0.2165948
52	0xbe31d4a8	-0.17366278
53	0x3df9fcd6	0.12206428
54	0x3f13d79b	0.5775086
55	0x3e625e15	0.22106202
56	0x3eed8fe0	0.4639883
57	0x3da7b99e	0.081897005
58	0x3bbe0e49	0.0058000428
59	0x3dcaca84	0.09901908
60	0x3e02ae6c	0.12761849
61	0x3d0e2495	0.034702856
62	0x3dfa548f	0.122231595
63	0x3cf8b9ba	0.030361999
64	0x3eb0710a	0.34461242
65	0x3eb6c25d	0.35695162
66	0x3ea59f9e	0.3234834
67	0x3eca9643	0.39567766
68	0x3ed4fb8d	0.41598168
69	0x3ccbd765	0.024882982
70	0x3e4226bb	0.18960087
71	0x3ed3bc6c	0.41354692
72	0x3e171219	0.14752997
73	0x3ea5db2d	0.3239378
74	0xbe0f7e04	-0.14012915
75	0x3d387694	0.04503496
76	0x3df1f34f	0.118139856
77	0x3e2e62b1	0.17029835
78	0x3e32837a	0.17432967
79	0x3df02755	0.11726252
80	0x3e7e186c	0.24814004
81	0x3ec87038	0.39148116
82	0xbebd0289	-0.36915997
83	0xbe7999f4	-0.24375135
84	0x3e8a93fe	0.27066034
85	0xbefc9a07	-0.49336264
86	0x3f26faa8	0.6522622
87	0x3f05b866	0.52234495
88	0x3dc5f829	0.096664734
89	0xbd2ea6a6	-0.042639397
90	0x3f0c5082	0.54810345
91	0xbd930a6c	-0.07179722
92	0x3d2118e8	0.039330393
93	0xbda5cc18	-0.080955684
94	0x3e6b1c75	0.22960074
95	0x3e5ba659	0.21450175
96	0x3f2fe608	0.68710375
97	0x3caa1ef5	0.020766715
98	0x3c62db27	0.013846195
99	0x3cf66b5d	0.030080492
100	0x3e6dea7a	0.23233977
101	0x3e450a75	0.1924227
102	0x3e313e00	0.17308807
103	0x3e62443b	0.2209634
104	0x3cd93ecb	0.0265192
105	0x3e781b7e	0.24229237
106	0x3ee0c28e	0.43898433
107	0x3e27d479	0.16389646
108	0x3ee364c8	0.44412827
109	0x3e93b9f2	0.28852803
110	0x3e98a220	0.29811192
111	0x3ea1f0be	0.31628984
112	0x3e96df56	0.29467267
113	0xbe3490f6	-0.17633423
114	0xbec3c8f2	-0.38239247
115	0xbe344c48	-0.17607224
116	0xbe3ffd3e	-0.18748948
117	0x3e312003	0.17297368
118	0x3e9e6aeb	0.30940947
119	0x3e600d17	0.21879993
120	0xbe81d135	-0.25354925
121	0x3dd7f109	0.10544021
122	0xbe42eb75	-0.19035132
123	0xbea501d9	-0.32227972
124	0x3e317f3c	0.17333692
125	0x3e53af5a	0.2067236
126	0xbe88f4c9	-0.26749256
127	0x3e4e63d1	0.20155264
128	0x3e85946e	0.26089805
129	0x3e944bcd	0.2896408
130	0x3df74a0c	0.1207467
131	0x3ecce230	0.40016317
132	0xbf25aeaa	-0.6471964
133	0xbe33eb50	-0.17570233
134	0xbeda751b	-0.4266747
135	0x3bd750b1	0.0065708985
136	0xbb932903	-0.004490973
137	0x3e1d3850	0.15353513
138	0x3e4a21b6	0.19739422
139	0x3e9f1229	0.31068543
140	0x3e7d9716	0.24764666
141	0x3e1bf8ac	0.1523158
142	0x3e02d105	0.12775047
143	0x3e8f48cf	0.27985236
144	0xbe12215c	-0.14270538
145	0x3e8ee351	0.27907804
146	0x3dde96c1	0.10868598
147	0xbe0d3d72	-0.13792971
148	0x3e09be60	0.13451529
149	0x3ddfaa55	0.1092116
150	0xbd0ac6c4	-0.033880964
151	0x3e4016ea	0.18758741
152	0xbd955c35	-0.07292978
153	0x3d89e1cd	0.06732521
154	0xbfdfa3d3	-1.747187
155	0x3e124f7f	0.14288138
156	0xbd790510	-0.060795844
157	0x3e779e5f	0.24181508
158	0xbf5d0ea3	-0.8635046
159	0x3e87ed69	0.26548317
160	0xbdbe9b45	-0.09306959
161	0x3db5524b	0.08853587
162	0x3e7d3385	0.24726684
163	0x3de19aa9	0.11015827
164	0xbef949b3	-0.4868904
165	0x3f00a70c	0.50254893
166	0x3e337c5c	0.17527908
167	0xbf10acf2	-0.56513894
168	0xbafc1ea0	-0.0019235201
169	0xbd725859	-0.059166286
170	0x3e2323fa	0.15931693
171	0xbdb227fa	-0.08699031
172	0x3d8c965a	0.06864615
173	0xbdb64728	-0.08900291
174	0x3f22c341	0.63579184
175	0x3d228e6a	0.039686598
176	0xbe91446f	-0.28372523
177	0xbdb35679	-0.08756728
178	0x3e5cef4e	0.21575662
179	0x3f05171b	0.5198838
180	0x3f1d81fe	0.6152648
181	0xbc1c29fb	-0.009531493
182	0xbee676ca	-0.45012504
183	0x3c9dc8f9	0.01926087
184	0x3e4fb1a1	0.20282604
185	0xbe91d8d3	-0.28485736
186	0xbfd2e33d	-1.6475598
187	0x3f544cb6	0.8292955
188	0x3dd474e9	0.10373861
189	0x3d31eed8	0.04344067
190	0x3e60e346	0.21961698
191	0xbeec641e	-0.46170133
192	0x3da0fe58	0.07861012
193	0xbed05455	-0.4068934
194	0xbedd36dc	-0.43205917
195	0xbdb66c98	-0.08907431
196	0xbfc5f334	-1.5464845
197	0xbd6881a5	-0.056764264
198	0x3eea77fe	0.45794672
199	0x3d64f445	0.055897016

regressor.FC_1.linear.weight f4 [25, 50]
0	0x3e1f2189	0.15540136
1	0x3c3a6c54	0.0113783665
2	0x3d9c62d1	0.07636035
3	0x3e2b5947	0.16733275
4	0x3e81e146	0.25367182
5	0x3e63020e	0.22168753
6	0x3e2b7c64	0.1674667
7	0x3dfd98cc	0.12382659
8	0x3e864732	0.26226193
9	0x3e0cdd2d	0.13756247
10	0x3ec6c0dd	0.38819018
11	0x3e03e9fc	0.12882227
12	0x3e091d1d	0.13390012
13	0xbe6b006a	-0.22949377
14	0xbe4b66b6	-0.198634
15	0xbe1caf5a	-0.15301266
16	0xbe823653	-0.2543207
17	0x3d910d6e	0.0708264
18	0x3efc40b8	0.49268126
19	0x3e3822c0	0.17982006
20	0xbead77c2	-0.3388043
21	0x3d101a3a	0.03518126
22	0x39f7f548	0.0004729426
23	0xbf017867	-0.50574344
24	0x3cbe508d	0.023231769
25	0x3e6ca7b3	0.23110847
26	0xbec9d726	-0.39421958
27	0x3e0d5642	0.13802436
28	0x3e3714c7	0.1787902
29	0x3de2677f	0.110548966
30	0x3dcc5b11	0.09978307
31	0x3e0e4542	0.13893607
32	0xbf00183d	-0.50036985
33	0xbdc3aa76	-0.09553997
34	0x3e7e8a9a	0.2485756
35	0xbe65a60c	-0.22426623
36	0xbe6d5f90	-0.23180985
37	0x3dbef4e6	0.093240544
38	0x3d156899	0.036476705
39	0x3d87400f	0.06604015
40	0x3e802b98	0.2503326
41	0x3e45f97f	0.19333456
42	0x3e320cd9	0.17387713
43	0x3ed139c2	0.40864378
44	0xbe0f1a5f	-0.13974904
45	0x3e2c58fe	0.16830823
46	0xbe9445b4	-0.2895943
47	0xbd0dd1c5	-0.03462388
48	0x3d801103	0.06253245
49	0x3dd1e1b8	0.102481306
50	0x3ea1589e	0.31512922
51	0x3dfb33f2	0.12265767
52	0x3e1258cf	0.1429169
53	0x3e6a4180	0.22876549
54	0x3e872246	0.26393336
55	0x3e9b2530	0.3030181
56	0x3e8d03f1	0.2754207
57	0x3e5f922d	0.21833105
58	0x3e16e3d9	0.14735354
59	0x3da404a7	0.080087
60	0x3ec69019	0.38781813
61	0x3dab7c18	0.083732784
62	0x3e1dd6e0	0.15414
63	0xbe862a03	-0.26203927
64	0xbed0c3db	-0.40774426
65	0xbdb91f4e	-0.09039174
66	0xbe637f45	-0.22216518
67	0x3ea0e887	0.31427404
68	0x3f1a384b	0.60242146
69	0x3e390966	0.18069991
70	0xbed6be96	-0.4194228
71	0x3e8770e0	0.26453304
72	0xbe1c1a95	-0.15244515
73	0xbe8a8d68	-0.2706101
74	0x3dc940a7	0.098267846
75	0x3e271a59	0.16318645
76	0xbe8f8b4a	-0.28035957
77	0x3e6dd817	0.23226963
78	0x3e920fc2	0.28527647
79	0x3e8f3c3b	0.2797564
80	0xbdae19c2	-0.08501007
81	0x3dd5738c	0.104224294
82	0xbec249ad	-0.37946835
83	0x3e02ecde	0.1278567
84	0x3e00af6c	0.12566918
85	0xbee190fd	-0.4405593
86	0xbe877ea2	-0.264638
87	0x3e35dec1	0.17760755
88	0x3e8cc8ef	0.2749705
89	0x3e1419df	0.14462994
90	0x3ded8faf	0.11599671
91	0xbb33b14c	-0.002741891
92	0x3e86e68a	0.26347762
93	0x3ed459e7	0.4147484
94	0xbe40ef80	-0.18841362
95	0x3e52cda6	0.20586261
96	0xbeb62a0d	-0.35578957
97	0xbdb124a4	-0.08649567
98	0x3e916774	0.2839924
99	0x3e048e06	0.12944803
100	0x3e9a47cf	0.3013291
101	0xbc5fa3ab	-0.013649861
102	0x3de6d3e1	0.112708814
103	0x3de159b8	0.110034406
104	0x3e837c4a	0.25680763
105	0x3db7ba7e	0.089711174
106	0x3eb6dd54	0.35715735
107	0x3d690b64	0.05689563
108	0x3e80a3e9	0.25125054
109	0x3e885f18	0.2663505
110	0x3ef96f0b	0.48717532
111	0xbd06ec02	-0.03293992
112	0x3d703b5a	0.058650352
113	0xbecc92f4	-0.39955866
114	0xbec0cd4e	-0.37656635
115	0xbe6bfa19	-0.23044623
116	0xbd2dc8a7	-0.042427685
117	0x3e5334b5	0.20625575
118	0x3f12dc59	0.57367474
119	0x3e1193fb	0.14216606
120	0xbefa0831	-0.48834375
121	0x3e5d7a3f	0.21628664
122	0xbe66283e	-0.22476289
123	0xbee8783c	-0.45404232
124	0x3e2cd45a	0.1687788
125	0x3d7d583f	0.061851736
126	0xbed3a5d8	-0.41337466
127	0x3e236721	0.1595731
128	0x3e81c49d	0.25345317
129	0x3e226763	0.15859751
130	0x3da6b817	0.08140581
131	0x3d9378bc	0.07200763
132	0xbeddf17e	-0.43348306
133	0xbd8efda2	-0.0698197
134	0x3db9958c	0.09061727
135	0xbebb2cb8	-0.36557555
136	0xbec3c2b2	-0.38234478
137	0x3e739f28	0.23791182
138	0x3de95f64	0.113951474
139	0x3db91288	0.09036738
140	0x3e682772	0.22671297
141	0x3d49a662	0.04923094
142	0x3e5a4ee3	0.21319155
143	0x3e87c0b5	0.2651421
144	0xbde024e5	-0.10944537
145	0x3dc9713f	0.09836053
146	0xbe313287	-0.17304431
147	0xbc7324f5	-0.014840354
148	0x3e8925ea	0.2678674
149	0xbd23eab8	-0.040018767
150	0x3cc48ed8	0.023993894
151	0xbe274bcf	-0.16337512
152	0xbe19d799	-0.1502365
153	0x3d2ff432	0.042957492
154	0xbc119874	-0.008886445
155	0xbdd4edbb	-0.10396906
156	0x3d9c14ed	0.07621179
157	0xbc3081d3	-0.01077314
158	0x3e84ef26	0.25963706
159	0xbd72b24c	-0.05925207
160	0xbaf93797	-0.001901376
161	0xbe2c2b77	-0.16813456
162	0xbe9316c7	-0.28728315
163	0xbd82c145	-0.063845195
164	0x3cc56873	0.024097657
165	0x3e5e156c	0.2168786
166	0x3e4019d0	0.18759847
167	0xbbcf91af	-0.0063345055
168	0xbd8c9555	-0.0686442
169	0xbd5d372d	-0.054007698
170	0x3dd91e92	0.10601534
171	0xbe01953a	-0.12654582
172	0xbdc2a454	-0.09503999
173	0x3c29ebc0	0.010371149
174	0xbe686cbc	-0.22697729
175	0xbe8b51a6	-0.2721073
176	0x3c24c2cd	0.01005621
177	0xbe245068	-0.16046298
178	0xbe1f4988	-0.15555394
179	0xbe588320	-0.2114377
180	0x3dc3ce32	0.09560813
181	0xbe8e37e1	-0.27777007
182	0xbd914d24	-0.070947915
183	0x3ecb22ee	0.39675087
184	0x3d23e2fb	0.040011387
185	0xbe04a244	-0.12952524
186	0xbc170328	-0.009217061
187	0xbdf89d21	-0.12139345
188	0xbe3b079f	-0.18264626
189	0xbe966746	-0.29375666
190	0xbcb26fa5	-0.021781752
191	0x3de63e33	0.11242332
192	0xbe5eb8a5	-0.21750124
193	0x3cd172f8	0.025567517
194	0xbeea17cf	-0.4572129
195	0xbd2c74ca	-0.042103566
196	0xbd7bca3e	-0.06147217
197	0x3e3988cf	0.18118595
198	0xbdf45cd1	-0.11931766
199	0x3d4d61c3	0.05014206
200	0xbc2eedc7	-0.010676808
201	0xbcfc38b2	-0.030788753
202	0xbdf455bf	-0.11930417
203	0xbdbe4632	-0.092907324
204	0x3e021b79	0.12705792
205	0xbe3f5a1a	-0.18686715
206	0xbd4d9da2	-0.05019916
207	0xbcf0b87f	-0.02938485
208	0x3c3ecc6d	0.011645419
209	0xbceebe2e	-0.02914342
210	0xbe41366a	-0.18868414
211	0xbe3d8535	-0.18507846
212	0xbe49b899	-0.19699325
213	0x3e04a88e	0.12954924
214	0x3dd65caf	0.10466897
215	0x3e65e886	0.22451982
216	0x3dc87ab8	0.09789032
217	0xbd1c3909	-0.03814033
218	0xbc7027e8	-0.014657952
219	0xbdb30973	-0.08742037
220	0xbcf3abea	-0.029745061
221	0xbcb251fc	-0.021767609
222	0xbc839d2a	-0.016066153
223	0x3e1117c4	0.14169222
224	0xbe5f84d2	-0.2182801
225	0xbd495515	-0.049153406
226	0xbb7477f8	-0.0037302952
227	0xbd7e5d65	-0.062100787
228	0xbdbdda99	-0.0927021
229	0xbe09141d	-0.13386579
230	0x3c005771	0.007833348
231	0x3cacca25	0.021092484
232	0xbe80a156	-0.2512309
233	0x3de128af	0.10994088
234	0xbdc27411	-0.09494794
235	0x3d366ddf	0.044538375
236	0xbdce09ec	-0.10060486
237	0xbe6ca26d	-0.23108836
238	0xbdb90aa2	-0.09035231
239	0xbe01b5db	-0.12667029
240	0xbe57789e	-0.21042106
241	0xbdc188e6	-0.094499394
242	0xbcba8012	-0.022766147
243	0xbdac0fad	-0.084014274
244	0xbe69c65a	-0.22829571
245	0xbd4772b3	-0.04869337
246	0xbe68ea20	-0.22745562
247	0x3da5b465	0.08091048
248	0xbe3c1069	-0.18365635
249	0x3e25efe9	0.162048
250	0xbe05daab	-0.13071696
251	0x3de196d9	0.110151
252	0x3e31b51c	0.17354244
253	0xbeb7f3d9	-0.35928228
254	0xbf436194	-0.7632077
255	0xbebbcd15	-0.36679903

regressor.FC_1.linear.bias f4 [25]
0	0xbd11f385	-0.03563263
1	0xbd02a2eb	-0.031893652
2	0x3dcd3870	0.1002053
3	0xbedf8bdc	-0.43661392
4	0xbedc0c89	-0.42978314
5	0x3f1158b6	0.5677599
6	0x3d9dbb4b	0.07701739
7	0x3e026787	0.12734805
8	0x3dbb95ec	0.09159455
9	0x3ed6cbfa	0.41952497
10	0xbd89164c	-0.06693706
11	0x3f120c8d	0.570504
12	0x3d87cc92	0.066308156
13	0xbeb9f03e	-0.36316103
14	0xbedfb531	-0.43692926
15	0x3d7d7b67	0.061885264
16	0xbf0775ee	-0.5291432
17	0xbd5b1723	-0.05348886
18	0x3dc24f82	0.09487821
19	0x3ced711b	0.028984597
20	0x3ea22978	0.31672263
21	0x3d2fdb6e	0.042933874
22	0x3d9df5cc	0.07712898
23	0x3e5eb3ef	0.21748327
24	0x3f0d5432	0.55206597
