logs/ckpt/epoch=14-step=405.ckpt (torch, 204767 bytes, 45 tensors)

feature_extractor.Conv1D_1.conv_1.weight f4 [14, 14, 5]
0.7921742 0.96880424 0.9407337 0.97947013 1.1033121 1.0467242 1.0509564 0.8681573
0.8413471 0.82021934 0.9955477 0.8474899 0.86208993 0.9939343 0.9409308 -1.1104481
-1.1352415 -1.0253565 -1.008883 -0.97181803 -0.41559073 -0.38764477 -0.2931536 -0.41312563
-0.40497112 -0.28984186 -0.4016475 -0.093114324 -0.24510638 -0.2364304 1.5925535 1.6713859
1.5587856 1.3750607 1.1218249 -1.3479695 -1.4448164 -1.2292866 -1.1287805 -1.0186789
-0.4093527 -0.41654822 -0.34753668 -0.44052047 -0.3422639 -0.1791509 -0.1444058 -0.24193881
-0.24229209 -0.06464725 0.90022427 1.0047328 0.97759044 1.0531331 0.88467735 0.6881841
0.78760123 0.6659616 0.70389 0.6425892 -0.7711891 -0.8333709 -0.97849697 -0.8162887
-0.6639796 -0.8569294 -0.9477389 -0.78117824 -0.94170666 -0.7417018 0.71597964 0.6339053
0.7836925 0.7547571 0.72209424 0.9874677 1.0011412 0.8087648 0.7690961 0.68314147
0.6370404 0.67897826 0.49949154 0.648054 0.5718988 -0.9246688 -0.7883307 -0.9332956
-0.90683836 -0.7340277 0.4254178 0.50024813 0.37594914 0.4026149 0.35277626 0.7916132
0.6659216 0.6733529 0.8131729 0.6653134 1.3536947 1.2793034 1.2882118 1.2029788
1.1791208 -1.2569338 -0.9213753 -0.91086406 -0.8256608 -0.847028 0.41872388 0.456278
0.35058936 0.5843918 0.36456144 0.7318184 0.7809557 0.8506484 0.7384269 0.7720284
0.5813667 0.66485125 0.5790534 0.5655785 0.44873154 0.46587166 0.37852544 0.34906724
0.33673579 0.58864295 -0.39575693 -0.4258938 -0.45968935 -0.4883299 -0.30636927 -0.5898914
-0.52301097 -0.45350072 -0.62567395 -0.43849665 0.9847849 1.0773593 1.0134438 0.8596271
1.0006485 1.2250034 1.2174175 1.0048271 1.0410935 0.92515635 0.9864422 0.9113732
0.83024424 0.798375 0.79174393 -1.1442496 -1.075221 -1.0525237 -0.8619795 -0.9882368
0.13446465 0.05022367 -0.062829584 0.17786142 -0.010811303 0.20490767 0.23334959 0.12261302
0.10199699 0.21410772 1.5085168 1.5852255 1.5247909 1.4292797 1.3285531 -1.3307185
-1.2836689 -1.0738523 -0.92060184 -1.107772 0.08849736 0.17080033 0.11746177 0.022845343
0.062146634 0.16926351 0.021120999 0.1771272 0.100060195 0.26982838 1.0169569 0.8670012
0.79409325 0.79758656 0.9470988 0.6496845 0.682362 0.66667837 0.7587665 0.77809054
-0.79513615 -0.619173 -0.7318672 -0.776506 -0.656449 -0.8121094 -0.83966243 -0.87329763
-0.82036597 -0.837148 0.38244167 0.48521316 0.2030135 0.36356312 0.41907856 0.7972782
0.91833055 0.6228051 0.49019012 0.49947032 0.37569153 0.18433048 0.45909223 0.25152263
0.35287774 -0.8131064 -1.0148795 -0.7703462 -0.5253522 -0.5647298 0.011902073 0.090528436
-0.025192443 -0.08475517 0.03971951 0.21669261 0.01720785 0.18011144 0.01262916 0.08918085
1.5190113 1.4618325 0.8883732 1.0820189 0.76732486 -0.9303712 -0.9439045 -0.7657543
-0.6726911 -0.66480994 0.04769966 -0.10534381 -0.09072465 0.104181096 -0.08680572 0.14376183
00000000: eecb 4a3f 8e03 783f ecd3 703f 8ebe 7a3f
00000010: 5539 8d3f 0ffb 853f bd85 863f 8f3f 5e3f
00000020: 8662 573f e5f9 513f 37dc 7e3f 19f5 583f
00000030: edb1 5c3f 7a72 7e3f d7e0 703f 2a23 8ebf
00000040: 984f 91bf e23e 83bf 1423 81bf 11c9 78bf
00000050: 4fc8 d4be 6079 c6be 3b18 96be 3485 d3be
00000060: 6058 cfbe 2766 94be bea4 cdbe b9b2 bebd
00000070: 2bfd 7abe d01a 72be cbd8 cb3f f9ef d53f
00000080: 4986 c73f fd01 b03f f597 8f3f 448a acbf
00000090: beef b8bf 4359 9dbf e17b 90bf 1264 82bf
000000a0: ad96 d1be cf45 d5be 54f0 b1be e68b e1be
000000b0: 373d afbe 5573 37be 1ddf 13be cfbe 77be
000000c0: 6b1b 78be c765 84bd 1975 663f 169b 803f
000000d0: 5e43 7a3f 11cd 863f 377a 623f d52c 303f
000000e0: 3ca0 493f 767c 2a3f 2332 343f ba80 243f
000000f0: a66c 45bf cc57 55bf c77e 7abf 4cf8 50bf
00000100: 91fa 29bf ba5f 5bbf 049f 72bf 4cfb 47bf
00000110: b013 71bf 2be0 3dbf 714a 373f 9e47 223f
00000120: 12a0 483f c337 413f 2bdb 383f afca 7c3f
00000130: 6525 803f 360b 4f3f 7be3 443f 5ce2 2e3f
00000140: 1415 233f 85d1 2d3f 5bbd ff3e dee6 253f
00000150: f667 123f 18b7 6cbf 0ad0 49bf 76ec 6ebf
00000160: 8f26 68bf 3de9 3bbf 5dd0 d93e 4310 003f
00000170: 687c c03e 8a23 ce3e 179f b43e 2aa7 4a3f
00000180: d779 2a3f db60 2c3f 192c 503f fb51 2a3f
00000190: de45 ad3f 37c0 a33f 20e4 a43f 36fb 993f
000001a0: 6eed 963f 35e3 a0bf 40df 6bbf 632e 69bf
000001b0: 825e 53bf d4d6 58bf fa62 d63e 459d e93e
000001c0: 7380 b33e b39a 153f cca7 ba3e 7358 3b3f
000001d0: b6ec 473f 18c4 593f 8c09 3d3f a7a3 453f
000001e0: 73d4 143f b133 2a3f d83c 143f c1c9 103f
000001f0: 24c0 e53e bb86 ee3e 16ce c13e f1b8 b23e
00000200: a268 ac3e 4eb1 163f a7a0 cabe c10e dabe
00000210: 675c ebbe 6006 fabe 6fdc 9cbe 1f03 17bf
00000220: 0ce4 05bf 3f31 e8be 2b2c 20bf a282 e0be
00000230: dd1a 7c3f e9e6 893f 87b8 813f 8610 5c3f
00000240: 4015 803f e9cc 9c3f 56d4 9b3f 2d9e 803f
00000250: 8d42 853f 0cd7 6c3f 7a87 7c3f c14f 693f
00000260: e38a 543f 4e62 4c3f bbaf 4a3f c576 92bf
00000270: d7a0 89bf 19b9 86bf b0aa 5cbf 16fd 7cbf
00000280: 1ab1 093e 56b7 4d3d ccac 80bd 4e21 363e
00000290: e421 31bc 51d3 513e 32f3 6e3e 891c fb3d
000002a0: cce3 d03d 0e3f 5b3e 1417 c13f abe8 ca3f
000002b0: 592c c33f a3f2 b63f 070e aa3f fc54 aabf
000002c0: 434f a4bf fe73 89bf 90ac 6bbf 79cb 8dbf
000002d0: 1b3e b53d 48e6 2e3e cc8f f03d 2826 bb3c
000002e0: 788d 7e3d 6a53 2d3e f205 ad3c d560 353e
000002f0: 5cec cc3d f226 8a3e a52b 823f caf3 5d3f
00000300: b249 4b3f a22e 4c3f 1175 723f b951 263f
00000310: 47af 2e3f 6fab 2a3f 853e 423f f130 473f
00000320: 0b8e 4bbf 1f82 1ebf a65b 3bbf 19c9 46bf
00000330: 0b0d 28bf 67e6 4fbf 1ef4 56bf 6f90 5fbf
00000340: 8103 52bf 554f 56bf 65cf c33e dc6d f83e
00000350: c5e2 4f3e f224 ba3e 7791 d63e 6d1a 4c3f
00000360: b617 6b3f 2870 1f3f 33fa fa3e 93ba ff3e
00000370: a45a c03e 21c1 3c3e 230e eb3e 93c7 803e
00000380: 64ac b43e be27 50bf 92e7 81bf 6935 45bf
00000390: 7b7d 06bf 2292 10bf ea00 433c f966 b93d
000003a0: 6260 cebc 1e94 adbd edb0 223d abe4 5d3e
000003b0: 7af7 8c3c 226f 383e 89ea 4e3c 73a4 b63d
000003c0: f66e c23f 541d bb3f 6d6c 633f 987f 8a3f
000003d0: 676f 443f cf2c 6ebf baa3 71bf 7908 44bf
000003e0: 7c35 2cbf fc30 2abf b860 433d 7fbe d7bd
000003f0: d8cd b9bd e65c d53d 33c7 b1bd 4d36 133e

feature_extractor.Conv1D_1.conv_1.bias f4 [14]
0.40143836 -0.11049208 0.23385568 -0.035630696 0.23283972 -0.5028669 -0.5610194 0.5723654
0.07157907 -0.010937052 0.7669779 -0.92522985 -0.18977885 -0.28534177
00000000: 5489 cd3e ac49 e2bd dd77 6f3e 7ef1 11bd
00000010: 896d 6e3e e3bb 00bf f89e 0fbf 8a86 123f
00000020: 0c98 923d 5231 33bc aa58 443f dddb 6cbf
00000030: 6355 42be 5118 92be

feature_extractor.Conv1D_2.conv_1.weight f4 [28, 14, 3]
0.27527896 0.40070194 0.43193248 -0.26937655 -0.090417124 -0.21886362 0.11740863 -0.061559748
0.0056928117 0.15813795 0.08987454 0.11934165 -0.07869517 0.038311265 -0.13962097 0.5224161
0.508702 0.29129103 -0.025187204 -0.13502698 -0.4401372 -0.34713325 -0.24677266 -0.4194558
0.2398661 -0.121669635 -0.051133 -0.12287598 -0.15009177 -0.36913157 -0.31521305 -0.48331934
-0.26932365 -0.25044757 -0.14588547 -0.11545832 -0.32781607 -0.2672747 -0.17284197 -0.22136018
-0.075683355 -0.08795132 0.12861528 0.11674894 0.17263949 -0.113840975 -0.324143 -0.43924057
-0.15926589 -0.29240486 0.04454568 -0.09200626 -0.14199279 -0.0961551 0.018599303 0.114023514
0.048387434 0.1483661 0.07553003 0.13311821 -0.29004797 -0.39159614 -0.44899496 -0.7857875
-0.75082195 -0.682357 0.04307259 -0.045572996 -0.23752074 -0.100604855 -0.11593365 -0.32895404
-0.6717966 -0.42313227 -0.6166549 0.116435185 -0.17398955 -0.14498486 -0.2082039 -0.34879324
-0.042140603 0.10128918 -0.062947944 -0.08386983 0.3592344 0.19328327 0.5286195 -0.019159706
-0.03727978 -0.14649943 0.117730126 0.10482742 0.021472769 0.07934876 0.05070944 0.18727826
0.34342802 0.08379471 0.09666889 0.47310784 0.3422511 0.26849118 -0.23619647 -0.47766674
-0.3651652 -0.54428667 -0.30588302 -0.50907296 -0.04882834 0.002290967 -0.040061608 0.351313
0.16203037 -0.020980302 -0.51482064 -0.5171172 -0.46858573 -0.3086035 -0.2811701 -0.23284683
-0.2114136 -0.14900957 -0.3864025 0.13441536 -0.28518352 -0.10114939 -0.12607522 -0.017471125
0.013576836 -0.12147365 -0.23488782 -0.104724646 0.18630937 0.048207387 0.20027113 -0.31918514
-0.0737564 -0.17357591 0.4271234 0.36529982 0.110916115 -0.037432138 -0.113560356 0.06653518
-0.3477309 -0.56900007 -0.40990722 -0.96702766 -0.58344364 -0.7746187 -0.13644911 -0.2532966
-0.19073322 0.3661541 0.34677625 0.014817095 -0.7242809 -0.81273043 -0.64699453 -0.116254576
-0.47145993 -0.6099977 0.08622689 -0.042340804 -0.11359257 0.0957891 -0.37078375 -0.29246286
0.5170598 0.32877982 0.4376339 -0.07139361 0.095936425 -0.08916052 0.18079394 0.32772717
0.32512137 0.080006234 -0.035107933 0.19626924 0.07683821 0.00020703465 -0.09039798 0.6361672
0.39517847 0.5258817 -0.2612291 -0.13475746 -0.5032874 -0.37301803 -0.5030561 -0.3925934
-0.0423992 0.11018798 0.03304041 0.38730112 0.107207775 -0.09784709 -0.15576436 -0.3244655
-0.10497897 -0.39758384 -0.2543536 -0.18527165 -0.12566175 -0.098000504 -0.02645893 0.1415563
-0.031563476 0.0327616 0.16260648 0.3598647 0.53738934 -0.19327766 -0.36613303 -0.35130155
-0.01406997 -0.1370277 0.023057586 -0.14694154 -0.04484131 0.14137053 0.26972213 0.24800843
-0.16185541 0.2063963 0.24731342 0.5266916 -0.039482612 -0.34328774 -0.37787992 -0.7663532
-0.37674245 -0.53028446 0.02746097 0.10318529 0.0638252 0.033254642 0.0013675542 -0.34191024
-0.7502216 -0.41361475 -0.35506657 -0.3679712 -0.30432546 -0.3188104 -0.09443095 -0.19093797
0.050371464 -0.24374433 -0.13108373 -0.05356308 0.37894908 0.27284735 0.15388876 -0.25325468
00000000: 5df1 8c3e ce28 cd3e 4126 dd3e b9eb 89be
00000010: 9d2c b9bd c91d 60be f073 f03d 1326 7cbd
00000020: c48a ba3b eaee 213e 2510 b83d 6569 f43d
00000030: ef2a a1bd 46ec 1c3d cdf8 0ebe 10bd 053f
00000040: 4b3a 023f 1924 953e 6555 cebc 8344 0abe
00000050: aa59 e1be 73bb b1be f9b1 7cbe e9c2 d6be
00000060: 759f 753e ee2d f9bd d670 51bd 67a6 fbbd
00000070: a8b1 19be d0fe bcbe 9b63 a1be a275 f7be
00000080: cae4 89be aa3a 80be 0063 15be 6975 ecbd
00000090: 82d7 a7be 3bd8 88be 7cfd 30be 3eac 62be
000000a0: e0ff 9abd d21f b4bd b9b3 033e 111a ef3d
000000b0: 68c8 303e 7525 e9bd 12f6 a5be 24e4 e0be
000000c0: 9916 23be 17b6 95be 8875 363d c76d bcbd
000000d0: 8f66 11be f7ec c4bd 915d 983c 2985 e93d
000000e0: e731 463d 48ed 173e 7daf 9a3d 2450 083e
000000f0: 2b81 94be 4a7f c8be abe2 e5be 5f29 49bf
00000100: de35 40bf f3ae 2ebf e26c 303d c0aa 3abd
00000110: a338 73be eb09 cebd 9f6e edbd aa6c a8be
00000120: ddfa 2bbf cba4 d8be 18dd 1dbf 9275 ee3d
00000130: 512a 32be e976 14be 6733 55be 0795 b2be
00000140: a09b 2cbd b470 cf3d daea 80bd f2c3 abbd
00000150: 92ed b73e 0dec 453e 9c53 073f d1f4 9cbc
00000160: afb2 18bd f203 16be 7e1c f13d c2af d63d
00000170: a9e7 af3c 9a81 a23d b4b4 4f3d dfc5 3f3e
00000180: ccd5 af3e 909c ab3d 57fa c53d 313b f23e
00000190: 893b af3e ad77 893e 7ddd 71be bc90 f4be
000001a0: eff6 babe 5f56 0bbf b39c 9cbe 9b52 02bf
000001b0: 3a00 48bd 0c24 163b a417 24bd 4cdf b33e
000001c0: 4aeb 253e e2de abbc 49cb 03bf cb61 04bf
000001d0: 78ea efbe 4701 9ebe 87f5 8fbe 666f 6ebe
000001e0: cf7c 58be f795 18be 8cd6 c5be 2ea4 093e
000001f0: 9303 92be 6927 cfbd dd19 01be 9b1f 8fbc
00000200: 6171 5e3c 2dc7 f8bd 6f86 70be e079 d6bd
00000210: e2c7 3e3e 1c75 453d e013 4d3e 3c6c a3be
00000220: 980d 97bd e2bd 31be ebaf da3e 9408 bb3e
00000230: fd27 e33d 7152 19bd 5592 e8bd 9943 883d
00000240: c909 b2be fda9 11bf 5cdf d1be 208f 77bf
00000250: 905c 15bf 694d 46bf 51b9 0bbe 18b0 81be
00000260: 924f 43be 8d78 bb3e a88c b13e 67c3 723c
00000270: 796a 39bf 1a0f 50bf 6fa1 25bf e116 eebd
00000280: 3263 f1be cf28 1cbf b997 b03d 8d6d 2dbd
00000290: 39a3 e8bd 132d c43d 5ed7 bdbe b1bd 95be
000002a0: 085e 043f d455 a83e 8d11 e03e d036 92bd
000002b0: 517a c43d ca99 b6bd 0c22 393e dbcb a73e
000002c0: 4f76 a63e 4fda a33d 56cd 0fbd cefa 483e
000002d0: 5a5d 9d3d 7117 5939 9322 b9bd dbdb 223f
000002e0: d554 ca3e 2fa0 063f d2bf 85be dcfd 09be
000002f0: 71d7 00bf 38fc bebe 49c8 00bf 0102 c9be
00000300: c9aa 2dbd 3caa e13d 6255 073d 554c c63e
00000310: c08f db3d 0e64 c8bd b180 1fbe 5820 a6be
00000320: 37ff d6bd 1c90 cbbe a33a 82be dab7 3dbe
00000330: 79ad 00be 7db4 c8bd 66c0 d8bc 22f4 103e
00000340: b448 01bd 0731 063d 5082 263e 3040 b83e
00000350: 5992 093f 94ea 45be ca75 bbbe ccdd b3be
00000360: bb85 66bc fd50 0cbe 43e3 bc3c d877 16be
00000370: 85ab 37bd 70c3 103e 0519 8a3e ecf5 7d3e
00000380: 6dbd 25be 8d59 533e bb3f 7d3e 43d5 063f
00000390: 85b8 21bd 69c3 afbe 7a79 c1be b92f 44bf
000003a0: 63e4 c0be b9c0 07bf d4f5 e03c cf52 d33d
000003b0: c9b6 823d 0536 083d 813f b33a dc0e afbe
000003c0: 860e 40bf 50c5 d3be 49cb b5be b966 bcbe
000003d0: 8cd0 9bbe 1e3b a3be 0465 c1bd 3e85 43be
000003e0: 4f52 4e3d 1d98 79be d03a 06be f664 5bbd
000003f0: 9d05 c23e a6b2 8b3e 0495 1d3e 99aa 81be

feature_extractor.Conv1D_2.conv_1.bias f4 [28]
0.31185186 -0.2479971 0.15690969 -0.3150374 0.20959069 -0.08596487 0.10440905 -0.13730612
0.22215587 -0.29935077 0.12767711 -0.3700557 0.37153685 -0.25961888 0.3802939 -0.2428735
0.28036857 -0.2556621 0.24339923 -0.35915482 0.27977642 -0.21734443 0.17411512 -0.09551814
0.14874618 -0.14352684 0.316102 -0.09704334
00000000: 0cab 9f3e f4f2 7dbe efac 203e 954c a1be
00000010: f19e 563e 5a0e b0bd 69d4 d53d fa99 0cbe
00000020: d47c 633e 8144 99be cabd 023e f177 bdbe
00000030: 143a be3e c4ec 84be e2b5 c23e d5b3 78be
00000040: 788c 8f3e 25e6 82be a63d 793e 24e3 b7be
00000050: db3e 8f3e 8a8f 5ebe 3c4b 323e 049f c3bd
00000060: eb50 183e b3f8 12be 1fd8 a13e a9be c6bd

temporal_extractor.LSTM.lstm.weight_ih_l0 f4 [200, 5]
0.6784405 0.46680045 0.08737736 0.07425987 -0.01930169 0.89958006 1.0385126 0.65164274
0.51128334 0.3369386 -0.0013113243 -0.0409727 0.44258824 0.5426023 0.8047414 1.0622791
1.0863835 1.0519258 0.52107775 0.5299031 0.25243714 0.27719274 0.54627246 0.44133097
0.32601783 0.48752087 0.612525 -0.0031179478 -0.14987205 -0.12105304 -0.25498536 -0.12914011
-0.51275665 -0.16197129 0.1609047 -0.4150188 -0.49662837 -0.5813448 -0.27820152 0.06577583
0.9071381 0.70657194 -0.19404362 -0.23195161 -0.41029927 -0.40221918 -0.62594247 -0.57435215
-0.82293487 -1.2851722 -0.9986651 -0.98850775 -0.81223136 -0.3193047 0.17269397 1.268895
1.4542676 0.9488267 0.66893154 0.7233818 0.89919114 0.8211547 0.42759702 0.4428464
0.52629864 0.17821527 0.12774688 0.019097598 0.09645222 0.84658617 0.7068865 0.90991443
0.5397734 0.46799007 0.14464661 0.9090896 0.6906663 0.7140758 0.651279 0.36426672
0.81769377 0.99337363 0.4093842 0.25707224 0.29297963 0.73434865 0.9369393 1.015989
0.19796021 0.30080366 0.37493634 -0.006912792 -0.5654101 -0.58408415 -0.74815494 0.84868735
1.0865196 0.7850593 0.19381513 -0.0811234 0.113684066 -0.11057218 -0.4276047 -0.20569311
-0.20655228 1.0415698 0.94425505 0.9526426 0.56802815 0.37833512 -0.83487207 -0.79916185
-0.79957384 -0.80806005 -1.2958342 1.1248395 0.75115705 -0.036126837 -0.3048701 -0.6672578
0.9720728 0.46977514 -0.23558469 -0.613764 -0.8859212 0.78524625 0.6705728 0.3224122
0.026103018 0.12692536 -0.47130743 -0.47134224 -0.49317387 -0.65100694 -0.75040376 0.32734016
0.40858427 -0.017175497 0.20610628 0.36669546 0.6024095 0.6832241 -0.017030666 0.2506559
0.5523739 0.7411977 0.4968512 0.43507192 0.24462944 0.21791266 0.39051113 0.5402478
0.4647039 0.56777114 0.58348703 0.9737243 0.7899407 0.52888 0.27843156 0.14029615
-0.78726465 -0.6947871 -0.6718187 -0.2914253 0.2321516 0.9762118 0.75742996 0.46301606
0.0046165315 -0.2584698 0.49567148 0.51211625 0.5640478 0.6534003 0.14828333 1.1672621
0.74755865 -0.13746263 -0.3056411 -0.5852367 -0.44992468 -0.38416427 -0.13726729 -0.110613436
0.03857218 0.65451676 0.6915944 0.833741 0.73703355 0.80634725 1.1506791 1.0125659
0.3376518 0.15255521 -0.040153213 0.7548514 0.80668956 0.83970463 0.8743949 0.7080223
-0.6737466 -0.6695766 -0.5047309 -0.6240797 -0.34608436 0.9319402 1.3834417 1.3447256
0.926608 0.8726219 0.08826792 -0.076571755 -0.7064419 -0.6118785 -0.37903097 0.8302087
0.6923825 0.32687113 -0.07889651 0.23997039 0.83854276 0.93730944 1.0340508 0.7406792
0.599676 0.9744955 0.76653135 0.4634452 0.37175605 -0.05120453 0.33714333 0.34007087
-0.36579734 -0.8954716 -1.0083401 0.6196711 0.64112675 0.3634754 0.20687443 0.23320398
0.52469045 0.5342558 0.18856524 0.3327481 0.45339084 1.137851 1.0648245 0.9679325
0.5071813 0.5442598 0.20893982 0.34188637 0.2654876 0.33380175 0.37689257 0.23803791
00000000: 47ae 2d3f 7800 ef3e e7f2 b23d 8f15 983d
00000010: 941e 9ebc e14a 663f fbed 843f 0fd2 263f
00000020: 77e3 023f 3783 ac3e bee0 abba fdd2 27bd
00000030: ed9a e23e fce7 0a3f 8803 4e3f c3f8 873f
00000040: 9d0e 8b3f 81a5 863f 5a65 053f bba7 073f
00000050: 713f 813e 35ec 8d3e 83d8 0b3f 22f6 e13e
00000060: cfeb a63e 569c f93e 70ce 1c3f 7c56 4cbb
00000070: 0f78 19be a8ea f7bd 718d 82be 4e3d 04be
00000080: 0544 03bf cddb 25be 34c4 243e 587d d4be
00000090: 1346 febe 03d3 14bf 6e70 8ebe 7ab5 863d
000000a0: 343a 683f e6e1 343f 5fb3 46be b984 6dbe
000000b0: bf12 d2be acef cdbe c43d 20bf be08 13bf
000000c0: dcab 52bf 8680 a4bf 84a8 7fbf d80e 7dbf
000000d0: 65ee 4fbf e87b a3be b0d6 303e 276b a23f
000000e0: 7125 ba3f 4ee6 723f 193f 2b3f 8d2f 393f
000000f0: 6431 663f 3237 523f ffed da3e c3bc e23e
00000100: 82bb 063f 107e 363e 14d0 023e 9172 9c3c
00000110: be88 c53d dfb9 583f 83f6 343f 27f0 683f
00000120: 972e 0a3f 659c ef3e 3e1e 143e 19ba 683f
00000130: 82cf 303f accd 363f 38ba 263f 2b81 ba3e
00000140: 6154 513f bc4d 7e3f ce9a d13e f99e 833e
00000150: 6d01 963e 46fe 3b3f 41db 6f3f ed0b 823f
00000160: 15b6 4a3e f002 9a3e a8f7 bf3e b484 e2bb
00000170: b7be 10bf 8a86 15bf 1587 3fbf 9343 593f
00000180: 1313 8b3f a5f9 483f 7977 463e 0624 a6bd
00000190: 31d3 e83d ab73 e2bd 01ef dabe 37a1 52be
000001a0: 7182 53be 2952 853f b3ba 713f 63e0 733f
000001b0: 4b6a 113f 24b5 c13e 2dba 55bf df95 4cbf
000001c0: dfb0 4cbf 06dd 4ebf e5dd a5bf befa 8f3f
000001d0: d44b 403f bcf9 13bd ef17 9cbe 68d1 2abf
000001e0: c3d9 783f 5e86 f03e 1d3d 71be a31f 1dbf
000001f0: bbcb 62bf e605 493f a9aa 2b3f 3613 a53e
00000200: ffd5 d53c b9f8 013e 354f f1be c553 f1be
00000210: 4981 fcbe 64a8 26bf 761a 40bf 2199 a73e
00000220: f531 d13e a1b3 8cbc 860d 533e 82bf bb3e
00000230: 8237 1a3f c6e7 2e3f e583 8bbc f855 803e
00000240: 6068 0d3f 22bf 3d3f 4863 fe3e bfc1 de3e
00000250: 2480 7a3e 7f24 5f3e 13f1 c73e ae4d 0a3f
00000260: abed ed3e 7359 113f 685f 153f ff45 793f
00000270: 8e39 4a3f ae64 073f 958e 8e3e cba9 0f3e
00000280: 2d8a 49bf 91dd 31bf 4ffc 2bbf b235 95be
00000290: 26b9 6d3e 04e9 793f eee6 413f 7110 ed3e
000002a0: 4646 973b 2756 84be a7c8 fd3e 0d1a 033f
000002b0: 7065 103f 3e45 273f 96d7 173e d868 953f
000002c0: 0160 3f3f 01c3 0cbe fe7c 9cbe 13d2 15bf
000002d0: 875c e6be 2eb1 c4be cc8f 0cbe 4c89 e2bd
000002e0: ddfd 1d3d 698e 273f 550c 313f 0d70 553f
000002f0: 3bae 3c3f c66c 4e3f 7449 933f c29b 813f
00000300: b2e0 ac3e 6f37 1c3e b277 24bd f13d 413f
00000310: 3583 4e3f e2f6 563f 58d8 5f3f f340 353f
00000320: a87a 2cbf 5f69 2bbf 0b36 01bf b0c3 1fbf
00000330: f831 b1be a293 6e3f 9e14 b13f f81f ac3f
00000340: 2f36 6d3f 2664 5f3f d0c5 b43d a7d1 9cbd
00000350: 60d9 34bf 12a4 1cbf 5910 c2be 8f88 543f
00000360: fb3f 313f a75b a73e 7e94 a1bd ccba 753e
00000370: bdaa 563f 83f3 6f3f c75b 843f 279d 3d3f
00000380: 5e84 193f 8978 793f 663b 443f b048 ed3e
00000390: cf56 be3e d7bb 51bd 0d9e ac3e c51d ae3e
000003a0: ca49 bbbe a03d 65bf 4a11 81bf c4a2 1e3f
000003b0: e220 243f 7319 ba3e e4d6 533e 06cd 6e3e
000003c0: 1d52 063f fdc4 083f 3f17 413e f55d aa3e
000003d0: d822 e83e 1aa5 913f 2b4c 883f 6dca 773f
000003e0: a2d6 013f 9c54 0b3f 52f4 553e bb0b af3e
000003f0: feed 873e 10e8 aa3e 10f8 c03e 36c0 733e

temporal_extractor.LSTM.lstm.weight_hh_l0 f4 [200, 50]
-0.14831446 -0.7186341 0.29620972 -0.5393048 -0.71754223 -0.62321424 0.7434336 -0.962798
-0.42768773 -0.14403747 0.747462 -0.60186636 -0.06818339 -0.9161132 0.13044414 0.12636986
-0.43523154 -0.5885309 0.33395952 0.5452315 0.4759265 0.345322 0.048896056 -0.8213906
-0.19840816 -0.19177699 -0.22611608 0.19557492 0.33094957 0.34983733 0.32587713 -0.7493416
-0.6589267 0.7224658 -0.20212297 0.4650617 -0.42372724 -0.0377664 0.4775821 0.4937433
0.48386183 0.9156174 0.25526556 0.22054079 0.82899946 0.08696983 0.48174384 -0.5473145
-0.04399163 0.47629213 0.11220475 0.38370946 -0.33190754 0.7323839 0.086523615 0.44570297
-0.2128352 0.09045268 0.034654345 -0.4324904 -0.22343157 -0.29420456 0.67535913 0.018155307
-0.6445127 -0.34626836 0.13033408 0.46491414 -0.9192286 -0.27016672 -0.07620961 0.036272082
0.40651718 -0.030224033 -0.57358694 -0.57296914 -0.4175229 -0.35648882 0.118077286 -0.08319055
-0.4127577 0.1321294 0.07064 -0.15213507 -0.35811216 -0.22312835 0.12954946 0.51663244
0.10919698 0.07084293 0.48916417 -0.101956435 0.044878572 -0.5847246 -0.42540368 -0.016792284
0.05231207 0.22632958 0.004435132 -0.4712418 0.19762494 -0.30438992 0.86734116 -0.80525
-0.37963763 -0.48824582 -0.80578184 -0.17993335 0.60382295 -0.6780417 0.5412391 1.1112025
-0.7536579 0.507244 0.7279503 0.26102176 -0.48556638 -0.06554402 0.874303 0.75084895
-0.44038215 0.09756694 0.6069169 0.4133016 0.006965055 0.82062364 -0.6256978 0.026659464
-1.1789262 -0.029169522 0.053977996 0.04273098 0.16408142 -1.3074949 0.21668991 0.26189208
-0.1291759 -1.0043123 -0.882425 1.095232 0.7378357 1.1358837 -0.8616601 0.6035543
-0.26414222 -0.7292998 0.559061 -0.43459448 0.76767606 1.0042578 -0.43352598 0.38371444
-0.5491349 0.4959777 -0.14094378 0.30506104 -0.0019372226 0.16474196 -0.11533755 -0.3783839
-0.19795156 -0.14281622 0.5738393 -0.26527724 -0.41224077 -0.37919667 0.209788 0.47739035
-0.862565 -0.66655874 0.030081438 0.45226324 0.47906587 0.020961732 0.082296535 -0.23283382
-0.49677354 -0.33515918 -0.7749114 0.015822519 -0.6710148 0.026071185 -0.029475668 0.07446395
-0.29033145 -0.4216597 -0.1714535 0.7427025 0.5483391 -0.019751586 0.9630394 0.0800164
0.30442494 -0.47270763 -0.11899914 0.26192877 0.69761205 0.38041708 0.10023893 -0.30702946
-0.098069474 0.4804123 -0.6278768 0.46136048 -0.030969601 0.6051662 0.26039138 -0.9572223
-0.18096893 -0.010765711 -0.17986658 -0.10312944 0.28700444 0.19862759 -0.46700978 -0.5266107
0.46699876 0.60740924 -0.56106585 -0.53053695 0.41998768 0.58190835 -0.11494759 -0.6700199
-0.9283875 -0.50588536 0.1763483 -0.48583922 -0.48724514 -0.1203321 -0.3070263 -0.062552795
-1.0604622 0.3954977 -0.43749595 -0.54057467 0.08019956 0.38963896 0.60135955 -0.021589728
-0.1397654 -0.6247296 0.35863847 -0.53805697 0.23831192 0.22468981 0.00958812 0.7306068
0.6205968 -0.37110955 0.033977713 0.66211206 -0.38668612 1.0992142 0.014392523 1.4583926
00000000: bfdf 17be 68f8 37bf cda8 973e e10f 0abf
00000010: d9b0 37bf f88a 1fbf aa51 3e3f ee79 76bf
00000020: e3f9 dabe 8f7e 13be ab59 3f3f ea13 1abf
00000030: bca3 8bbd 6586 6abf 2693 053e 1a67 013e
00000040: abd6 debe f6a9 16bf befc aa3e 4b94 0b3f
00000050: a3ac f33e 0cce b03e 3b47 483d a846 52bf
00000060: 822b 4bbe 3061 44be f98a 67be cb44 483e
00000070: 3972 a93e e11d b33e 5ed9 a63e dad4 3fbf
00000080: 6caf 28bf 85f3 383f 53f9 4ebe 911c ee3e
00000090: c7f2 d8be f1b0 1abd a485 f43e eccb fc3e
000000a0: bdbc f73e e765 6a3f 2bb2 823e 72d5 613e
000000b0: 4f39 543f 3d1d b23d 21a7 f63e ce1c 0cbf
000000c0: 9130 34bd 90dc f33e 9bcb e53d 9175 c43e
000000d0: c9ef a9be 837d 3b3f 4b33 b13d 2e33 e43e
000000e0: 78f1 59be 413f b93d b7f1 0d3d 626f ddbe
000000f0: 3fcb 64be fba1 96be 56e4 2c3f 70ba 943c
00000100: c9fe 24bf 164a b1be 4c76 053e 3a09 ee3e
00000110: 9152 6bbf 4b53 8abe c913 9cbd 0992 143d
00000120: 0523 d03e 6498 f7bc 98d6 12bf 1bae 12bf
00000130: 90c5 d5be b485 b6be 81d2 f13d cf5f aabd
00000140: fa54 d3be ee4c 073e b4ab 903d 4cc9 1bbe
00000150: 7a5a b7be c27b 64be 9da8 043e 0642 043f
00000160: aba2 df3d 1916 913d ba73 fa3e 89ce d0bd
00000170: 98d2 373d 83b0 15bf 83ce d9be f98f 89bc
00000180: 2e45 563d f1c2 673e 9554 913b 9b46 f1be
00000190: 315e 4a3e ffd8 9bbe 120a 5e3f dd24 4ebf
000001a0: dd5f c2be 5bfb f9be b847 4ebf 7340 38be
000001b0: 2494 1a3f 2494 2dbf a58e 0a3f e23b 8e3f
000001c0: b9ef 40bf beda 013f f35a 3a3f a5a4 853e
000001d0: 289c f8be f13b 86bd 52d2 5f3f a337 403f
000001e0: c579 e1be 2dd1 c73d e85e 1b3f 449c d33e
000001f0: 1e3b e43b 6414 523f bb2d 20bf f364 da3c
00000200: 0ee7 96bf ecf4 eebc 0818 5d3d ae06 2f3d
00000210: f604 283e fe5b a7bf f6e3 5d3e b816 863e
00000220: b046 04be 4e8d 80bf 9be6 61bf 9030 8c3f
00000230: cde2 3c3f a364 913f c295 5cbf 8982 1a3f
00000240: a63d 87be 64b3 3abf 9f1e 0f3f 2b83 debe
00000250: 6b86 443f 858b 803f 1ef7 ddbe 3876 c43e
00000260: 1b94 0cbf caf0 fd3e 9153 10be f630 9c3e
00000270: 67ea fdba 1eb2 283e 1836 ecbd 89bb c1be
00000280: d0b3 4abe 6a3e 12be 22e7 123f 6bd2 87be
00000290: 3911 d3be 1126 c2be aad2 563e 826c f43e
000002a0: 0fd1 5cbf 98a3 2abf 596d f63c 0c8f e73e
000002b0: 1f48 f53e f0b7 ab3c 168b a83d fd6b 6ebe
000002c0: 1a59 febe fc99 abbe 9860 46bf 3a9e 813c
000002d0: a0c7 2bbf 3d93 d53c f576 f1bc 8e80 983d
000002e0: 53a6 94be c8e3 d7be 8291 2fbe c021 3e3f
000002f0: f45f 0c3f 14ce a1bc c089 763f a3df a33d
00000300: 96dd 9b3e bc06 f2be d2b5 f3bd 871b 863e
00000310: b496 323f 07c6 c23e 114a cd3d f732 9dbe
00000320: a6d8 c8bd 9af8 f53e 89bc 20bf 7137 ec3e
00000330: f6b3 fdbc 2cec 1a3f 0552 853e 850c 75bf
00000340: eb4f 39be aa62 30bc f22e 38be 8735 d3bd
00000350: 3ff2 923e 0865 4b3e e81b efbe f5cf 06bf
00000360: 761a ef3e 2c7f 1b3f 03a2 0fbf 45d1 07bf
00000370: a008 d73e f2f7 143f a469 ebbd 6d86 2bbf
00000380: ceaa 6dbf b481 01bf a694 343e ebbf f8be
00000390: 3278 f9be ad70 f6bd 8d32 9dbe ae1b 80bd
000003a0: 3abd 87bf ad7e ca3e 78ff dfbe 1a63 0abf
000003b0: ab3f a43d c27e c73e b3f2 193f f1dc b0bc
000003c0: a91e 0fbe 47ee 1fbf 769f b73e 1abe 09bf
000003d0: 0a08 743e 1615 663e 7d17 1d3c 0c09 3b3f
000003e0: 6fdf 1e3f 1202 bebe 372c 0b3d 2d80 293f
000003f0: b9fb c5be 0db3 8c3f 9ece 6b3c 9cac ba3f

temporal_extractor.LSTM.lstm.bias_ih_l0 f4 [200]
-0.1435532 -0.1316287 -0.48910204 -0.21353798 0.4557491 0.56748843 -0.26651224 1.1454691
-0.6606856 -0.30145195 0.26116756 0.04172059 -0.31251252 0.15628415 -0.35048643 0.0101058325
-0.24751005 -0.10665521 -0.23514538 -0.15474999 -1.1484301 -0.021051524 0.11667461 0.33993042
-0.024537027 -0.2503062 0.026968535 0.014481738 -0.56153035 -0.4230117 0.0035489576 0.52193224
-0.067397855 -0.3102741 -0.28582817 -0.24773346 -0.7822816 -0.2665003 -0.15075153 -0.59878016
0.02533086 -0.44663006 -0.7396399 -0.102110535 -0.38436103 -0.07107605 0.071338885 -0.4856433
-0.73448986 -0.1461741 -0.17209984 0.33137566 -0.53305167 0.5433604 0.7281793 0.083999194
0.10043693 0.74254894 -0.13901377 0.061419237 0.49552038 0.6053831 0.6402336 0.18963198
0.47075763 -0.4580427 -0.2752387 0.14840384 0.30665234 -0.120383486 0.34347928 -0.2849833
-0.2571457 0.627209 -0.5468475 0.21316145 0.3131414 0.015023656 -0.0043480936 -0.07579442
0.20714055 -0.1589324 0.5670026 -0.34196943 0.025054647 -0.117823824 -0.3473247 0.0054748873
-0.24401535 -0.008416935 -0.36417553 0.8714078 -0.50644624 -0.5146296 -0.07494185 -0.22145745
-0.9755247 -0.48104903 -0.2660818 -0.212729 0.25275096 -0.119252406 0.053824972 -0.15234455
-0.36572683 0.35817307 -0.5210412 -0.5928909 -0.26049417 0.46711776 0.28414366 -0.27385053
0.32608616 -0.19877288 0.11557311 0.11166869 -0.1257659 0.09208033 -0.057396933 0.047845032
-0.06901157 0.22631617 -0.44201842 -0.4197059 -0.4724375 -0.06762678 0.483945 0.08081935
-0.102129206 -0.30987406 0.20015737 -0.09151732 -0.4412052 -0.043401476 0.1579683 0.076671116
0.017874185 0.23514234 0.22760412 0.17704447 -0.22470607 -0.21310546 -0.28519005 -0.005325139
0.042177282 0.42627895 -0.08842539 -0.083187 0.12880722 -0.19795066 0.075419836 0.09318549
0.31120098 0.5250296 -0.27818012 0.82524294 -0.4925532 1.3879045 -0.13824105 0.72861654
-0.08454489 0.7215272 0.6888267 -0.659618 0.5600361 0.05254332 -0.08861001 0.19321051
0.51393604 -0.08789613 0.37891692 0.41759282 0.34485477 0.96404815 0.705031 0.3347477
-0.08818869 -0.15364948 -0.25321066 -0.58338773 0.42587402 0.024927797 1.0274422 0.07526856
-0.017341625 -0.024042876 -0.41315377 0.25042173 0.6863541 -0.07201125 0.053671878 -0.040669303
0.30203265 0.060345825 0.24145615 -0.010958794 0.93416524 0.18538423 0.12771724 0.5569704
00000000: 9cff 12be adc9 06be 956b fabe b3a9 5abe
00000010: f257 e93e ec46 113f 4b74 88be bb9e 923f
00000020: b122 29bf e957 9abe c1b7 853e 36e3 2a3d
00000030: a401 a0be f408 203e f572 b3be ef92 253c
00000040: 4673 7dbe 0c6e dabd f3c9 70be c876 1ebe
00000050: c2ff 92bf 3f74 acbc 19f3 ee3d 5c0b ae3e
00000060: e001 c9bc 2228 80be 1eed dc3c d044 6d3c
00000070: 74c0 0fbf fd94 d8be a195 683b 5a9d 053f
00000080: e307 8abd 3fdc 9ebe 1258 92be d7ad 7dbe
00000090: 9b43 48bf ba72 88be 9c5e 1abe a849 19bf
000000a0: aa82 cf3c b2ac e4be 0a59 3dbf 541f d1bd
000000b0: f8ca c4be 5290 91bd 1f1a 923d 3da6 f8be
000000c0: 8707 3cbf aaae 15be f13a 30be 12aa a93e
000000d0: 1376 08bf ab19 0b3f f569 3a3f c507 ac3d
000000e0: e1b1 cd3d b017 3e3f a059 0ebe bd92 7b3d
000000f0: d9b4 fd3e 63fa 1a3f 59e6 233f e32e 423e
00000100: 2507 f13e 9384 eabe 16ec 8cbe 2df7 173e
00000110: 8901 9d3e 9e8b f6bd 84dc af3e 55e9 91be
00000120: 9aa8 83be c590 203f 33fe 0bbf ff46 5a3e
00000130: 1254 a03e c825 763c 747a 8ebb 1b3a 9bbd
00000140: a71c 543e 2dbf 22be 1527 113f 9e16 afbe
00000150: 673f cd3c 9e4d f1bd 8bd4 b1be af66 b33b
00000160: 29df 79be 2fe7 09bc 3775 babe 9514 5f3f
00000170: 76a6 01bf c4be 03bf 1d7b 99bd bec5 62be
00000180: fdbb 79bf 0f4c f6be e03b 88be a2d5 59be
00000190: 9368 813e 9b3a f4bd 9377 5c3d 3600 1cbe
000001a0: 8c40 bbbe 7662 b73e f562 05bf b3c7 17bf
000001b0: 7e5f 85be 0f2a ef3e 477b 913e 2336 8cbe
000001c0: c4f4 a63e 1e8b 4bbe 98b1 ec3d 8eb2 e43d
000001d0: c7c8 00be 9d94 bc3d 0c19 6bbd 27f9 433d
000001e0: f055 8dbd 6dbf 673e 3d50 e2be b1e3 d6be
000001f0: 54e3 f1be e97f 8abd a4c7 f73e 9e84 a53d
00000200: 1e29 d1bd d0a7 9ebe 0ef6 4c3e 6f6d bbbd
00000210: a6e5 e1be bfc5 31bd 71c2 213e bf05 9d3d
00000220: e26c 923c 27c9 703e 0e11 693e 254b 353e
00000230: 5919 66be 5138 5abe 6e04 92be 817e aebb
00000240: 16c2 2c3d 3c41 da3e 5f18 b5bd f25d aabd
00000250: 0ae6 033e 94b3 4abe b775 9a3d 09d8 be3d
00000260: bc55 9f3e 5768 063f a06d 8ebe 1f43 533f
00000270: ef2f fcbe dba6 b13f 108f 0dbe 9d86 3a3f
00000280: df25 adbd 02b6 383f f256 303f badc 28bf
00000290: 875e 0f3f aa37 573d 2a79 b5bd fad8 453e
000002a0: 5091 033f e302 b4bd 6601 c23e bace d53e
000002b0: ce90 b03e dccb 763f e97c 343f 0d64 ab3e
000002c0: 469c b4bd 4a56 1dbe d4a4 81be e658 15bf
000002d0: 290c da3e 6135 cc3c 3a83 833f 6726 9a3d
000002e0: 0610 8ebc 91f5 c4bc e488 d3be 4737 803e
000002f0: e7b4 2f3f a27a 93bd 0bd7 5b3d db94 26bd
00000300: 06a4 9a3e 2f2d 773d 4840 773e 838c 33bc
00000310: 7425 6f3f 5dd5 3d3e 4fc8 023e 9d95 0e3f

temporal_extractor.LSTM.lstm.bias_hh_l0 f4 [200]
-0.13833171 -0.10700772 -0.39092547 -0.35929853 0.3087054 0.5444434 -0.23840182 1.2241228
-0.4572818 -0.37385464 0.31713465 0.015132713 -0.2140008 0.08228106 -0.40071887 0.076799504
-0.16389547 -0.002846371 -0.26775768 -0.3481556 -1.1201667 -0.050284334 0.031761244 0.09756436
0.0645471 -0.26662105 0.08897544 0.035199996 -0.6189299 -0.45366102 -0.21266608 0.4692679
-0.059256196 -0.29939786 -0.07447096 -0.13329557 -0.6575605 -0.1949388 0.00853395 -0.5952061
-0.1256104 -0.3546144 -0.59079254 0.013656519 -0.4022269 -0.14786834 0.05369245 -0.48862544
-0.6616068 -0.23853502 -0.076218426 0.3723693 -0.6362518 0.5051548 0.7364205 0.20238133
0.27967876 0.6740548 -0.037581693 0.2310754 0.35635293 0.46953294 0.7027114 -0.03936035
0.61193854 -0.35765097 -0.3438382 0.15782346 0.2724192 -0.11900163 0.2880744 -0.25377512
-0.25264388 0.49312142 -0.47586232 0.11590377 0.5348941 0.14592071 0.06198111 0.06415775
0.008929159 -0.25776893 0.45824763 -0.40263596 0.044500057 -0.3119983 -0.44243273 0.04382588
-0.28250772 0.089167245 -0.34863678 0.8423214 -0.61257464 -0.49395975 0.015145751 -0.38654673
-0.9093078 -0.4834447 -0.31463486 -0.17792496 0.24833581 -0.03458529 0.20061284 0.007943532
-0.44311422 0.16515687 -0.4398024 -0.43079326 -0.07142007 0.36376846 0.25725377 -0.22493066
0.2709902 -0.3292623 0.048797306 0.111031264 -0.10197975 -0.036756814 0.12188844 0.20970978
-0.14077035 0.24119304 -0.37383807 -0.41145214 -0.50937146 0.05606031 0.53387 0.3008885
-0.29591644 -0.16420738 0.22472835 -0.17682879 -0.2917963 0.005075794 0.27825314 0.0019117636
-0.19668776 0.25596392 0.1845209 0.12801 -0.34590885 -0.09839613 -0.21173309 0.060294736
0.16487134 0.3441162 -0.09754575 -0.12659049 0.104051165 -0.28723195 -0.011368281 0.09563217
0.35411322 0.47557184 -0.061221376 0.9472848 -0.39033648 1.4276091 0.028355915 0.63994795
0.003962324 0.794852 0.53594357 -0.82717174 0.73153967 0.053420283 -0.023682967 0.21373054
0.47253007 -0.013790804 0.42534745 0.28185278 0.38040963 0.9047744 0.62102485 0.37482867
0.041990343 -0.2723753 -0.25428465 -0.523674 0.17421407 -0.078027286 0.87859094 0.03957678
0.22770105 -0.030917268 -0.4009375 0.3947982 0.80100137 -0.010682011 0.053257257 -0.19970162
0.28048125 0.03670851 0.13031037 0.10374701 1.0006226 0.21023731 0.16524899 0.70099175
00000000: d4a6 0dbe dd26 dbbd 6227 c8be faf5 b7be
00000010: a20e 9e3e a560 0b3f 9b1f 74be 0eb0 9c3f
00000020: d720 eabe e069 bfbe 795f a23e 33ef 773c
00000030: 0723 5bbe f982 a83d 062b cdbe 0f49 9d3d
00000040: 37d4 27be 2e8a 3abb 8917 89be 7341 b2be
00000050: 9f61 8fbf f2f6 4dbd 1418 023d d3cf c73d
00000060: 4531 843d 8e82 88be c138 b63d df2d 103d
00000070: 3172 1ebf 4246 e8be 23c5 59be e243 f03e
00000080: a0b6 72bd ad4a 99be 3b84 98bd a27e 08be
00000090: e355 28bf 099e 47be fbd1 0b3c 6d5f 18bf
000000a0: 03a0 00be 0590 b5be 2e3e 17bf 98bf 5f3c
000000b0: aff0 cdbe cc6a 17be 9dec 5b3d 1d2d fabe
000000c0: 105f 29bf 8642 74be 6818 9cbd 30a7 be3e
000000d0: 66e1 22bf d351 013f 0e86 3c3f 0d3d 4f3e
000000e0: 0e32 8f3e db8e 2c3f 43ef 19bd 089f 6c3e
000000f0: e473 b63e 9f66 f03e e5e4 333f 5238 21bd
00000100: 01a8 1c3f 071e b7be 900b b0be 799c 213e
00000110: 887a 8b3e 20b7 f3bd 7d7e 933e d0ee 81be
00000120: 8a5a 81be 697a fc3e 3aa4 f3be f55e ed3d
00000130: d2ee 083f 3d6c 153e e8df 7d3d 2365 833d
00000140: 9b4b 123c 4afa 83be 6f9f ea3e 4d26 cebe
00000150: b145 363d 3ebe 9fbe 8b86 e2be c482 333d
00000160: daa4 90be 519d b63d 8580 b2be 60a2 573f
00000170: b1d1 1cbf 4be8 fcbe e225 783c 74e9 c5be
00000180: 65c8 68bf 1086 f7be d217 a1be f631 36be
00000190: be4b 7e3e 4ea9 0dbd 746d 4d3e 9725 023c
000001a0: dedf e2be e21e 293e c82d e1be ef90 dcbe
000001b0: b044 92bd dc3f ba3e c4b6 833e 3954 66be
000001c0: 3abf 8a3e 1195 a8be afdf 473d 5c64 e33d
000001d0: c2da d0bd 508e 16bd a5a0 f93d 29be 563e
000001e0: 1a26 10be 4ffb 763e b467 bfbe dba9 d2be
000001f0: 2b66 02bf 7f9f 653d b4ab 083f 0f0e 9a3e
00000200: 5c82 97be fb25 28be 301f 663e 9b12 35be
00000210: 5366 95be d952 a63b 3277 8e3e 2494 fa3a
00000220: 8468 49be b40d 833e 0cf3 3c3e 0e15 033e
00000230: f71a b1be e983 c9bd 8fd0 58be 9df7 763d
00000240: 08d4 283e 0030 b03e 11c6 c7bd f0a0 01be
00000250: c718 d53d 1110 93be 0742 3abc cdda c33d
00000260: 544e b53e 277e f33e 44c3 7abd 4281 723f
00000270: 2fda c7be e5bb b63f aa4a e83c a1d3 233f
00000280: 62d6 813b 6c7b 4b3f 9933 093f 87c1 53bf
00000290: 2f46 3b3f 3acf 5a3d c802 c2bc 2edc 5a3e
000002a0: 76ef f13e d3f2 61bc 24c7 d93e 024f 903e
000002b0: 0dc5 c23e 4c9f 673f 7cfb 1e3f 8be9 bf3e
000002c0: 11fe 2b3d c674 8bbe 9931 82be 800f 06bf
000002d0: 2c65 323e c5cc 9fbd 56eb 603f 431b 223d
000002e0: 772a 693e 3646 fdbc ae47 cdbe fd22 ca3e
000002f0: 6d0e 4d3f 9a03 2fbc 4824 5a3d 957e 4cbe
00000300: 3d9b 8f3e aa5b 163d 1570 053e 5079 d43d
00000310: 6714 803f 7348 573e 0837 293e 3274 333f

regressor.FC_1.linear.weight f4 [25, 50]
0.42363557 -0.010722801 0.048412617 -0.16352113 -0.19048186 -0.11250033 -0.048228994 -0.08637529
0.5806365 -0.4555492 -0.019269643 0.0143482825 -0.4326007 0.14971624 0.31487092 0.3104742
-0.12798868 -0.006562445 0.26140583 0.19170259 0.15525012 -0.039389122 -0.10255186 0.22252443
-0.38152218 0.48619512 -0.32554528 0.20138466 -0.47103798 -0.05870145 0.034215074 -0.10037524
0.102540314 0.08728525 0.00261679 0.22143479 -0.16974366 0.16534084 0.03674375 0.14469539
-0.13168982 0.04857412 -0.03716814 0.18515442 0.05084164 -0.26866308 0.23413019 0.04745734
0.23593989 0.16011123 0.09406441 -0.31590047 0.7414309 -0.29014426 0.07963427 -0.15709957
0.2508637 -0.58141726 -0.009253769 0.27090165 -0.06275735 -0.22080095 0.0077231955 -0.6021563
0.18275942 0.46013257 0.05716922 -0.14034826 -0.20116489 0.016624449 -0.18065996 0.026102435
-0.17518654 -0.61801255 -0.39704978 -0.07812064 0.22875784 0.43755418 0.42659363 -0.062404245
0.18065126 -0.70933324 -0.7199535 -0.30221754 0.27613628 0.27214223 -0.07828788 0.54974425
0.07080244 0.26293615 0.13431467 0.3204636 -0.29462716 0.1381236 0.108202025 0.09128776
0.27273682 -0.44370946 -0.32637462 0.2045774 0.15044883 0.17319588 -0.021679664 0.04562668
0.34276193 0.19297794 1.0121334 0.16355565 0.024836611 0.40708223 -0.1653106 -0.023782015
-0.4295619 -0.8286246 -0.14272548 -0.59655994 0.35498425 0.20983236 -0.1714309 -0.2503476
0.5187584 -0.39748192 0.08920604 -1.091256 1.0766929 -0.13417515 0.024805248 0.074529484
-0.14531407 0.22068445 0.045210212 0.2018243 -1.5155557 0.0592017 0.055826664 -0.4270933
0.18348356 -0.4233034 -0.19337058 -0.10238467 0.15770024 0.348542 0.1781705 -0.14336751
-0.31657463 -0.35259575 -0.5798041 0.008811779 0.060301717 -0.09532701 0.11619599 0.07390983
0.20784387 0.066323936 0.24988325 0.23714983 0.9121608 0.10646692 -0.0669997 0.46730998
-0.39283544 -0.09665291 -0.18297954 -0.7788712 -0.32494798 -0.62012774 0.26684693 0.24277137
-0.12548396 -0.07290471 0.664803 -0.3193909 -0.05684596 -1.1467503 0.88305986 0.041223466
0.048065573 -0.20555483 -0.028228065 0.3385319 -0.18906872 0.11912465 -1.4311286 0.0862047
-0.058824725 -0.32477286 0.18974495 -0.38318038 -0.068490826 0.039118838 0.15682074 0.33385444
0.19615121 0.023882927 -0.14826058 -0.2807411 -0.6345203 -0.1356595 -0.10783786 -0.19045381
0.42472625 -0.8309012 1.0267295 -1.0544037 -0.0793085 -0.78060204 0.3104533 0.67182916
0.3323583 0.41277117 0.5268625 0.2131156 -0.93356425 -0.10753869 1.1719865 -0.331745
-0.22498868 -0.3741125 0.86734605 0.43584892 0.13933577 0.007345287 0.19380769 -0.5186218
-0.4644652 0.43531117 0.2363588 0.49582294 -0.5960643 0.22747011 1.0967015 -0.08995629
-0.5973613 0.21781382 0.5820512 0.789729 0.11428509 -0.8007279 -0.319363 0.7138754
0.33280864 0.57930154 0.067816675 0.19366023 0.53768855 -0.3135942 -0.16851406 -0.8491474
0.5521198 1.5739135 0.29852918 -0.22663058 0.3993037 -0.33905146 -0.09798936 -1.1914345
00000000: c3e6 d83e b0ae 2fbc 4f4c 463d 1572 27be
00000010: ad0d 43be 9366 e6bd c48b 45bd 87e5 b0bd
00000020: 98a4 143f bf3d e9be 5fdb 9dbc 0f15 6b3c
00000030: d77d ddbe 374f 193e c336 a13e 79f6 9e3e
00000040: 770f 03be c709 d7bb fcd6 853e af4d 443e
00000050: e3f9 1e3e 7d56 21bd b606 d2bd 72dd 633e
00000060: e056 c3be 91ee f83e dfad a6be c837 4e3e
00000070: e42b f1be ee70 70bd 1b25 0c3d 8991 cdbd
00000080: a800 d23d 9cc2 b23d 737e 2b3b cdbf 623e
00000090: 48d1 2dbe 1c4f 293e 9d80 163d 072b 143e
000000a0: b2d9 06be a8f5 463d 9f3d 18bd 1f99 3d3e
000000b0: 533f 503d 358e 89be d3bf 6f3e a162 423d
000000c0: 3a9a 713e 33f4 233e d7a4 c03d b5bd a1be
000000d0: 6ace 3d3f ca8d 94be 4b17 a33d b6de 20be
000000e0: 3571 803e c3d7 14bf 1f9d 17bc 9fb3 8a3e
000000f0: ed86 80bd a519 62be dc12 fd3b ea26 1abf
00000100: 4925 3b3e 7f96 eb3e 462a 6a3d 74b7 0fbe
00000110: 2bfe 4dbe ff2f 883c edfe 38be c6d4 d53c
00000120: 1a64 33be 1236 1ebf 1c4a cbbe b7fd 9fbd
00000130: 7f3f 6a3e 1a07 e03e 7b6a da3e 989b 7fbd
00000140: a5fc 383e dd96 35bf df4e 38bf 42bc 9abe
00000150: bc61 8d3e 3a56 8b3e 6555 a0bd 0abc 0c3f
00000160: df00 913d 919f 863e c989 093e ce13 a43e
00000170: 5fd9 96be 4670 0d3e 0699 dd3d 14f5 ba3d
00000180: 29a4 8b3e e32d e3be 931a a7be bd7c 513e
00000190: 420f 1a3e 435a 313e 8d99 b1bc 0be3 3a3d
000001a0: 7e7e af3e 029c 453e 968d 813f 227b 273e
000001b0: 2676 cb3c 156d d03e 2f47 29be 80d2 c2bc
000001c0: 8aef dbbe be20 54bf a126 12be 27b8 18bf
000001d0: 7fc0 b53e 4bde 563e 958b 2fbe 902d 80be
000001e0: 5acd 043f c082 cbbe a8b1 b63d 47ae 8bbf
000001f0: 13d1 893f 3665 09be 6034 cb3c eaa2 983d
00000200: 36cd 14be 1bfb 613e 582e 393d 08ab 4e3e
00000210: bbfd c1bf 7b7d 723d 80aa 643d f9ab dabe
00000220: 1de3 3b3e 39bb d8be f002 46be 0eaf d1bd
00000230: 2c7c 213e 1974 b23e 5472 363e efce 12be
00000240: 1216 a2be 6e87 b4be 0b6e 14bf 485f 103c
00000250: effe 763d cf3a c3bd 2af8 ed3d 095e 973d
00000260: 06d5 543e d8d4 873d 65e1 7f3e 68d7 723e
00000270: 5f83 693f 540b da3d 2437 89bd 4143 ef3e
00000280: ba21 c9be f6f1 c5bd fd5e 3bbe 1a64 47bf
00000290: 955f a6be b1c0 1ebf 29a0 883e 0f99 783e
000002a0: de7e 00be 114f 95bd 8830 2a3f 3487 a3be
000002b0: 4fd7 68bd b7c8 92bf 3610 623f f0d9 283d
000002c0: 68e0 443d f77c 52be 8b3e e7bc 0e54 ad3e
000002d0: 3b9b 41be a0f7 f33d 392f b7bf 178c b03d
000002e0: 32f2 70bd a148 a6be 804c 423e 3830 c4be
000002f0: eb44 8cbd 133b 203d 9e95 203e f8ee aa3e
00000300: dddb 483e 21a6 c33c 9fd1 17be 4cbd 8fbe
00000310: ec6f 22bf 53ea 0abe 19da dcbd 5306 43be
00000320: b875 d93e f1b5 54bf df6b 833f b3f6 86bf
00000330: 7f6c a2bd 89d5 47bf bcf3 9e3e fffc 2b3f
00000340: de2a aa3e be56 d33e 76e0 063f fa3a 5a3e
00000350: 11fe 6ebf 3f3d dcbd a703 963f 7bda a9be
00000360: 6f63 66be ac8b bfbe 640a 5e3f 9727 df3e
00000370: 09ae 0e3e bcb0 f03b 8675 463e 66c4 04bf
00000380: 62ce edbe 1be1 de3e 0b08 723e 81dc fd3e
00000390: ac97 18bf eded 683e b760 8c3f 013b b8bd
000003a0: acec 18bf 960a 5f3e 4f01 153f ae2b 4a3f
000003b0: 4d0e ea3d 81fc 4cbf 8c83 a3be 8ac0 363f
000003c0: e565 aa3e 1b4d 143f 78e3 8a3d de4e 463e
000003d0: f5a5 093f 6b8f a0be f38e 2cbe b961 59bf
000003e0: b957 0d3f ff75 c93f d1d8 983e d911 68be
000003f0: 8971 cc3e 2798 adbe a5ae c8bd ed80 98bf

regressor.FC_1.linear.bias f4 [25]
-0.62206995 0.37995407 0.20866473 0.17529376 -0.61641854 -0.21524799 0.0052290596 0.41558516
0.10185347 0.41308263 -0.68610156 0.15285395 -0.06699131 0.5025673 0.14709102 0.392701
0.39488336 0.098344706 -0.048736412 0.1334886 0.38866246 -0.30263376 0.020696536 0.05415586
-0.693752
00000000: fa3f 1fbf 5789 c23e 35ac 553e 3580 333e
00000010: 9bcd 1dbf f869 5cbe 8858 ab3b 94c7 d43e
00000020: 8d98 d03d 917f d33e 5aa4 2fbf bf85 1c3e
00000030: bd32 89bd 40a8 003f 079f 163e 1b10 c93e
00000040: 272e ca3e f368 c93d d59f 47bd 3cb1 083e
00000050: c4fe c63e d0f2 9abe c88b a93c 89d2 5d3d
00000060: bb99 31bf

regressor.FC_2.linear.weight f4 [12, 25]
-0.22250253 -0.22522236 -0.39962462 -0.2333002 -0.044080574 0.11052154 -0.15197371 -0.40013677
-0.22368188 -0.39669245 0.09088798 -0.33467224 0.095624276 -0.28916815 -0.42165908 -0.22451183
-0.06311413 -0.34072936 0.31962776 -0.4191156 -0.21444348 9.882556e-05 -0.2292647 -0.2050358
0.24741668 0.10504892 0.10296441 0.4668164 0.5822676 0.29005355 0.05363352 0.20239882
0.3069187 0.2805175 0.29758856 0.08589051 0.23684156 0.27095515 0.30787116 0.6365794
0.22638577 0.31510907 0.44325882 -0.29308704 0.417751 0.21432124 0.12595934 0.20823734
-0.024126155 0.023590392 -0.22193602 -0.13844305 0.004081659 0.051524404 -0.20532404 0.0067662876
0.060508933 -0.32347482 -0.09702596 -0.26883915 0.06086464 0.32149106 -0.23864365 -0.05681209
-0.2299215 -0.06802611 -0.14914918 -0.115050346 0.37186867 -0.2827694 0.11939525 0.15889706
0.15083219 -0.12374863 0.32710883 0.08707372 -0.066977695 -0.18698122 -0.3711166 -0.03522444
0.0877149 0.105769806 -0.14960693 -0.091936834 -0.121025756 -0.09248532 -0.11760278 0.09712535
-0.3811869 -0.5353371 -0.33806252 0.0023385691 -0.07804753 0.072294526 -0.24699524 -0.11061077
0.13765937 0.03200303 0.05063454 0.05028511 -0.09471305 -0.09534946 -0.6828493 -0.5721263
-0.20363572 0.10921272 -0.19186175 -0.512147 -0.0049567544 -0.42674777 -0.20746067 -0.109558925
-0.29205626 -0.4138914 -0.5998097 -0.37128058 -0.13365714 -0.2310141 0.2661256 -0.6504065
-0.24804741 0.0307465 -0.086969785 -0.17782983 0.3631238 -0.07923228 -0.13656723 -0.14815287
-0.29843163 -0.11056497 -0.23080853 -0.20230526 -0.08409471 0.09916426 -0.31137505 -0.23472519
0.04351107 -0.036285743 -0.3677855 -0.41797027 -0.14304826 0.014608626 -0.4023055 0.04050719
-0.6186311 -0.31716457 0.15539503 -0.07668762 0.047154713 0.043238487 0.14138602 0.12560676
0.15215805 0.30214572 0.23534863 0.10495419 0.13491894 0.1514378 0.2033855 0.31831402
-0.065169066 0.13535216 -0.00705129 0.06449248 0.6847571 0.39668253 0.010440331 0.043038685
-0.29087535 0.24337196 0.12785053 0.23134743 0.29192016 0.1803057 -0.06845997 -0.21619785
0.05589005 -0.1531368 0.004862349 -0.028057551 0.10832428 -0.03795343 -0.33448228 0.08999496
-0.092276126 0.022567432 0.027535124 0.028463425 -0.09793268 -0.2990643 -0.30929473 -0.27373785
-0.055786584 0.28497607 -0.1628246 -0.20946509 -0.17363285 -0.10488173 0.08525962 0.32848617
0.10262875 -0.040876053 0.32594052 0.19856314 -1.0139755 0.01879982 -0.07228199 0.20268717
-0.20284279 -0.017387941 -0.026730876 0.08077043 0.14262764 0.15703318 0.17330664 -0.15069716
-0.20019075 0.36493304 0.055429798 0.43991172 -0.169377 0.21890053 0.25533092 -0.068874165
-0.12922522 0.091734745 -0.3915941 -0.33575293 -0.40222454 -0.31307286 -0.17241432 0.074352205
-0.5409552 -0.1009823 -0.30176234 0.007984832 -0.37495604 0.0009157697 -0.36980212 -0.70054644
-0.48453167 -0.20553899 -0.46591663 0.010095396 -0.43991122 -0.35500047 0.15572682 -0.3077875
0.10541609 0.020284949 0.1880419 0.33424407 0.47679776 0.182103 0.41090173 0.051956616
00000000: b4d7 63be b1a0 66be 999b ccbe 3fe6 6ebe
00000010: d58d 34bd 1e59 e23d ff9e 1bbe bade ccbe
00000020: dd0c 65be 461b cbbe 7a23 ba3d 295a abbe
00000030: a9d6 c33d d90d 94be b3e3 d7be 6ee6 65be
00000040: fb41 81bd 1474 aebe 40a6 a33e 5296 d6be
00000050: 1297 5bbe 9240 cf38 5ec4 6abe e8f4 51be
00000060: cc5a 7d3e e323 d73d 01df d23d 8f02 ef3e
00000070: 7d0f 153f e681 943e d2ae 5b3d a341 4f3e
00000080: 7324 9d3e fd9f 8f3e 875d 983e 5de7 af3d
00000090: 9886 723e a2ba 8a3e 4aa1 9d3e def6 223f
000000a0: acd1 673e fa55 a13e d2f2 e23e 810f 96be
000000b0: 76e3 d53e 0777 5b3e 7cfb 003e 2b3c 553e
000000c0: 37a4 c5bc a340 c13c 3243 63be 04c4 0dbe
000000d0: 70bf 853b 410b 533d 7740 52be bcb7 dd3b
000000e0: 37d8 773d 7e9e a5be 8cb5 c6bd 49a5 89be
000000f0: 334d 793d 7a9a a43e 005f 74be cbb3 68bd
00000100: 8b70 6bbe 4651 8bbd 90ba 18be 849f ebbd
00000110: 9265 be3e 27c7 90be 7f85 f43d e9b5 223e
00000120: c173 1a3e ec6f fdbd cf7a a73e b553 b23d
00000130: 9a2b 89bd 0178 3fbe ff02 bebe 8147 10bd
00000140: dfa3 b33d d79d d83d 8f32 19be 6149 bcbd
00000150: 5adc f7bd f268 bdbd bad9 f0bd a8e9 c63d
00000160: ee2a c3be da0b 09bf 8816 adbe ae42 193b
00000170: 62d7 9fbd 270f 943d 52ec 7cbe e687 e2bd
00000180: 94f6 0c3e 9c15 033d 2a66 4f3d c2f7 4d3d
00000190: eaf8 c1bd 9446 c3bd 36cf 2ebf df76 12bf
000001a0: e285 50be ebaa df3d 6877 44be 111c 03bf
000001b0: 456c a2bb af7e dabe 9270 54be 6e60 e0bd
000001c0: 6688 95be 93e9 d3be 218d 19bf 7d18 bebe
000001d0: 6bdd 08be f68e 6cbe 9d41 883e 0a81 26bf
000001e0: 2400 7ebe 15e0 fb3c 371d b2bd 0619 36be
000001f0: 5deb b93e 8944 a2bd 48d8 0bbe 63b5 17be
00000200: 08cc 98be e36f e2bd 1259 6cbe 1c29 4fbe
00000210: d939 acbd a216 cb3d 8d6c 9fbe cd5b 70be
00000220: aa38 323d 5ca0 14bd 624e bcbe 3300 d6be
00000230: 3e7b 12be 0559 6f3c fdfa cdbe deea 253d
00000240: 9c5e 1ebf 6563 a2be e01f 1f3e 660e 9dbd
00000250: 4d25 413d d71a 313d 7fc7 103e 0f9f 003e
00000260: 52cf 1b3e d8b2 9a3e 3bff 703e 39f2 d63d
00000270: 3128 0a3e 8312 1b3e 4a44 503e 0efa a23e
00000280: 5c77 85bd c299 0a3e 820e e7bb a214 843d
00000290: 3e4c 2f3f f919 cb3e ec0d 2b3c 5549 303d
000002a0: 9ded 94be 8036 793e 40eb 023e 57e6 6c3e
000002b0: 8f76 953e 0fa2 383e be34 8cbd f862 5dbe
000002c0: f7ec 643d e5cf 1cbe 5754 9f3b f3d8 e5bc
000002d0: 1fd9 dd3d 0e75 1bbd 4341 abbe 474f b83d
000002e0: 44fb bcbd 56df b83c 5791 e13c 212c e93c
000002f0: ee90 c8bd f51e 99be e15b 9ebe 5e27 8cbe
00000300: 7980 64bd 62e8 913e 7ebb 26be 047e 56be
00000310: cfcc 31be 3ccc d6bd 989c ae3d 572f a83e
00000320: 062f d23d a66d 27bd ade1 a63e 2354 4b3e
00000330: f3c9 81bf 1502 9a3c 9408 94bd 3a8d 4f3e
00000340: 05b6 4fbe 2871 8ebc b6fa dabc f86a a53d
00000350: fb0c 123e 4ecd 203e 4c77 313e 5b50 1abe
00000360: cefe 4cbe 81d8 ba3e 5b0a 633d 1c3c e13e
00000370: 2a71 2dbe 7627 603e bcba 823e e60d 8dbd
00000380: 9e53 04be 6ddf bb3d 067f c8be cfe7 abbe
00000390: 60f0 cdbe 164b a0be 618d 30be f845 983d
000003a0: 0a7c 0abf cfcf cebd 9880 9abe d0d2 023c
000003b0: 3dfa bfbe 4410 703a b456 bdbe 0357 33bf
000003c0: 8914 f8be d078 52be a08c eebe 2967 253c
000003d0: 0b3c e1be 9fc2 b5be da76 1f3e 5396 9dbe
000003e0: 64e4 d73d 9f2c a63c 0e8e 403e 0a22 ab3e
000003f0: d61e f43e 3579 3a3e b661 d23e 76d0 543d

regressor.FC_2.linear.bias f4 [12]
-0.49870378 0.50655794 -0.3698233 -0.498542 -0.42463464 -0.5702781 0.5190197 -0.43194836
-0.027700825 -0.4233154 0.4421658 0.415021
00000000: 1a56 ffbe c8ad 013f 7b59 bdbe e640 ffbe
00000010: b669 d9be bffd 11bf 7ade 043f 5628 ddbe
00000020: d7ec e2bc ccbc d8be 8e63 e23e a27d d43e

regressor.FC_3.linear.weight f4 [6, 12]
-0.5535238 0.44781482 -0.12152975 -0.22004582 -0.22843643 -0.5737771 0.5263888 -0.4354174
-0.051722426 -0.43975148 0.60009086 0.22420977 -0.25427124 0.43891978 -0.27090633 -0.49441206
-0.64666307 -0.5079139 0.44930458 -0.26384348 0.37703884 -0.42070755 0.43084383 0.219054
-0.3935073 0.4102844 -0.12486499 -0.3375167 -0.4933289 -0.18091105 0.066702284 0.031929187
0.1011658 -0.36811435 0.008988926 0.05561243 -0.18302953 0.3749734 0.017781774 0.15895435
-0.17630386 0.16987887 -0.21204595 0.26496148 -0.07672248 -0.34415722 0.18985435 -0.38614142
-0.3585339 0.55262345 -0.14768018 -0.3017869 -0.6339236 -0.12074775 0.49746427 -0.2608734
0.20211598 -0.6067946 0.43484464 0.3271987 0.10117098 0.06061944 -0.30414075 0.090200044
0.2189875 0.2400672 0.090188235 -0.2486647 -0.107106484 0.3047364 -0.12192913 -0.07018044
00000000: bcb3 0dbf fc47 e53e 97e4 f8bd b153 61be
00000010: 3deb 69be 0ee3 12bf 6bc1 063f 08ef debe
00000020: e5da 53bd 1b27 e1be 8e9f 193f 3f97 653e
00000030: d72f 82be 18ba e03e 3cb4 8abe 9423 fdbe
00000040: b68b 25bf a506 02bf 400b e63e 7e16 87be
00000050: 3c0b c13e fb66 d7be 9097 dc3e b14f 603e
00000060: ca79 c9be cc10 d23e 37b9 ffbd fdce acbe
00000070: 9b95 fcbe bf40 39be 359b 883d 2ec8 023d
00000080: 0430 cf3d 7c79 bcbe 4a46 133c dcc9 633d
00000090: 186c 3bbe 83fc bf3e 15ab 913c eec4 223e
000000a0: 0089 34be baf4 2d3e 9322 59be 08a9 873e
000000b0: ad20 9dbd 6035 b0be 2e69 423e 54b4 c5be
000000c0: c191 b7be bb78 0d3f 7939 17be d083 9abe
000000d0: d148 22bf 994a f7bd a3b3 fe3e 3391 85be
000000e0: 7ef7 4e3e e456 1bbf f5a3 de3e 9786 a73e
000000f0: bb32 cf3d 174c 783d 56b8 9bbe cdba b83d
00000100: 423e 603e 2dd4 753e 9cb4 b83d f6a1 7ebe
00000110: a55a dbbd 6906 9c3e fbb5 f9bd c3ba 8fbd

regressor.FC_3.linear.bias f4 [6]
0.18708757 0.5330688 0.6780424 0.23805673 0.5697654 -0.24427526
00000000: e293 3f3e 3277 083f 3094 2d3f 25c5 733e
00000010: 25dc 113f 4b23 7abe

regressor.FC_4.linear.weight f4 [1, 6]
0.84398174 0.85544753 0.62450904 0.46718994 0.79371727 -0.48614207
00000000: 300f 583f 9cfe 5a3f d3df 1f3f 8533 ef3e
00000010: 0e31 4b3f 9de7 f8be
