logs/ckpt/epoch=20-step=567.ckpt (torch, 190175 bytes, 45 tensors)

feature_extractor.Conv1D_1.conv_1.weight f4 [8, 14, 5]
00000000: 64ca 03c1 ecea 01c1 9cfe 04c1 fea1 00c1
00000010: 47e8 03c1 b732 03c1 e2e8 00c1 d902 02c1
00000020: e13e 01c1 89dd 01c1 72dc 02c1 2281 ffc0
00000030: 09aa 02c1 a381 00c1 2d66 fec0 43a0 0141
00000040: 7f1c 0241 579b 0041 635a 0041 e309 0241
00000050: c691 fdc0 fcbe 01c1 3cb4 00c1 6f3d 02c1
00000060: a691 00c1 4d30 02c1 b252 00c1 ab8e 01c1
00000070: ae14 01c1 1c5e 01c1 eb85 01c1 8a2a ffc0
00000080: 8f62 01c1 f372 00c1 2656 ffc0 9ccc 0141
00000090: 80a4 ff40 4e9b 0241 6a31 0041 fb4d 0341
000000a0: a2a9 01c1 2e6f 03c1 45c9 fdc0 db58 ffc0
000000b0: 8d5a ffc0 46ad 01c1 042e 01c1 10d4 fdc0
000000c0: 2e7d 02c1 7f19 00c1 c6fe 00c1 7968 ffc0
000000d0: 9609 00c1 d68c 01c1 4d65 00c1 a496 01c1
000000e0: 9587 03c1 140d 02c1 7cbc 03c1 31fa fdc0
000000f0: bc0d 0041 724e fe40 37e9 0041 5778 fe40
00000100: 90c1 fe40 68c2 0141 c64d 0341 3c5b 0241
00000110: 6bad 0041 fd40 ff40 85a8 f9c0 f0ef f7c0
00000120: f7a0 fcc0 d361 fac0 f634 fdc0 73f1 f8c0
00000130: 3362 ffc0 22a8 fec0 b0e5 fac0 ef3d fbc0
00000140: 56da f9c0 38af fbc0 d7b9 f5c0 fd7e fbc0
00000150: 03e1 f7c0 3bca f540 ac51 f640 ce93 f740
00000160: bb3f f840 c843 f740 c985 fbc0 6380 fdc0
00000170: c125 fcc0 c94d fdc0 fec9 f7c0 ceeb f9c0
00000180: fad8 f8c0 3675 fcc0 a11e fcc0 5341 fbc0
00000190: 99ee f9c0 612d fcc0 086d f7c0 345e f9c0
000001a0: 8547 fac0 6495 f840 38c6 fa40 d0a4 f940
000001b0: d708 fb40 abf9 f740 0ddd f8c0 1028 f9c0
000001c0: 0ba1 f8c0 4078 fcc0 682c fac0 ad03 fcc0
000001d0: 5d7f f8c0 50f1 fcc0 768a fec0 409b f8c0
000001e0: 0f06 fdc0 f7da f7c0 5338 fbc0 2fd1 f6c0
000001f0: 2aee fbc0 1cdc ffc0 0b30 ffc0 1771 ffc0
00000200: 90ee fdc0 da14 f8c0 f1fd fa40 0679 f740
00000210: 4fd3 fe40 0964 fc40 5824 fc40 57f7 f740
00000220: e4a0 fd40 7d0d f940 814e fc40 05ec fa40
00000230: 660f fdc0 3bf0 fdc0 f18b ffc0 0819 00c1
00000240: 6fb8 02c1 52c6 ffc0 7026 01c1 21ed 00c1
00000250: bdc3 01c1 c2d4 fdc0 aad3 fdc0 a77d 00c1
00000260: 36f7 01c1 2987 fac0 c733 ffc0 1abf fd40
00000270: cd0a 0141 cc7c ff40 8f8e ff40 792b 0141
00000280: ad04 00c1 d567 ffc0 8a7c 00c1 8bd2 fbc0
00000290: 7772 fcc0 f4d0 00c1 0063 fec0 25bd ffc0
000002a0: f403 00c1 09f4 00c1 21dd 00c1 e52d 01c1
000002b0: 539a 00c1 fbe9 00c1 b7e1 00c1 93af fe40
000002c0: 06f2 fe40 ad37 0141 a59d fa40 7c7c 0141
000002d0: 5000 01c1 2b0d 00c1 32ca fdc0 4e3d fec0
000002e0: 70de ffc0 929e fec0 d0ba 01c1 f8b1 ffc0
000002f0: bec5 00c1 678d fec0 dca4 fbc0 f15b fbc0
00000300: b765 00c1 0a44 fdc0 45e3 fac0 0309 fec0
00000310: d810 01c1 c2a5 ffc0 50d9 fec0 2eb9 ffc0
00000320: e529 ff40 6c74 fe40 da39 fd40 c24e fc40
00000330: 3b04 ff40 92e4 fe40 9e3b 0041 0ca3 fe40
00000340: af52 ff40 149e fc40 27e4 ffc0 2699 fac0
00000350: 0e8e fdc0 c9d6 fbc0 0625 00c1 c70c fac0
00000360: 7930 fac0 470b 00c1 3866 fbc0 6ebb 01c1
00000370: e415 fec0 8bb0 fbc0 fe66 00c1 8f11 f8c0
00000380: 45c3 ffc0 f14e fd40 8577 fa40 3f9a fa40
00000390: 4d98 f840 e368 fa40 3bd7 fbc0 7360 fdc0
000003a0: 2e8e 01c1 560b 00c1 4092 fdc0 1968 fec0
000003b0: af6c 01c1 1aed 00c1 00eb fec0 042a ffc0
000003c0: 631b 00c1 a3de ffc0 175f fac0 ce6a 00c1
000003d0: 8f8f fcc0 10d9 fb40 e571 fc40 7596 ff40
000003e0: 9f8c fb40 9ada fa40 adb6 fdc0 af10 01c1
000003f0: 4f6b ffc0 cb4c 00c1 0f0d fdc0 00fb fdc0
-8.236912 -8.119854 -8.3121605 -8.039549 -8.244208 -8.199882 -8.056856 -8.125695
-8.077851 -8.116586 -8.17882 -7.9845133 -8.1665125 -8.03165 -7.9499726 8.101626
8.131957 8.037925 8.022067 8.127414 -7.9240446 -8.109127 -8.044003 -8.139998
-8.035559 -8.136792 -8.020189 -8.097331 -8.067549 -8.085476 -8.095195 -7.9739428
-8.086562 -8.028064 -7.979266 8.112453 7.9888306 8.162916 8.012064 8.206538
-8.103914 -8.2146435 -7.930819 -7.9795966 -7.9798036 -8.104803 -8.073734 -7.9321365
-8.155561 -8.006225 -8.062201 -7.981503 -8.00234 -8.096884 -8.024732 -8.0992775
-8.220601 -8.128193 -8.233517 -7.936791 8.003353 7.947076 8.056937 7.95219
7.961128 8.109962 8.206488 8.147274 8.042338 7.976683 -7.801821 -7.7480392
-7.894649 -7.8244414 -7.912715 -7.779474 -7.980737 -7.958024 -7.840538 -7.8513103
-7.8079023 -7.865139 -7.6789355 -7.8592515 -7.7462173 7.6809363 7.6974697 7.7367926
7.7577796 7.727024 -7.860081 -7.921922 -7.8796086 -7.9157453 -7.7434072 -7.8100348
-7.7764864 -7.889308 -7.878739 -7.851724 -7.8103757 -7.8805394 -7.7320595 -7.7927494
-7.8212304 7.768236 7.8366966 7.8013687 7.844829 7.749227 -7.7769837 -7.7861404
-7.7696586 -7.889679 -7.8179207 -7.8754487 -7.7655473 -7.904457 -7.954402 -7.7689514
-7.9069896 -7.745479 -7.8506255 -7.713035 -7.8728228 -7.995619 -7.9746146 -7.982555
-7.9353714 -7.7525454 7.8434987 7.7335234 7.9632945 7.8872113 7.8794365 7.748943
7.92589 7.7828965 7.884583 7.841311 -7.9081297 -7.935575 -7.9858327 -8.006111
-8.170028 -7.992959 -8.071884 -8.057893 -8.110288 -7.9322214 -7.932088 -8.030677
-8.122854 -7.828999 -7.9750705 7.929578 8.065137 7.983984 7.986152 8.073113
-8.001142 -7.981425 -8.030405 -7.869451 -7.8889728 -8.051014 -7.949585 -7.991839
-8.000965 -8.059579 -8.053987 -8.073705 -8.037677 -8.057124 -8.055106 7.9589324
7.967044 8.076093 7.8317437 8.092892 -8.062576 -8.003215 -7.930932 -7.9449835
-7.995903 -7.9568567 -8.1081085 -7.9904747 -8.048277 -7.954761 -7.8638744 -7.8549733
-8.024833 -7.9145555 -7.840243 -7.9386 -8.066612 -7.988984 -7.9640274 -7.991355
7.973864 7.9517117 7.913312 7.884614 7.9692664 7.9654016 8.014555 7.957403
7.978843 7.8942966 -7.9966006 -7.831195 -7.9235907 -7.869969 -8.009039 -7.8140597
-7.818417 -8.002753 -7.856228 -8.108259 -7.940172 -7.8653007 -8.025145 -7.7521434
-7.9925866 7.9158864 7.82709 7.831329 7.7685914 7.8253036 -7.8700233 -7.9180236
-8.097212 -8.002768 -7.924103 -7.950207 -8.089034 -8.057886 -7.9661865 -7.973879
-8.006686 -7.9959273 -7.8241076 -8.026075 -7.8925242 7.870247 7.888903 7.9871163
7.8609157 7.8391848 -7.9285493 -8.066573 -7.981849 -8.018748 -7.907844 -7.9368896

feature_extractor.Conv1D_1.conv_1.bias f4 [8]
00000000: 095f fe40 ff0a fe40 9cca 0141 57df ff40
00000010: 0f1f 81c0 70ac 86c0 4aef 84c0 3649 82c0
7.949101 7.9388423 8.111965 7.996013 -4.0350413 -4.2085495 -4.15421 -4.071437

feature_extractor.Conv1D_2.conv_1.weight f4 [16, 8, 3]
00000000: f0e7 c2c0 1d20 bbc0 61c6 bfc0 df32 b6c0
00000010: 8cb3 bec0 0948 c0c0 a24a bac0 979c b7c0
00000020: 9f3b c1c0 670d c2c0 51d7 bac0 dd97 c1c0
00000030: 3b16 cb40 6575 ce40 d229 d040 b74b cf40
00000040: d031 ce40 a308 c540 eeed c740 18d9 ce40
00000050: fd47 ca40 21cd c740 a22d cb40 4a2f c940
00000060: 4c81 e340 f5f6 ed40 6368 e240 9b9e ee40
00000070: 2d54 ed40 149f ea40 4928 ef40 5202 e940
00000080: a971 e340 c424 eb40 4e01 e940 4279 e540
00000090: bd93 eec0 0c94 e9c0 172a ecc0 a578 ecc0
000000a0: 7d05 f2c0 7f6e edc0 d332 e7c0 05f8 f1c0
000000b0: c65d e9c0 4d8a efc0 999f e9c0 f485 e9c0
000000c0: 3552 8dc0 3505 89c0 c3d3 8bc0 5b5e 87c0
000000d0: 27b7 90c0 cc50 8bc0 2188 88c0 4e15 8ac0
000000e0: bd54 8bc0 f197 8dc0 547e 92c0 089b 8ac0
000000f0: 4726 f340 57c0 fa40 ba48 fc40 1c81 f440
00000100: aa42 f040 971c f340 1d24 f140 1e3d f840
00000110: b2b8 fa40 779d f140 bb64 f540 90e9 f440
00000120: e44e f4c0 2a4a f2c0 3463 edc0 992e edc0
00000130: 0543 f2c0 1e16 eec0 9eb1 f4c0 7668 f3c0
00000140: 7cd1 f2c0 74a1 f4c0 26e1 f1c0 e4c2 efc0
00000150: 847e f240 aa62 f440 6b73 f440 18fb f640
00000160: 5b9a fb40 d62f f340 cfe5 f640 db04 f940
00000170: eafa f840 8d99 f540 f3b0 f040 fd8a f040
00000180: 6dfd eb40 1e45 e440 18ba dc40 31ab e340
00000190: f503 e740 7bc2 e040 a79e df40 20b2 e740
000001a0: 3a74 e040 b7a1 e240 8f42 e040 45ea de40
000001b0: 8f93 e8c0 e32a e9c0 e723 f2c0 57be f0c0
000001c0: 6333 f1c0 1824 eac0 6c6d e7c0 66ae eec0
000001d0: c5ed edc0 44e3 eec0 3e7e f0c0 a9fa f0c0
000001e0: d0dd c440 49ed c240 2547 c940 9837 ca40
000001f0: a8ba c440 eee4 ca40 37bf c140 dff9 ca40
00000200: 3a86 c540 4c59 cc40 43b0 c340 0db0 c540
00000210: 1577 ecc0 6337 e6c0 7479 f0c0 3688 e7c0
00000220: e393 ecc0 a4b1 e6c0 2292 e7c0 d8af e6c0
00000230: 604c eec0 4818 ebc0 617f f1c0 732c e6c0
00000240: d3a4 05c1 46a5 00c1 546a 03c1 4c33 00c1
00000250: 2437 fdc0 3c41 00c1 a5ab 01c1 f50b 02c1
00000260: df4f 02c1 9c81 03c1 af0f fdc0 404d 03c1
00000270: 7854 0741 2636 0a41 9eb7 0b41 4436 0b41
00000280: 072a 0841 dc0d 0c41 163f 0b41 fac8 0941
00000290: 404f 0741 5276 0a41 0e3b 0741 6b5d 0a41
000002a0: 66c2 d940 5a89 d040 5546 cc40 5084 d240
000002b0: e906 ce40 9fa1 d440 0efc d340 fe96 d140
000002c0: 9865 c940 7ec6 d940 7021 ca40 5bf7 cc40
000002d0: 1076 0dc1 02d0 08c1 7940 0dc1 4204 0cc1
000002e0: 8713 0cc1 68f8 07c1 06e6 0dc1 114f 0cc1
000002f0: 6e19 0cc1 160e 09c1 af22 0bc1 f7f5 09c1
00000300: 9a8d d940 1e87 dc40 3cd7 e240 696b e140
00000310: 5649 e040 6091 dd40 4e4e da40 a944 e340
00000320: c71f d740 09bc e040 feee e240 cc15 e140
00000330: e888 e7c0 0abe e5c0 40a9 eac0 2cdb f1c0
00000340: 151f ebc0 a4b7 e9c0 6d8f ebc0 34da e7c0
00000350: d77c edc0 42d4 eac0 a06f eac0 cec1 f0c0
00000360: f5ae f9c0 2544 f5c0 fbd2 ebc0 cb60 f3c0
00000370: 4779 edc0 b831 f1c0 cb6d f0c0 84ef f7c0
00000380: b655 f1c0 d264 f1c0 7785 f5c0 9915 ecc0
00000390: 5c21 0c41 c840 0841 71fa 0741 c3b4 0941
000003a0: 7d42 0c41 9044 0841 3722 0d41 283c 0a41
000003b0: b3ea 0c41 7bbc 0841 b97a 0a41 5b38 0941
000003c0: 2d9d 2440 c1fe 3740 d1ca 2d40 f787 2b40
000003d0: 2045 2240 f5a6 1b40 92b0 3a40 1853 3b40
000003e0: 3875 1f40 3405 3f40 2732 3c40 3275 3140
000003f0: bccd 73c0 110e 80c0 1758 84c0 2c80 85c0
-6.0908127 -5.84767 -5.992966 -5.69371 -5.9594173 -6.0087934 -5.8216105 -5.737865
-6.038528 -6.064136 -5.8387837 -6.049788 6.3464637 6.4518304 6.505105 6.4779925
6.4435806 6.1573043 6.247794 6.4640007 6.3212876 6.24379 6.3493204 6.2870226
7.1095333 7.436396 7.0752425 7.456861 7.4165254 7.3319187 7.4736676 7.2815332
7.1076245 7.348238 7.2814093 7.171052 -7.4555345 -7.299322 -7.380138 -7.389727
-7.56317 -7.4197383 -7.224954 -7.561526 -7.292697 -7.4856324 -7.300732 -7.2976017
-4.416285 -4.2818856 -4.3696 -4.230268 -4.5223575 -4.353613 -4.2666173 -4.3151007
-4.354094 -4.4247975 -4.577921 -4.3314247 7.5984225 7.835979 7.8838778 7.6407604
7.5081377 7.59724 7.5356584 7.7574606 7.835046 7.550472 7.668546 7.653511
-7.63463 -7.571553 -7.4183598 -7.411938 -7.570681 -7.4402 -7.646682 -7.6065016
-7.588072 -7.6447086 -7.558734 -7.4925404 7.577944 7.637044 7.639089 7.718151
7.862592 7.5995893 7.715553 7.7818427 7.780629 7.674994 7.5216002 7.5169663
7.374686 7.133437 6.8977165 7.1146474 7.219233 7.0237403 6.9881167 7.240494
7.014188 7.0822406 7.008125 6.9660974 -7.2680125 -7.286485 -7.5668826 -7.523235
-7.537523 -7.316906 -7.232107 -7.458789 -7.4352746 -7.4652424 -7.5154104 -7.530598
6.1520767 6.0914655 6.2899346 6.3192863 6.147785 6.3404455 6.0545917 6.343002
6.172635 6.3859005 6.1152663 6.1777406 -7.3895364 -7.194261 -7.514826 -7.2353773
-7.3930526 -7.2091846 -7.2365885 -7.2089653 -7.446823 -7.346714 -7.546799 -7.192926
-8.35274 -8.04035 -8.213459 -8.012524 -7.912981 -8.015926 -8.104405 -8.127919
-8.1445 -8.219143 -7.9081645 -8.20636 8.458122 8.63822 8.732328 8.700748
8.510261 8.753384 8.702902 8.611567 8.456848 8.653887 8.451918 8.647807
6.8049803 6.5167665 6.3835855 6.5786514 6.4383435 6.644729 6.6245184 6.5496817
6.2936516 6.80548 6.3165817 6.4051948 -8.841324 -8.550783 -8.82824 -8.7510395
-8.754767 -8.498146 -8.868658 -8.769303 -8.756208 -8.565939 -8.695968 -8.62255
6.7985353 6.891494 7.0887737 7.0443616 7.008952 6.923996 6.8220587 7.1021314
6.722629 7.0229535 7.091674 7.0339108 -7.235462 -7.179448 -7.3331604 -7.5580044
-7.347544 -7.303667 -7.361258 -7.245386 -7.4214892 -7.3384104 -7.326126 -7.523658
-7.802607 -7.6645684 -7.3695045 -7.6055655 -7.4210544 -7.537319 -7.5134025 -7.7479877
-7.5417128 -7.543557 -7.672542 -7.3776364 8.758144 8.515816 8.498643 8.606631
8.7662325 8.516739 8.820853 8.639687 8.8073 8.546016 8.654962 8.576259
2.5720932 2.874924 2.715504 2.6801736 2.535469 2.4320652 2.917027 2.9269466
2.4915295 2.9846926 2.940561 2.772778 -3.809432 -4.001717 -4.135753 -4.171896

feature_extractor.Conv1D_2.conv_1.bias f4 [16]
00000000: c1b3 cac0 e778 e740 b0da f4c0 cb44 f5c0
00000010: b2ab e540 18f9 ef40 48e0 07c1 9a9c 0c41
00000020: 7547 f040 c033 0dc1 0b43 8040 5541 ea40
00000030: b598 08c1 eae3 c8c0 bb62 e740 2868 e1c0
-6.3344426 7.2335086 -7.6516953 -7.6646476 7.177209 7.499157 -8.492256 8.788233
7.508723 -8.825134 4.008184 7.320475 -8.537282 -6.2778215 7.230802 -7.0439644

temporal_extractor.LSTM.lstm.weight_ih_l0 f4 [200, 5]
00000000: c42a a83e 83af 023e 3c2f b73e d1e1 913e
00000010: b423 df3e ea46 02be 97d8 13be 2d61 85be
00000020: 2640 aebd 36f7 76bd 7d3a 20be b926 c4be
00000030: a962 0a3d 3367 8a3e ae22 003f 8043 013f
00000040: e600 b83e 74f2 8e3e 2e47 4e3e 9887 e03e
00000050: f587 e4be 4fcc 8ebe 8937 07be 5518 6abd
00000060: a249 4c3e 59b3 e2bd 186a 32be ede4 e1be
00000070: d3c1 4dbe c8a2 5abe d7be 9ebe e738 efbe
00000080: 0c22 b4be 148e 63bd 3035 053e a337 523d
00000090: 1f7d 463e c6d1 6f3e 13cf c43d 271f 5d3e
000000a0: 0972 81be 9918 89be 72d2 d3bd 0443 283e
000000b0: ec54 b2bd 3327 013f 99af f43e cec2 de3e
000000c0: 2ea3 6c3e c8cf 753e 39a6 ddbe 03b5 e4be
000000d0: cfce dbbe 96d0 8cbe d1fb a9bd a0f5 fdbe
000000e0: 2ef4 afbe 2b4e 75be 2214 5bbe 37d5 a1bd
000000f0: c824 b2be e789 8abe 06ee 4abe 21ed 413c
00000100: 58f5 63be 6176 b13c 0769 b9bd 2c92 d83c
00000110: cfad 2bbd ce91 1f3e 177a afbe 27b6 36be
00000120: f385 07be 064b 9fbd 9f7e e7bd c30d da3e
00000130: e21f 533e e74e 843e edac ed3e 6cdc c23e
00000140: 5135 f1bd 3c87 993d ff31 44bd bed9 ad3d
00000150: ca12 223d a58e 53bf 5b4d 3f3c baba 1fbe
00000160: be32 e33d 79d4 8fbe d518 093e 5f07 e43c
00000170: c4a6 483e 8cea 9a3e 367d 9f3e ea51 be3e
00000180: abea b73e 8df0 cd3e bcd7 eb3e 5958 063f
00000190: be1a b8bc c40c 2fbe 51a4 dfbe 1950 1ebf
000001a0: 172e 5fbf 9be3 4e3e 7534 153e 10d8 343e
000001b0: 9ad7 3c3e 538f 463e de11 dabd b9a8 81be
000001c0: 6d6c 67be 1b31 41be 85e3 40bd 18f5 cf3e
000001d0: 48f6 343e 652f 993e b954 f03e a37c 063f
000001e0: d0ac 48be 121d 83be 00db fabd 66c6 77be
000001f0: 56f9 15be 4a35 473e 9e4b 9a3e 9e0e b63e
00000200: 8bc2 cd3e b215 a83e 60aa 99be 4bd7 ecbe
00000210: 09da adbe 5bdb f6be 33de 7bbe d650 cfbe
00000220: 09a3 9dbe 5fce 81be 8c65 f5bd 17e3 cbbd
00000230: 359a a2be 9030 67be ad21 1abe 62fd a0bd
00000240: 3e8c 0ebe 44ce 813e 29c1 893e b99c a73e
00000250: 452a 813e 8608 673e 825a b7bd b882 ba3c
00000260: e909 593d 4544 9d3d 2324 b93e 7a75 333e
00000270: 638f 213e 4e8f af3e e06f 8a3e 3645 e93e
00000280: 50b3 d23e c5f0 c43e be25 ac3e 6c66 503e
00000290: 6e2c 6a3e 2a40 05bf 2b87 8cbe 5311 5dbe
000002a0: 6c84 65be 1da3 90be a28c debe 90a1 bebd
000002b0: c096 a1bd dcdd c5bd 5cf7 dfbd 28aa 143e
000002c0: e751 853e d8f6 9b3e 92f9 083f d8dc e03e
000002d0: fefd 053f d00f ba3e f11d e03e 7363 5c3e
000002e0: 1487 073e 7011 64be 4c6d babe 57d9 9ebe
000002f0: 38bc aebe 3eb3 503d d822 313e 4874 9d3e
00000300: f29b e23e 02cd 8b3e 6843 6f3e 6d5e 463e
00000310: 37cf 663e e1d4 533e 342b 063e 0158 8a3e
00000320: 1dfd 2abe 7e77 a9be 276f 28be a226 95be
00000330: e7a5 e0bd 1217 f3bd fc1c d83c f9ea 4b3e
00000340: 2a32 aa3e 6ecc a43e 032a f4be 644e 29be
00000350: 186f 65be 83f9 823d 5eeb 3c3d 49c9 f5be
00000360: 45f0 d1be 3095 c9be b380 bcbd 888e d8bd
00000370: 5d89 f4bd e28f 19be fa5b 89be ec8c 67be
00000380: ff56 47bd aea2 a13e 7d35 a33e a381 463e
00000390: 38f5 11bd e611 f7bd 936c d73e 63c9 043f
000003a0: 9d2a 973e 57bc 863e 4448 103d 7802 89be
000003b0: fd6f 1fbe 6eed 95bd 5061 9ebd ddf6 a83c
000003c0: e5b6 9bbe 7b13 83be ff1b 1abf ad84 a6be
000003d0: c23e adbe c286 fbbe 709f 8fbe 8908 cfbe
000003e0: 6229 a2be 1245 c9be 19d3 793e f3b5 233e
000003f0: 41ab b23e 8fac 863e 8029 953e e71b 873e
0.32845128 0.12762265 0.35778224 0.28492597 0.43581927 -0.12722364 -0.14438091 -0.26050702
-0.08508329 -0.060294352 -0.15647312 -0.38310793 0.033785496 0.2703186 0.50052917 0.5049362
0.35938185 0.27919352 0.2014434 0.4385345 -0.44634977 -0.2789025 -0.13204779 -0.05715211
0.19949964 -0.11069364 -0.17423284 -0.4411997 -0.2009347 -0.21351159 -0.31004974 -0.467231
-0.35182226 -0.055555418 0.1300857 0.05132259 0.19383667 0.23419866 0.09609809 0.21593915
-0.25282314 -0.2677658 -0.10342874 0.16431814 -0.08707604 0.5045044 0.4779022 0.43508
0.23109123 0.24005044 -0.4329088 -0.4466935 -0.4293122 -0.27502888 -0.08299983 -0.4960146
-0.34365982 -0.239556 -0.21394399 -0.07901996 -0.34793687 -0.27058336 -0.19817361 0.011836321
-0.2226156 0.021662893 -0.090532355 0.026436888 -0.041913804 0.15582964 -0.34272835 -0.17842923
-0.13234691 -0.077779815 -0.11303448 0.42588624 0.20617631 0.25841448 0.46420994 0.38058794
-0.117777474 0.07496497 -0.047899242 0.08488797 0.0395687 -0.82639533 0.011676158 -0.15598574
0.11093663 -0.2809179 0.13388379 0.027835546 0.19594866 0.3025707 0.31150216 0.3717187
0.35921225 0.40222588 0.4606303 0.5247856 -0.02247369 -0.17094713 -0.4368005 -0.6184097
-0.871797 0.20204012 0.14570792 0.17660546 0.1844162 0.19390611 -0.10647939 -0.25324038
-0.22599955 -0.18866388 -0.04709198 0.4061668 0.17672074 0.29918972 0.46939638 0.5253393
-0.19597173 -0.25608116 -0.12248802 -0.24196777 -0.14645895 0.19453922 0.30135816 0.35558027
0.40187487 0.32829052 -0.30012798 -0.46258005 -0.3395541 -0.4821423 -0.24596481 -0.4049136
-0.30788448 -0.2535276 -0.11982259 -0.09955423 -0.31758276 -0.22577119 -0.15051909 -0.07860829
-0.13920686 0.2535268 0.26905182 0.32736757 0.25227562 0.22561845 -0.0895281 0.02276741
0.052987967 0.07679037 0.36160383 0.17525283 0.15777354 0.3428902 0.2703848 0.45560616
0.4115243 0.38464943 0.33622545 0.20351571 0.22868511 -0.5205103 -0.27446875 -0.2158864
-0.22413796 -0.28249446 -0.4346667 -0.09308159 -0.078900814 -0.09661457 -0.10935852 0.14518034
0.2603905 0.30461764 0.53505814 0.4391849 0.52340686 0.3634019 0.43772843 0.21522312
0.13235122 -0.22272277 -0.36411512 -0.31025192 -0.34127975 0.05095219 0.17298448 0.30752778
0.44259602 0.27304846 0.23365557 0.19371958 0.22539984 0.20686676 0.13102418 0.27020267
-0.16698118 -0.33098978 -0.16448651 -0.29131037 -0.10969143 -0.11869635 0.026381008 0.19913854
0.33241397 0.32187217 -0.47688302 -0.1653381 -0.2240566 0.06395247 0.0461229 -0.4800513
-0.41003624 -0.39371634 -0.09204235 -0.10574061 -0.119402625 -0.14996293 -0.26827985 -0.22612351
-0.04866695 0.31569427 0.31876746 0.1938539 -0.03563425 -0.12063961 0.42075023 0.5186979
0.295247 0.26315567 0.035225168 -0.26759696 -0.15570064 -0.07320677 -0.07733405 0.020625526
-0.30412975 -0.256008 -0.6019897 -0.325231 -0.33836943 -0.4912625 -0.2805133 -0.404362
-0.31672198 -0.3931051 0.24396934 0.15987377 0.3489628 0.26303527 0.29133224 0.26388475

temporal_extractor.LSTM.lstm.weight_hh_l0 f4 [200, 50]
00000000: 9e71 543f 31e2 763e 4df7 263f be5d 143e
00000010: cca6 05bf 2be3 603e b8bb 513e 963d 0a3e
00000020: d17b 0dbe c02c 363d fe5a 03bf c0b2 38be
00000030: 2243 b03d ff41 1bbd 25c8 983f 1028 65bc
00000040: cf03 78bd 3933 663c 4e4a 6b3e 31cc d9bc
00000050: bcf2 4abf c86f f5bc d646 0c3e 35e5 e1bc
00000060: 1c83 b4bd 37bb 523e 3e02 25bf 51c8 953f
00000070: 1a81 8ebf ba4d 033e 11b0 e6bd 6948 eabd
00000080: 9d4b cabd 37ba 7bbf 1a33 4c3e 100e 90be
00000090: 7a0e 87be b3a3 efbd 2808 e1bc fa4c c1bd
000000a0: 4490 8dbf a304 6a39 a524 88bf b03a 083e
000000b0: d521 7fbd dd43 883f 6742 8cbb 94bf 953f
000000c0: 368b 9bbf b0f7 653f a9d6 bf3e 78ea c53e
000000d0: 3bb9 293e db86 b5bd be14 213c 56e7 143e
000000e0: 09d1 a83d 9517 423e 8189 b83d 76a1 b93d
000000f0: 0cba 90bc c8f4 5abb 8dfc 873e b977 303e
00000100: 965a e8bd eaa5 b9bd 6f2c c9bb 7f4a 3ebb
00000110: c99d 6fbd b2a5 0b3e 9ebe e1be 4fc2 ee3d
00000120: 89d4 3abd f9f1 c93d 4ecf 20be 14a1 ed3d
00000130: 9740 b43d 6e50 58bd 7b86 513e 4073 863c
00000140: 91aa 8dbd c7ec 99bb d909 a1bd 1f7b 20bc
00000150: f490 15be c48b 9cbe 9924 b93d 9c06 a93e
00000160: 7ea6 a6bd 3cf3 33bd c6c3 71bd 93f0 053b
00000170: 2b6c 3abd d1da f73d 26a3 c43e f87a 513e
00000180: 9b71 48be 2477 15bd fc2d acbd b67b 11be
00000190: ed90 143f f8fe dd3e 7711 183f 4b11 8b3e
000001a0: 0101 eb3d 3b16 023e 49db f53e beca e5be
000001b0: 25ff acbe 9e51 d3be ebdb 10bf e781 16bf
000001c0: 69da d53e 0b66 323e 544f 3a3f 4f3d 5d3d
000001d0: 269a 18bd e8cd 2cbe 10ae 9bbd 2227 363e
000001e0: fafc 073d 4173 de3e 6970 6e3e c771 e13d
000001f0: b563 dd3c 3976 67bd f7d3 b53e 4081 683f
00000200: ed89 41bf c018 403e a513 64be 1045 dcbe
00000210: 1f6e e2be 206f 0cbe ce5b 3a3e 9e35 9cbe
00000220: 2b53 34be b055 fdbe eac7 b9be a238 c5be
00000230: 5fbf 1a3b 203e 073f a209 fabe 388e a6bb
00000240: 9652 b43d 7572 9c3d 930f 8cbe db7c 813f
00000250: bd88 83be ede7 3d3f bee3 e03e 546a e43e
00000260: 9f80 523e 638d a33c aea0 3fbe 253e 6f3e
00000270: c822 4f3d 9b7e 83be 0be2 04bf 85f5 d2bd
00000280: eb27 29be fee3 66be 0934 5a3e 3c9b 673e
00000290: 1fd0 0a3f 8e1a 3a3c 5e2e edbd f047 27be
000002a0: c6e4 3c3e c5e6 34bd 7513 cbbe 645c ed3e
000002b0: 8c43 153e c492 5f3d 732c 9abd cc50 513d
000002c0: 61c6 84be 6ba1 003f 0d10 c1be 8ef3 fe3d
000002d0: fd29 1abd 06b5 d7bd a1f4 b1be 974e c5be
000002e0: 9d6e 073f 8c84 58be 934c aabe 06f7 3b3c
000002f0: bac3 c0be 8109 5dbe 2fb4 03bf 7638 aa3d
00000300: 0db3 a2be adfb 193e f727 593e 3e5c 4fbd
00000310: e554 32be 412e dd3e 535c c1bd 9a68 cd3e
00000320: 56f8 8e3e 7403 903e 73b5 4f3e 46e8 9a3e
00000330: 1cb2 01be fef9 b13e 9733 83be 5d0f 17bd
00000340: 5361 1bbe 0a4a d2be 1755 97be 404b 9ebe
00000350: 100c 103e 8f48 253e 6e98 833e 23f2 bd3e
00000360: 56b0 86be fc61 44be 7380 703e 3dd3 8d3e
00000370: e422 cbbe 32d1 303e 64ed 833e 8511 3d3e
00000380: 93e5 a8be 58e4 c73e 9d55 3ebe ff5a 023d
00000390: 8f30 b3bb e295 523e 974d 57be a359 cbbe
000003a0: 997e 49be 2729 efbd 16b8 433e 6f57 45be
000003b0: 86d9 5dbe bfc7 bfbe 3b2b bcbd 1751 97be
000003c0: f1fc aabd bde1 613e 8155 54bd ffed 173e
000003d0: 30f4 ef3e f803 47be d076 ddbe 42ba d23d
000003e0: a878 52be 9805 433e e5ff 4a3d 55b3 cebb
000003f0: 76f1 a3bc 7680 0a3e 05d3 26be 5c8f 5c3e
0.82985866 0.24109723 0.652211 0.14488885 -0.52207637 0.21961658 0.20481765 0.13500056
-0.13816763 0.04447627 -0.5131072 -0.18036938 0.086065546 -0.037904736 1.1936079 -0.013986602
-0.060550507 0.014050298 0.22977564 -0.026586624 -0.79276633 -0.029960528 0.13698897 -0.027575115
-0.0881407 0.2057923 -0.64456546 1.1701757 -1.1133149 0.12822619 -0.11264051 -0.114395924
-0.09877703 -0.98331016 0.19941369 -0.2813573 -0.26378232 -0.11701145 -0.02746971 -0.0943851
-1.1059651 0.00022317706 -1.0636183 0.13303638 -0.062288124 1.064571 -0.0042803767 1.169909
-1.2151859 0.89831066 0.3746846 0.38655448 0.16574566 -0.08863612 0.0098316055 0.14541373
0.08242995 0.18954308 0.09010602 0.09063999 -0.017666839 -0.003341006 0.26559868 0.1723317
-0.11345403 -0.09064849 -0.00613933 -0.0029036102 -0.058500085 0.13637426 -0.44090742 0.11658155
-0.045612846 0.09860606 -0.1570408 0.11602989 0.08801382 -0.05281108 0.20461456 0.016412377
-0.069172986 -0.0046974155 -0.078632064 -0.009794979 -0.14606076 -0.30575383 0.090401836 0.33012855
-0.081372246 -0.04393314 -0.059024595 0.0020437583 -0.045513313 0.12102283 0.38405722 0.20457065
-0.19574587 -0.036490574 -0.08407208 -0.14207348 0.5803364 0.43358588 0.5940165 0.2716163
0.11474801 0.12703793 0.48018864 -0.44881243 -0.3378841 -0.41273206 -0.5658557 -0.58791965
0.41768196 0.17421739 0.72777295 0.054013547 -0.037256382 -0.16875422 -0.07601559 0.17788365
0.03320024 0.43447307 0.23285069 0.110080294 0.027025083 -0.05650923 0.3551328 0.9082222
-0.75601083 0.18759441 -0.22273119 -0.4302144 -0.4422464 -0.13714266 0.18199083 -0.30509657
-0.17609851 -0.49479437 -0.36285335 -0.3851977 0.0023612601 0.5282917 -0.48835474 -0.0050828718
0.088048145 0.076390184 -0.27355632 1.0116228 -0.2569026 0.74182016 0.43923753 0.44612372
0.20556878 0.01996488 -0.18713638 0.2336355 0.05057028 -0.2568253 -0.51907414 -0.103007354
-0.16519134 -0.2254791 0.21308912 0.22617811 0.5422382 0.01135887 -0.115811095 -0.16336036
0.18446645 -0.04416539 -0.39663282 0.4635955 0.14576548 0.054583326 -0.07528009 0.051102445
-0.259326 0.50246304 -0.37707558 0.12448798 -0.0376377 -0.10532574 -0.3475695 -0.38536522
0.5290316 -0.21144313 -0.33261546 0.011472469 -0.37649328 -0.21585657 -0.51446813 0.0831155
-0.3177723 0.15037413 0.21206652 -0.05062508 -0.17415197 0.4319935 -0.094414376 0.40118867
0.2792384 0.28127635 0.20284061 0.30255336 -0.126656 0.3476104 -0.25625297 -0.036879886
-0.15173845 -0.41072112 -0.29557106 -0.30916786 0.14067101 0.1614096 0.25702232 0.37098798
-0.2630641 -0.19178003 0.234865 0.27700225 -0.39675057 0.17267302 0.25767052 0.18463714
-0.3298765 0.390414 -0.18587346 0.031825062 -0.005468435 0.20564988 -0.21025692 -0.39716825
-0.196772 -0.11677771 0.19113192 -0.19271635 -0.2166501 -0.37457082 -0.09187933 -0.29554054
-0.08349026 0.22058769 -0.051839355 0.14836882 0.46865988 -0.19435108 -0.4325471 0.10289432
-0.20553839 0.19045103 0.049560446 -0.006307999 -0.020012598 0.13525566 -0.16291435 0.21539062

temporal_extractor.LSTM.lstm.bias_ih_l0 f4 [200]
00000000: 32b3 32bf 079e 93be aff5 47be 609e 2bbe
00000010: 3222 443e 523d dd3e 56c7 403e fd4d 6f3d
00000020: f4e9 083f ebc5 113d 43fb 343e 149a 2c3f
00000030: c3c9 063e 9be7 c63e 8231 1d3f 4d2a 46be
00000040: fc02 113f 4aec 713f 0ac3 8bbd 2bcb 5cbe
00000050: 02c0 db3e 3326 1e3e cf2f 173f 84c1 a1be
00000060: dc77 d43e 6d26 49bd c5e6 283f b67e 693f
00000070: d864 c43e e22c 7e3e 38ad 403e dd4b e8bd
00000080: 026c c13c 8dad 0c3f ac7b 833e 0c6f 9abe
00000090: 6c0e 2f3e 8d67 a63e 58bf 97bc 839d 653e
000000a0: 58f0 373f 6df6 54bc 0263 783e d4d6 9639
000000b0: a9d6 c23d 0a5b 0cbd 692a 29bd cab6 2c3f
000000c0: 2086 973e 2f2a 2e3f 590a 0cbd a87d d73c
000000d0: 7583 553e 7ca9 213e 46a2 873e 4ab7 e63e
000000e0: 2fae e13e ea21 44bd e965 20bc f9dd e43c
000000f0: cd29 1e3e 0fe0 303f 93bd 993e bfdf 953e
00000100: 4a89 033f f94b 2c3e 2eba 993d fa68 453e
00000110: 8978 f73c 002c 633e 96ba 07bd 0da1 743e
00000120: 186e 0c3f fe87 df3d 4bd0 9d3e 03f9 1a3e
00000130: 35f2 f43e 8ac8 bebc aff9 8a3e 1ccd 283e
00000140: bc9b d43e 6e99 87bb 098a 5d3d b5da 6f3e
00000150: 6434 913e d15c c43c 966a 853d c87e a1be
00000160: e59b e53d 9803 d73d f62c bc3d 2d61 683d
00000170: 04ba 273f 74cf 073e b139 823d 82b8 013d
00000180: 148d 933c 6771 0abd af33 303e 34a1 923e
00000190: e057 35bd 67c8 193c 7cad 4fbe 9e78 053e
000001a0: cb44 7cbe c75f 9d3c 8d82 e2be 761f d93d
000001b0: 610f 973e 3c9d 82be cdd2 093e e483 673e
000001c0: b413 be3e abb6 7ebd fe3f e4be 284f 6d3d
000001d0: bdbf c53d c3de 063e 9bff 2bbe 4f8a 643e
000001e0: aac8 8e3e 2835 8ebe 00b0 6e3c d7e7 353e
000001f0: b180 e63d 2a11 96bc ecd0 a63e bc50 71be
00000200: db03 683e 1ddd 533e 35a7 003e 6d4d b1be
00000210: d341 993d b698 413e 2955 32bd 1b53 00be
00000220: 3826 6b3e 39f9 6e3e ef86 4a3e 4984 c83c
00000230: beb3 633e f29f 3b3e 2c12 3c3e f00c 103e
00000240: 1b75 78be e426 34bf 0792 6abc d08d 3bbe
00000250: bf6c 4e3e e354 c1be 76dd 023f 10b6 283e
00000260: a3a2 423f d33c b0bc 4ed8 cf3e c343 893e
00000270: c896 3d3d 1b5a 853e c8fc b23e aec4 143e
00000280: 8bc9 ff3e 15fc 273f cdca bd3e 3ce3 843e
00000290: 9ad0 d23c 3d96 40bb e3c8 523e 6145 503f
000002a0: e243 d83c 7296 83bc bdbe 49bf e746 553e
000002b0: 561c 9a3e 9187 a23d db08 293e 0579 283e
000002c0: 58fd 7d3f 4703 f33e d6b5 ed3e af48 19bf
000002d0: 7f72 8a3d 5646 543c a48f 1a3e a122 1c3f
000002e0: 58c7 5e3f 7dde 203d 5dcc 1b3f 0895 ea3e
000002f0: 2a24 963c 12cd 6f3e 74e5 a53e c4df 923c
00000300: 55ee b33e 03e3 87bd 3ef5 35bf d6fd 4b3e
00000310: f870 833e 4a91 3e3e 4b0b 0cbc d2ad bd3e
-0.6980468 -0.28831503 -0.19527315 -0.16759634 0.1915367 0.43210846 0.1882604 0.058423985
0.53481984 0.03558914 0.17673974 0.67422605 0.13162903 0.38848576 0.6140367 -0.19352074
0.5664518 0.94501173 -0.0682431 -0.21561877 0.42919928 0.1544426 0.59057325 -0.31592953
0.41497695 -0.04910891 0.65977126 0.9120897 0.38358188 0.24821809 0.18816078 -0.11342595
0.023611072 0.5495232 0.25680292 -0.30162847 0.17095345 0.32500878 -0.018523857 0.22423367
0.7185111 -0.012998206 0.24256518 0.0002877029 0.095135994 -0.03426651 -0.04130021 0.67466414
0.29594517 0.6803312 -0.034189556 0.026305035 0.20850928 0.1578731 0.26490992 0.45061713
0.44078204 -0.047883905 -0.009789922 0.027937876 0.15445633 0.69091886 0.30027446 0.29272267
0.5138136 0.16825856 0.07506214 0.19278327 0.030208843 0.22184753 -0.033136927 0.23889561
0.5485549 0.1091461 0.30822977 0.15134053 0.4784104 -0.023288984 0.27143618 0.16484493
0.41525066 -0.0041381633 0.05408672 0.23423274 0.28360283 0.02397004 0.0651447 -0.3154204
0.11211375 0.10498732 0.09188263 0.0567333 0.6551821 0.13262731 0.0635866 0.0316701
0.018011607 -0.033799555 0.17207216 0.28638613 -0.044273257 0.009386159 -0.20281023 0.13034293
-0.24635617 0.01921071 -0.44240227 0.10601704 0.2950392 -0.25510585 0.1345932 0.22608906
0.37124407 -0.062185925 -0.44580072 0.057936817 0.09655712 0.13170914 -0.16796724 0.22318386
0.2788747 -0.2777493 0.014568329 0.17764221 0.11255015 -0.018318731 0.3258127 -0.23565954
0.2265772 0.20689817 0.12563784 -0.34629384 0.07483258 0.18905911 -0.043538246 -0.12531702
0.22963798 0.23337258 0.19778036 0.024477141 0.22236535 0.18322733 0.18366307 0.14067435
-0.24263422 -0.7037184 -0.014317042 -0.18315816 0.20158671 -0.37760076 0.5111917 0.16475701
0.76029414 -0.021513378 0.40594715 0.2680951 0.046286374 0.26045308 0.34958482 0.14528152
0.49958453 0.6561902 0.37068787 0.25954616 0.025734235 -0.0029386424 0.20584445 0.81355864
0.026399557 -0.016062949 -0.7880667 0.20827828 0.30099744 0.079360135 0.16507284 0.16452415
0.99214697 0.47463438 0.46427792 -0.5987653 0.0676012 0.0129562225 0.15093857 0.6099034
0.87022924 0.03927468 0.6085871 0.45816827 0.018327791 0.23418072 0.3240162 0.017928965
0.3514277 -0.06635096 -0.71077335 0.1992105 0.25672126 0.18610111 -0.008547614 0.37046677

temporal_extractor.LSTM.lstm.bias_hh_l0 f4 [200]
00000000: ca30 52bf 9767 b9be 8349 08be 62c1 42be
00000010: b1ae 5b3e f148 073f e38f 1c3e 4442 e93d
00000020: 13e1 f63e d425 503b a87a 0e3e 234b 0e3f
00000030: d44c 893e 1dc4 f23e 501a 043f c445 5cbe
00000040: 9c2c 283f e9de 7d3f 244e a73d 2315 98be
00000050: b298 9a3e 8a31 b13d d17a 063f 0a40 0abe
00000060: 7e8e 183e 244e 6bbd 4ed7 273f f223 2e3f
00000070: 1478 ce3e 39b7 6a3d ad61 e73d ac3e 843d
00000080: 763a 95bc f9c3 cf3e 6f69 9d3e 13f4 c4bd
00000090: 6e0e b23e 1ea7 903e 9b98 febd ca2e a23e
000000a0: 2985 023f 1cae c8bd 90fc 983e 5d0e 55bd
000000b0: b2d1 67bd 5a08 36bd a645 9bbd d9e6 343f
000000c0: b22f 8f3e 8a93 3a3f 9ad7 dd3b ad6e ffbc
000000d0: 4298 b93d d36c 143e 1587 ba3e 10de a53e
000000e0: 3c38 d03e 848c 60bd d700 bf3d 2b7e 943d
000000f0: 8cb3 573e f15a 173f a204 5d3e 83b8 263e
00000100: 6d80 f63e eaa5 da3b e8c1 713e ad7b ffbb
00000110: 4068 8f3e 7607 efbc e6c4 25bd 90b3 ecbc
00000120: ca4d 263f 717a 423e dbc5 813e efb6 8f3e
00000130: fc5b 113f dcbd ffbd 2c75 bc3e 2b17 483e
00000140: deac 1c3e 2b21 9f3d 3dff 953d fed9 623e
00000150: 18fb 4b3e 95c3 a93d b6fa 9a3d 2ee6 92be
00000160: db10 be3d dd13 f1bc b16c 103e 6509 2f3e
00000170: cc66 013f a70e ad3d bfdc 4dbd 2f96 de3d
00000180: 15f5 29bd 855b 88bc 4f1e 5e3e 59bb 203e
00000190: c580 71be af22 cbbd 1146 7cbe 98aa 2d3e
000001a0: 7afa 07be 6077 60bd 98a7 bdbe f082 c33d
000001b0: c8ac 943e afab 21be 424b 9b3e ad25 423d
000001c0: abb3 a83e 9c2a adbd 3e37 abbe 03ea 53bd
000001d0: 9be0 9fbd eded 553e 911a 46bd 07c7 5f3e
000001e0: 53fe 2c3c e11a f5be 9919 c5bd e60e f43d
000001f0: 5a5d 833e 7834 bdbd cd66 5e3e e9db cfbe
00000200: 76e7 9b3e c302 f83d 05b5 883d c91d c6be
00000210: e7c9 113e e447 8a3d 6945 23be 6f1e d43b
00000220: 32b2 823e daf7 313e f6b2 0d3e b446 6a3d
00000230: 8d58 d83b b13d da3e 62f5 c43d f0cc 513e
00000240: e8a1 5fbe 8e20 44bf dc36 2e3e 4216 76be
00000250: 6da6 f93c 5b57 38be ee9f c43e 1210 63bd
00000260: 9b34 313f 53e2 3cbd 9a45 0f3f 5968 bb3e
00000270: 85dc 763d c557 973e ba16 ea3e 3467 373e
00000280: 1633 153f 21e3 503f 1542 3c3e b1f2 823e
00000290: ecdc da3d 8417 2fbe 97f6 813e 1c15 4c3f
000002a0: 2453 cfbb c0bd 36be 3daa 29bf fec1 853e
000002b0: 9f08 9d3e eb33 08be 62e7 663e ee76 c13d
000002c0: 4243 803f 74f2 da3e 9641 ea3e 19cb 0bbf
000002d0: 2a06 46bb dd51 b33d 9819 14bd 70d0 203f
000002e0: 65d6 553f 77a9 85bd 9537 ff3e f8c8 0a3f
000002f0: 1505 883d a1cf d73d b57f 0c3e aa68 553e
00000300: fcd9 eb3e 34a8 593d 1722 60bf b689 533e
00000310: 6522 8c3d 6ed6 253e 5192 173e 0704 063f
-0.82105696 -0.36211845 -0.13309292 -0.19019082 0.21453358 0.52845675 0.15289263 0.11389592
0.48218593 0.0031760829 0.13913977 0.555834 0.26816428 0.47415248 0.5160265 -0.21510988
0.6569307 0.9916826 0.08169201 -0.29703626 0.30194622 0.08652027 0.5253115 -0.13500991
0.14898106 -0.057447568 0.65562904 0.680236 0.40325987 0.05730364 0.11297927 0.06457266
-0.018216353 0.40579203 0.30744502 -0.09616866 0.34776634 0.282525 -0.12431451 0.31676322
0.50984436 -0.09798834 0.2988019 -0.05201565 -0.056596465 -0.04444156 -0.07581644 0.70664746
0.27966076 0.72881377 0.0067700865 -0.031180704 0.09062244 0.14494638 0.36431184 0.32395983
0.40667903 -0.054821506 0.09326332 0.07250627 0.21064585 0.5912314 0.21583799 0.16281323
0.48144856 0.0066726105 0.23609126 -0.0077967257 0.28009224 -0.029178362 -0.04047098 -0.028894216
0.64962447 0.1899202 0.25346264 0.28069255 0.5678098 -0.12487385 0.36808145 0.19540088
0.15300319 0.07769998 0.073240735 0.2215347 0.19920003 0.082892574 0.075673506 -0.28691238
0.09280559 -0.029428417 0.14103962 0.17093427 0.5054748 0.0845006 -0.050259348 0.10868489
-0.041493494 -0.016645202 0.2169125 0.15696467 -0.23584278 -0.09918725 -0.24636103 0.16959608
-0.13279143 -0.054801345 -0.37041926 0.09546459 0.29038072 -0.15788148 0.30330855 0.04739921
0.32949576 -0.08455393 -0.33440584 -0.051736843 -0.07806512 0.20891543 -0.04836518 0.21853267
0.0105586825 -0.4787207 -0.09624023 0.11916904 0.2565716 -0.09238523 0.21718903 -0.40597466
0.30450028 0.12109902 0.06675152 -0.386946 0.14237176 0.06751993 -0.15944447 0.0064733545
0.25526577 0.17379704 0.138378 0.057196334 0.006602353 0.42625192 0.096171156 0.20488334
-0.21839106 -0.76612175 0.17013115 -0.24031928 0.030474866 -0.18002073 0.38403267 -0.055435248
0.69220895 -0.046114277 0.5596558 0.36603048 0.060268898 0.2955915 0.45720464 0.17910463
0.58281076 0.8159657 0.18384583 0.25575784 0.10686669 -0.17098814 0.25383446 0.7971971
-0.00632705 -0.17845821 -0.6627539 0.26124567 0.3067064 -0.13301055 0.22549203 0.09446512
1.0020525 0.42763102 0.45753163 -0.5460678 -0.0030216076 0.087558486 -0.03615722 0.6281805
0.83530265 -0.065264635 0.49847093 0.54212904 0.06641594 0.10537649 0.13720591 0.20840707
0.46064746 0.053138927 -0.87552017 0.20658001 0.06842498 0.1619508 0.14801909 0.52349895

regressor.FC_1.linear.weight f4 [25, 50]
00000000: ee71 f3bd 8aea 133e e8d4 0d3e 70bb 453e
00000010: 6282 afbe 8110 873e 6383 9e3b d805 31bd
00000020: 4806 dbbd 0020 a2bb b23e 79be 4568 1fbe
00000030: 18ec 243e 265b b03e 2435 01be 196b a83e
00000040: 0d8c 1fbe 8906 b4be 4eef 933d fd6b 4b3e
00000050: 9c53 f53d 5b8d 1b3e 443c 893e c593 f03d
00000060: ead7 27be c365 9e3e bdb4 f7be d186 f23c
00000070: 925d 24be 3ef2 7f3e 76ff 76be d435 7abe
00000080: 4237 6abe ce26 9fbe 14af df3e e8e6 50be
00000090: 5c62 36be 781e 9ebd 1ab1 d1bd 280f 31be
000000a0: 2258 8fbf 8341 6d3e 2a4d 56be 1167 cb3e
000000b0: b4bc 9abe 2072 653f c1ef 29bd 62e2 313d
000000c0: 2462 dcbe de46 04be 9c55 bf3e 56ed 3fbd
000000d0: bc73 123f c956 03bf 6dd6 513e 397e ee3c
000000e0: 54da 9b3e 65e5 4cbe 5cf3 d43d 19c1 ae3e
000000f0: 5040 7e3f d122 983e 54d9 cb3c 45f7 2abe
00000100: 7ce7 9a3e 8514 9abe 8bb7 803d 3bf8 303f
00000110: cd1c 57be 1825 80be dd63 b0bf ec68 84ba
00000120: c93b a13d 3171 c0be 6e18 203e 240e 8fbe
00000130: a698 af3e 9405 0b3e 34a6 91be b02a 9ebe
00000140: 2a88 893e f7f4 ba3e eb99 b73e 908b 223e
00000150: 614a efbb ac40 c93e fc66 6d3f 59e9 a33f
00000160: e659 893e 1c52 4e3e 62b1 72be ccb2 bebe
00000170: 96ab c1be ec4c 7bbe 13d0 943d edc9 a2bf
00000180: fba3 a93d 5d7c 60bd 183e e4bc da23 1d3e
00000190: d875 053f 34d1 d2bc ae93 cb3d 0404 f3be
000001a0: f4bd 9d3d 36ab ae3e bf55 2c3f 9828 4abe
000001b0: 29ee d2be 8045 213f 85ed 16bd 2bd4 54be
000001c0: 16d8 9fbb c00b f03e 10fb 143f 998d e3be
000001d0: 5a13 0abf ae9e eabe a518 653e 6a6f cfbe
000001e0: 5520 b63e 2be8 883e b6b8 c53e fe07 ddbe
000001f0: e627 07bf 5c86 1a3e 588d 17bf b2f7 2f3f
00000200: 82c2 febe 38aa 15bf fff6 36be 1417 cd3e
00000210: 59e9 05be 6d63 e3be 250c d33e 67a0 a33e
00000220: 0c64 a1be e720 b43d 66f8 66be e45c b5be
00000230: 3cd7 9cbe fd63 46bf 4ee4 b6be c3da 7d3c
00000240: 10e1 67be 2c91 ef3e 3a50 38bd 5d70 5d3f
00000250: e914 27be 5611 9a3e 5bbb d6bd 008a 2d3e
00000260: 5f21 23be 907d d43d a579 afbe 1998 d23d
00000270: d674 94be bad2 20be 270e 4cbd a796 0cbe
00000280: cedb 21be e31c 74be fdd2 993e 09d3 4f3e
00000290: 236b 13be f0d3 b33e 319a b1be d9f8 1cbe
000002a0: 8a66 503e bcc3 3b3e 01eb 833f cadd 143c
000002b0: 4888 c73e 6e87 6c3e fdaa 93be 27ad 073e
000002c0: eb38 b93e cca6 c9be ab93 513e 929a c93d
000002d0: 609f dabe b931 6cbd 4819 32be 0c4a 9b3d
000002e0: e83a e43e 3065 3dbe 7024 8abe fed8 dfbe
000002f0: f32f e9bd 9666 1dbe f48b d6be 4687 193e
00000300: 4b83 8c3e b950 663e c36b 75be 8a8e 763f
00000310: cd8f 73be 9fdd 66be d1c6 303e 36ec b4be
00000320: a1c4 d33e 8f8f 1c3e 8dd4 3ebc 1abb b7be
00000330: 4aa1 82bd 3a9b 153f b157 373f b29b e4be
00000340: a442 00bf 41ab 423f 413e bebe 496c c0be
00000350: d2b2 7ebe be61 913e e647 083f 0e98 70be
00000360: f2f7 04bf f421 d6be cdf4 843e 8731 e6be
00000370: acb9 1e3f a5c9 813e d51b d13e b94f 32bf
00000380: f97a a5be 0f5f 3f3e 017b 04bf 69dd 3c3f
00000390: f26d e0be b216 ebbe 9719 38be f5e8 2d3f
000003a0: 3904 1abd 47fd eebe 954c b13e 9dce a43e
000003b0: d55a d7be 7982 88bb 4442 a3be 2bb2 9ebe
000003c0: 8d35 c33e 700a 60bf 8040 ccbe 1d85 633d
000003d0: cbe5 15be 6c5b 953e 9f14 83be ef3a 3e3f
000003e0: c18e 1fbe f81b 033e 3ab1 e63d f6df df3a
000003f0: 42ec 79bd 1275 bbbe 2e0f 59bd 2ca0 143f
-0.11886965 0.14444938 0.13850749 0.19309783 -0.34279162 0.2637978 0.00483744 -0.043218464
-0.106945574 -0.0049476624 -0.24340323 -0.1556712 0.16105688 0.3444454 -0.12617928 0.3289421
-0.15580769 -0.35161236 0.07223378 0.19865413 0.11978838 0.15190642 0.26803792 0.11746935
-0.16390958 0.30937013 -0.4838008 0.029605301 -0.16051319 0.24994752 -0.24120888 -0.24434596
-0.22872642 -0.31084293 0.43688262 -0.20400584 -0.17810959 -0.07720655 -0.102388576 -0.17290938
-1.1198771 0.23169522 -0.20927873 0.3972707 -0.30222094 0.89627266 -0.041488413 0.043428786
-0.43043625 -0.12917659 0.37370002 -0.0468572 0.57207847 -0.513043 0.20491953 0.029112922
0.3044001 -0.20009382 0.103979796 0.34131697 0.99316883 0.29714063 0.024883904 -0.16695888
0.30254734 -0.3009378 0.06285008 0.6912877 -0.2100708 -0.250283 -1.3780476 -0.001010207
0.07872731 -0.37586358 0.15634319 -0.27940476 0.3429615 0.13576347 -0.28447115 -0.30891943
0.26861697 0.36515018 0.35859618 0.15873551 -0.007302568 0.39307153 0.92735267 1.2805587
0.268264 0.2014851 -0.23700479 -0.37245786 -0.37826222 -0.24541062 0.072662495 -1.2717873
0.0828323 -0.054806102 -0.02786164 0.15345708 0.5213294 -0.025734521 0.09940277 -0.47464
0.07702246 0.34115 0.6731834 -0.19742048 -0.41197327 0.62996674 -0.03684761 -0.2078406
-0.0048780544 0.46883965 0.5819559 -0.44443968 -0.5393578 -0.45824188 0.22372682 -0.4051469
0.35571542 0.2673963 0.38617486 -0.4317016 -0.52795255 0.15090317 -0.5920005 0.6873733
-0.49757773 -0.5846286 -0.17867659 0.4005667 -0.13077296 -0.44411793 0.41220203 0.31958315
-0.31521642 0.08795338 -0.22555694 -0.35422432 -0.3063296 -0.7749632 -0.35721058 0.015494051
-0.22644448 0.46790445 -0.044998385 0.8649958 -0.1631657 0.3009135 -0.10484954 0.16947174
-0.15930699 0.10375512 -0.34272495 0.102829166 -0.2899539 -0.15705386 -0.049818184 -0.13729344
-0.15806505 -0.23839144 0.30043784 0.20295347 -0.14396338 0.35122633 -0.3468795 -0.15329303
0.20351616 0.18336385 1.0306093 0.009086082 0.38971162 0.23098537 -0.2884139 0.13249646
0.36176237 -0.39385068 0.20466487 0.09843935 -0.42699718 -0.057664607 -0.17392457 0.07582483
0.44576192 -0.18495631 -0.26980925 -0.4372024 -0.11386099 -0.15371165 -0.4190365 0.14993009
0.2744392 0.22491731 -0.23966889 0.9631125 -0.23785324 -0.22545479 0.17263342 -0.35336465
0.41360953 0.15289138 -0.011647356 -0.35884935 -0.0637842 0.5843998 0.7161818 -0.44650036
-0.50101686 0.7604256 -0.3715687 -0.37582615 -0.24872902 0.28394884 0.5323471 -0.23495504
-0.51940835 -0.4182278 0.25968018 -0.4495966 0.6200206 0.25349155 0.40841547 -0.696529
-0.32320383 0.18688606 -0.5175019 0.73775345 -0.43833882 -0.45915753 -0.17978512 0.6793359
-0.037601683 -0.4667761 0.3462874 0.32188883 -0.42061487 -0.004165944 -0.31886494 -0.30995306
0.38126794 -0.87515926 -0.3989296 0.05554687 -0.1463844 0.29171312 -0.2560167 0.74308676
-0.155818 0.12803638 0.11264272 0.0017080295 -0.06101633 -0.36612755 -0.052992992 0.580569

regressor.FC_1.linear.bias f4 [25]
00000000: 7ff2 103f 5925 0ebf 65fb d33e 9bca 7b3f
00000010: 1aa3 e43e 2691 ed3e cc2c ad3e 017d b1be
00000020: 20f0 013f ecb3 9e3e f46c 0abe 7a55 133e
00000030: c1f9 863f a162 b53e a1a6 5e3f 3602 703e
00000040: ea95 68be 381c 753e 7cd5 a5be ed06 ff3e
00000050: 2cb5 053f bf94 15be 191a ebbe 8de4 31be
00000060: c313 023f
0.5662002 -0.5552574 0.41402736 0.98356026 0.44655687 0.46399802 0.3382324 -0.34665683
0.50757027 0.30996644 -0.13518125 0.14388075 1.0544969 0.3542681 0.86973006 0.23438343
-0.22713438 0.23936546 -0.32389438 0.4980997 0.5222957 -0.14607523 -0.45918348 -0.17372341
0.50811404

regressor.FC_2.linear.weight f4 [12, 25]
00000000: a87b a5be a4d3 ce3e ddf1 aabe b915 34bf
00000010: 8b1f 36bd 72b4 dbbe 98e7 a2be 6003 0e3d
00000020: 55d6 11bf 97b6 e3be 00d8 9b3e 5fec 35be
00000030: e470 34bf db3d f9be b7bd 1bbf db03 cabe
00000040: d5ac 173d 5ba9 04bf fc4b 48be 6f92 a6be
00000050: fbe0 8bbe 4f0a 99be 5426 06be e5e5 afbe
00000060: 1ebf b8be 0cfb 953e b824 b7be 7a76 7f3e
00000070: a87d 4a3f 15f8 a63e 1d5c a13e 20f5 283f
00000080: f76e 803e aee0 c33e 44e1 1e3f bbd0 3cbe
00000090: 6d83 ce3e d18c 2a3f f28d fa3e 129e eb3e
000000a0: ef3f 213f fdd3 c53d 784f f63e 5561 293e
000000b0: 83d4 fd3e 9e4b 053f a586 bc3e 8cea 68bd
000000c0: e095 b23e a784 993e 946c f03e d492 d8be
000000d0: 18d0 043f 6027 2a3f 3f2e 0c3f fd9e e43e
000000e0: 7cbd 0b3f 85ab b2b8 d7d6 d03e 9d16 073f
000000f0: 6e67 d3be 151a 6a3e 9eda 3a3f 3538 d63e
00000100: 3fcd 183f 9cef 1e3f ad3e 3b3e 233f 973e
00000110: 67e9 423e eca0 dc3e cb68 6b3e 6bca b43e
00000120: 5ff1 093d 4c32 e23d 95bc de3e 05fd ebbe
00000130: 6a6b 223f 04d9 bcbe e703 28bf 15b8 c2be
00000140: 1cb3 b7be c9e8 1dbf 40d5 19be 7160 08bf
00000150: 36ca 25bf b9c0 923e b5f0 f3be 10b9 64bf
00000160: bc63 e0be c0f7 37bf 3f16 04bf acd8 e2bc
00000170: cdc2 a1be 3385 0abe 112e 02bf 55e5 f9be
00000180: f7f3 8fbe 597c 22be c465 96be ea69 e8be
00000190: 8103 dcbe 4a7d 263f d258 b4be d59d 44bf
000001a0: bea9 cfbe e282 b2be 5f81 a3be fb4c 8abe
000001b0: a0da 02bf 6fb4 f7be a912 b33e 39af 3bbe
000001c0: caf4 c9be 9f51 f9be 0308 eabe 85d7 06bf
000001d0: 32bd ce3b 77ad ddbe 375f 83be 6eec 90be
000001e0: a5ff 85be af70 4cbe c775 61be ff0e 47be
000001f0: 16f0 e9be 7575 ccbe 177a 143f 624e 06bf
00000200: 038c 45bf 1233 a9be a63a 18bf d22b c7be
00000210: cbf4 61bd 2c57 07bf 0e3b 2cbf f5ab 5e3e
00000220: 1225 d8be cb55 16bf 4634 e5be aceb 16bf
00000230: 5c45 09bf afd8 59be 99c1 e6be eda1 bcbe
00000240: fb71 30bf eece 64be d88a c8be e86d 15bd
00000250: d605 b6be 2abc a2be cc12 8a3e e090 11bf
00000260: a0ec 8d3e 36c9 3d3f 79fc 8f3e a45d 8f3e
00000270: d438 bc3e 1b2a ac3b 0866 743e baa4 173f
00000280: 6966 ffbe 8e4c dd3e c61b 183f 7475 3f3e
00000290: 49f8 1b3f 4071 663e 6c9c 5e3e 80bb 8c3e
000002a0: 94c6 873e 51cd c33e ae5c 973d bd48 ad3e
000002b0: f434 50bd 35f9 2b3e bb41 d53e a873 7ebe
000002c0: 5840 1f3f 05c9 8bbe aa34 30bf 5511 c5be
000002d0: 5685 18bf 8f73 d5be 6a9d b5bc 9496 2dbf
000002e0: 28a4 ffbe 4844 ea3d 8930 cebe 7381 4ebf
000002f0: 655e 94be b37a 0fbf e90d 0cbf ed8d 12be
00000300: 1328 e1be ea4c b6bd 7fae 11bf 1980 a9be
00000310: 2959 afbe 6357 f33c 1899 85be 8320 03bf
00000320: 015d dcbe 7947 b33e aa23 5dbe 1374 08bf
00000330: adb0 80be 7170 ccbe 2638 a3be 6592 46bc
00000340: 0bcd 2dbf 408a bebe 2d0e b63e def7 d0be
00000350: 4597 4ebf 80c9 0abf 7cd1 36bf abca efbe
00000360: 344b b6bd 3651 f8be 3944 1ebe 9d6c 09bf
00000370: baef 8bbe 777c 04bf e115 e8bc aab6 d4bd
00000380: daf4 14bf 8282 fabe bcb0 1f3f 5deb f7be
00000390: cf3f 58bf 11f9 11bf 1030 fcbe 6bb8 22bf
000003a0: 4aa3 0fbe 5819 34bf be9b fbbe a753 9c3e
000003b0: a0fd dbbe 4eb1 2cbf 662c c4be 7ab8 e6be
000003c0: 160f 1cbf ba3a 6dbc 6d82 11bf e069 c0be
000003d0: 53a3 14bf 2832 e7be 9cb3 00bf 4b6d ba3d
000003e0: f58b e7be a2f6 24bf cbc9 13bf b25d ac3e
000003f0: 3a20 0bbf 0a41 1bbf 9999 0dbf be7c ddbe
-0.32320905 0.40395844 -0.33387652 -0.70345646 -0.044463675 -0.42911106 -0.31817317 0.034671187
-0.5696767 -0.44475242 0.30438232 -0.1776595 -0.7048476 -0.48680004 -0.60836357 -0.39456066
0.03703006 -0.51820916 -0.19560236 -0.32533595 -0.27320084 -0.29890677 -0.13100559 -0.34355083
-0.3608331 0.29293096 -0.35770202 0.24947539 0.79097986 0.32611147 0.3151559 0.6599903
0.2508466 0.38257354 0.6206248 -0.18439 0.40334645 0.6662112 0.4893642 0.46019036
0.6298818 0.09659574 0.48107505 0.16541035 0.49576196 0.5206851 0.36821476 -0.056864306
0.3487997 0.29984018 0.4695784 -0.4229952 0.51880026 0.6646633 0.54758066 0.44652548
0.54586005 -8.5196494e-05 0.4078891 0.5276888 -0.41289848 0.22861512 0.72989833 0.41839758
0.5968818 0.62084365 0.18285628 0.29540357 0.19034348 0.43091524 0.22989194 0.35310683
0.033677455 0.110447496 0.43503252 -0.46091476 0.6344515 -0.3688432 -0.65630955 -0.38031068
-0.35878837 -0.61683327 -0.15022755 -0.5327216 -0.64761674 0.2866266 -0.47644582 -0.8934488
-0.4382609 -0.7186241 -0.51596445 -0.027691208 -0.31593934 -0.13527374 -0.5085154 -0.4880778
-0.28115818 -0.15867747 -0.29374516 -0.45393306 -0.42971423 0.65034926 -0.35224015 -0.7680333
-0.4055919 -0.3486548 -0.3193464 -0.27011856 -0.51114845 -0.48379847 0.34975174 -0.18328561
-0.39444572 -0.48695084 -0.45709237 -0.52672607 0.006309175 -0.43296406 -0.2565858 -0.28305382
-0.26171604 -0.1996486 -0.22017585 -0.19439314 -0.45690984 -0.39933363 0.57998794 -0.5246335
-0.77166766 -0.33046776 -0.5946449 -0.3890062 -0.055165093 -0.5286739 -0.6727761 0.21745284
-0.42215782 -0.5872466 -0.44766444 -0.58953357 -0.5362146 -0.21274064 -0.45069578 -0.3684229
-0.6892392 -0.22344562 -0.3916843 -0.036481768 -0.35551327 -0.31784183 0.26967466 -0.56861687
0.27719593 0.7413515 0.2812231 0.2800113 0.36762106 0.005254043 0.23867047 0.5923573
-0.4988282 0.4322247 0.5941738 0.18697149 0.6092573 0.22504139 0.21739358 0.274868
0.2651869 0.3824258 0.07390724 0.33844557 -0.05083175 0.16794284 0.4165171 -0.24848807
0.62207556 -0.27301803 -0.6883036 -0.38489786 -0.59578454 -0.41689727 -0.022169787 -0.6780789
-0.4992993 0.11438805 -0.40271404 -0.80666274 -0.28978267 -0.560466 -0.54708725 -0.14311953
-0.43975887 -0.08901389 -0.56906885 -0.33105543 -0.3424771 0.029704755 -0.26093364 -0.51221484
-0.43039706 0.35015467 -0.21595636 -0.53302115 -0.25134793 -0.39929536 -0.31878775 -0.012119864
-0.67890996 -0.3721485 0.3555769 -0.40814108 -0.8069957 -0.54213715 -0.714134 -0.4683431
-0.089010626 -0.4849946 -0.15455712 -0.53681356 -0.27331334 -0.5175242 -0.028330745 -0.10386403
-0.58186114 -0.48927695 0.6237905 -0.48421755 -0.84472364 -0.5702067 -0.4925542 -0.6356265
-0.14027134 -0.7035117 -0.4914226 0.30532572 -0.42966938 -0.67458045 -0.38315123 -0.4506262
-0.6096052 -0.014479334 -0.5683964 -0.37580776 -0.58061713 -0.45155454 -0.5027406 0.09102877
-0.45223966 -0.6443883 -0.57729787 0.33665234 -0.5434605 -0.60646117 -0.55312496 -0.43259233

regressor.FC_2.linear.bias f4 [12]
00000000: 5ba3 4cbf 243d 4c3f e35d 573f aca1 42bf
00000010: abef 21bf cc98 6bbf 4739 2b3f 7017 1fbf
00000020: 2c85 6bbf 7ed7 64bf 7f5c 66bf 4451 39bf
-0.7993676 0.79780793 0.84127635 -0.7602794 -0.6325633 -0.92030025 0.66884273 -0.6214514
-0.9200008 -0.89391315 -0.8998489 -0.72389627

regressor.FC_3.linear.weight f4 [6, 12]
00000000: 98f6 65bf 9174 7c3f fc54 893f 6580 18bf
00000010: 2d75 0fbf 39c5 00bf 4078 cb3e fdb7 3abf
00000020: 68fc 89bf 849c 80bf 351a 79bf e745 89bf
00000030: e76f 43bf 762e 7f3f cd7d 673f bd31 08bf
00000040: d917 6ebf 428a 82bf 42b9 0c3f fb2a c6be
00000050: 591b 6bbf 1cfe 7ebf 15cd 25bf 26a5 82bf
00000060: 2d43 2e3f 0cf6 65bf 4cdc 81bf ada1 303f
00000070: b159 4b3f d114 613f 7458 4cbf 2206 623f
00000080: a036 6e3f b1ae 603f 0f52 2a3f 6140 593f
00000090: c1c6 1cbf 2262 763f f659 193f efbd 75bf
000000a0: e065 e3be e530 64bf dd51 6c3f 15c8 28bf
000000b0: abd2 3dbf 1e0a 5ebf 005b 8dbf d7cc 0ebf
000000c0: cd72 4cbf db85 7f3f c75d 193f cee5 80bf
000000d0: 0bcb 5bbf 3a57 88bf 2530 0e3f 72cd 4bbf
000000e0: 5578 16bf 0c01 3fbf 387c 8abf 9c9c 7dbf
000000f0: 05b8 52bf 2aae 5b3f 985c 633f 5fbc 71bf
00000100: 6cd1 1fbf c365 76bf 6ef5 4c3f 7bef 4ebf
00000110: fb09 87bf 4dfc 29bf 259c 2fbf c67c 59bf
-0.898294 0.98615366 1.072906 -0.59570915 -0.5603817 -0.5030094 0.3974018 -0.72936994
-1.0780153 -1.0047765 -0.97305614 -1.0724458 -0.76342624 0.9968027 0.9042633 -0.53200895
-0.9300514 -1.0198443 0.5497018 -0.38704666 -0.91838604 -0.9960649 -0.64766055 -1.0206649
0.6807125 -0.8982856 -1.0145354 0.689967 0.79433733 0.8792239 -0.7982247 0.8829061
0.930521 0.8776656 0.6653146 0.8486386 -0.61240774 0.9624349 0.59902894 -0.9599294
-0.44413662 -0.8913711 0.92312413 -0.659303 -0.7414958 -0.8673419 -1.1043396 -0.5578131
-0.7986267 0.9981362 0.5990872 -1.0070131 -0.85856694 -1.065162 0.5554221 -0.7961036
-0.5877736 -0.7461097 -1.0819159 -0.9906709 -0.8231204 0.8581263 0.8881316 -0.94428056
-0.6242893 -0.96249026 0.80061996 -0.8083417 -1.0549921 -0.66400605 -0.6859763 -0.84956014

regressor.FC_3.linear.bias f4 [6]
00000000: f032 283f 377f 773f 60d9 84bf 04dd 523f
00000010: b29c 633f 6167 7d3f
0.65702724 0.9667849 -1.0378838 0.82368493 0.88910973 0.9898587

regressor.FC_4.linear.weight f4 [1, 6]
00000000: 12e5 603f e52c 693f c014 3dbf 6bb0 573f
00000010: f35e 4a3f 0e51 6f3f
0.87849534 0.9108413 -0.73859787 0.8425357 0.7905113 0.93483055
